results/netD2.pth (torch_old, 405197 bytes, 21 tensors)

model.0.weight f4 [16, 3, 3, 3]
000000 e1 e1 7b bc 22 2b c8 bb 64 79 54 bd 55 47 d5 3a
       -0.015373678 -0.0061086575 -0.05187358 0.0016271869
000010 70 39 11 bd f5 a8 14 bc 7f 36 49 bd 1b 28 9b bc
       -0.035455167 -0.009073486 -0.049124237 -0.018940022
000020 ff 9e 0a 3c 64 fd c1 bb 58 d3 8f bc f9 e0 56 bd
       0.008460759 -0.005920099 -0.017556831 -0.052460644
000030 48 69 22 bd d5 7b f2 bc d1 23 15 bd 50 0c c9 3c
       -0.039651185 -0.029600063 -0.03641111 0.024542004
000040 dd 47 34 3c 50 87 48 bc b2 30 e0 bc 01 66 3b bb
       0.011003462 -0.012239292 -0.02736697 -0.0028594735
000050 5a 58 2b 3c 3b 48 33 bc 3e 63 86 3b 61 4c e7 bc
       0.010458076 -0.010942514 0.004101186 -0.028234662
000060 26 fc 05 bd 5b 4b fe bc 53 df c7 bc 66 23 be 3c
       -0.03271117 -0.031041792 -0.024398481 0.023210239
000070 f9 e3 c8 bb 22 81 e1 3b dc de 69 3c e9 8e db 3c
       -0.006130692 0.006881849 0.014274325 0.026801543
000080 21 34 6d 3c c3 3f d3 3c 99 3f 01 3d 14 16 02 3d
       0.0144777605 0.02578724 0.031554792 0.031759337
000090 eb 08 83 3b 80 71 65 3c f2 6f 1f 3d 19 08 ac 3c
       0.003998866 0.014004111 0.03892512 0.020999955
0000a0 d1 7f c4 3a 34 8c 20 bc b9 4e d6 3c b8 6d a7 3b
       0.0014991706 -0.009799052 0.026160585 0.005109515
0000b0 cf 95 88 bb 1a 2c 66 bc 70 db 46 bc 1e 2b 95 3c
       -0.004168249 -0.014048601 -0.012137279 0.018209036
0000c0 cd b3 9d ba 7c d5 fa 3c 23 7c f5 3c e5 f8 0d 3c
       -0.0012031734 0.030619375 0.02996642 0.008665298
0000d0 f3 e8 7d bc c1 ff 81 bc 1d fd 01 3c ce ac 6e 3a
       -0.015497434 -0.015869023 0.007933882 0.00091047294
0000e0 8d 32 be bc 20 2d 36 bd 75 3e ec bb f9 4b 8d bc
       -0.023217464 -0.04447663 -0.007209594 -0.01724814
0000f0 5a 93 24 3c 69 dd d2 3c 0c 35 c0 3a 56 fe 4a bc
       0.010044897 0.025740342 0.0014664247 -0.01238974
000100 ec 60 41 3a ba e5 8a 3c 96 4d 4e bc 79 7c 94 3c
       0.0007376808 0.016955245 -0.01259174 0.01812576
000110 c8 e5 22 bd ae c4 f9 bc 64 d7 58 3c d1 07 c4 3c
       -0.039769918 -0.030489292 0.013234947 0.023929508
000120 ef e5 35 3c 2b 01 27 bc 7b 52 ed bb ec e0 9b bc
       0.011102184 -0.01019315 -0.0072424985 -0.01902815
000130 4b 73 89 bc 8d 62 78 bb 94 ca 0a bc 10 94 74 bc
       -0.016778609 -0.0037900538 -0.00847115 -0.014927879
000140 ff 18 b7 bc b1 8d ae 3c 46 cf e4 3c 30 d6 cc bc
       -0.022350786 0.021307798 0.027930867 -0.025004476
000150 68 d6 0d 3d d5 3c 64 bc de 4f 96 bc b9 fe f4 3b
       0.0346283 -0.013930519 -0.01834863 0.0074766544
000160 95 c0 e8 3c 50 87 f3 3c 13 30 9b bb b1 4c ae 3c
       0.028412143 0.029727608 -0.0047359555 0.021276804
000170 88 91 24 3c 62 5c 0f 3b 21 d8 9c bc 85 4e f2 bc
       0.010044463 0.0021875133 -0.019146027 -0.029578457
000180 82 4c 02 bd 62 78 b4 3b 3d cd 20 bc 99 50 99 3b
       -0.031811245 0.005507515 -0.009814558 0.0046787974
000190 29 b8 95 bc eb 1e 24 3c 9d fb 00 3d 4e 94 c8 3c
       -0.018276291 0.010017137 0.031489957 0.02448478
0001a0 71 8e 42 3c b8 d5 d8 bb ca 85 b9 bc 8e 14 ba bc
       0.011874781 -0.006617274 -0.022646803 -0.02271488
0001b0 46 40 fc bc 6b 52 64 bc 20 b2 ef 3b 59 d3 10 bd
       -0.030792367 -0.013935666 0.0073149353 -0.035357807
0001c0 4d 0d 06 bd cf dc d3 bc ff 4c 45 bd 21 4b d1 3c
       -0.03272753 -0.025862126 -0.048169132 0.02554852
0001d0 6c 2c 06 bc 51 a9 4d bb e5 da 96 bc 90 9b f2 bc
       -0.008189302 -0.0031381438 -0.018414924 -0.029615194
0001e0 56 db 06 3c 3a e4 f9 bc 65 f8 2a bd 54 ae 8a 3c
       0.008231005 -0.030504335 -0.041740794 0.01692883
0001f0 63 9e ed 3b 9d de 73 bc 45 77 07 3a df d9 8c bc
       0.007251547 -0.014884618 0.0005167614 -0.017193733
000200 23 01 04 bc a5 5e 52 3a a2 79 82 bc 77 c6 d9 bc
       -0.008056912 0.00080249674 -0.01592714 -0.026583893
000210 75 75 08 bd 14 0e 0e bd f0 42 cf 3a 1d 59 7c 3b
       -0.03331514 -0.034681395 0.0015812796 0.0038505264
000220 79 c1 26 bd 60 61 8a bb b1 cb 82 bc 0c fd 32 bb
       -0.040711854 -0.004223034 -0.015966268 -0.0027311472
000230 6e b8 ea bb 15 a9 6c bd 5a ff 9b 3c 2b e6 c4 bc
       -0.007163099 -0.057778437 0.01904266 -0.024035534
000240 32 04 64 bd b9 3d ee bc a2 cd 63 bc 27 cd 03 bd
       -0.055668063 -0.029082166 -0.013904007 -0.03217807
000250 d1 e6 39 3c 2a cb 52 bc ef e5 f9 bc 53 03 9d bb
       0.011346535 -0.012865821 -0.030505149 -0.004791656
000260 77 04 47 bc 08 24 8f bb 4b 85 42 bc 00 46 d1 3a
       -0.012147061 -0.004368309 -0.0118726 0.0015966296
000270 01 df 2a bc 42 a3 00 bd 07 10 2c bd ac 82 f2 bc
       -0.010429145 -0.031405695 -0.042007472 -0.029603325
000280 95 69 94 bb 51 eb 9b bb af bb 3d 3c ea f2 2b bd
       -0.004529188 -0.0047582765 0.011580392 -0.041979708
000290 20 11 e2 bc f7 c0 1c 3d 59 79 16 b9 90 40 96 3c
       -0.027596056 0.038269963 -0.0001435032 0.018341333
0002a0 5d d7 9f 3c fa 31 2b bb 60 33 33 3c 00 02 81 3c
       0.019511873 -0.0026122318 0.010937542 0.015748024
0002b0 42 6a d7 3c 94 fc 07 3b a3 da 6f bb f9 c2 bf bc
       0.026295785 0.0020749914 -0.0036598823 -0.0234084
0002c0 82 e6 79 bc 24 ff dd 3c 60 eb d3 bc c7 dc 3c 3d
       -0.015252711 0.0270992 -0.025869071 0.046108987
0002d0 cb cf 83 bc 95 00 27 bc 35 82 2b 3c 68 b1 9f bb
       -0.016090294 -0.01019301 0.0104680555 -0.0048734434
0002e0 22 9f 6d 3c 92 57 f1 bb 84 12 9f bc 48 f5 1f bc
       0.014503272 -0.0073651755 -0.019418009 -0.009763069
0002f0 07 69 6a bc fb 5c 68 3c 9b ed 32 bb 89 47 84 bb
       -0.014307267 0.0141823245 -0.0027302268 -0.004036848
000300 e6 bb 68 bc 7b 36 41 3c a1 83 08 3c 01 f6 5a bc
       -0.014204955 0.011792774 0.008332164 -0.013364316
000310 24 0a 8d 3c 85 f9 b8 bb 1f 67 0c bd b5 9e 0e bd
       0.01721675 -0.0056449794 -0.03427803 -0.034819324
000320 cd 5e b3 ba b0 5b a6 ba 4b a9 df bc 1b 10 47 bd
       -0.0013684869 -0.001269212 -0.027302405 -0.048599344
000330 ea 01 eb 3b 3d 8f ba bb 68 7e f1 3b 13 55 5e bc
       0.007171859 -0.005693345 0.007369805 -0.013570088
000340 98 24 a6 bb 5c d3 48 3c 1e bf ae bc 80 a2 55 3a
       -0.0050702803 0.012257423 -0.021331366 0.00081495196
000350 cf ce ad bc 32 86 50 3b bc 18 d5 bb c1 70 6c bc
       -0.021216778 0.0031818268 -0.0065031927 -0.0144311795
000360 62 8f 15 3c 3e cd 9c 3c 25 6b 06 bd 86 48 d7 3c
       0.009128423 0.019140836 -0.032817025 0.026279699
000370 81 60 ef 3b d3 27 0d 3c 61 45 dc 3b de 3d 88 bb
       0.0073052053 0.008615452 0.006722138 -0.004157766
000380 e6 da f3 3c 8c ef 6e 3c 28 8e 27 3d 8c 2c 4a 3d
       0.029767465 0.01458348 0.040907055 0.04935889
000390 82 68 0c 3c 4b ed 88 3c 41 f7 4b 3c e5 a8 17 3d
       0.0085698385 0.016714713 0.012449087 0.037026305
0003a0 51 45 05 3c ff 83 94 3b 63 bc b8 3b 9f 0f c4 3c
       0.008134202 0.0045323367 0.005637692 0.02393323
0003b0 dc 5b dc 3c 60 1a 54 bc ea b9 1b 3d bf 3e 87 3c
       0.02689927 -0.012945741 0.0380191 0.016509412
0003c0 36 3e 80 bc 81 9e 8a 3c 89 00 8b 3c f0 5d 04 3c
       -0.015654664 0.016921284 0.016968029 0.008079037
0003d0 8e 13 fc bb 76 cf 19 3b b7 77 fd 3b d9 d4 a7 bb
       -0.007692761 0.0023469604 0.0077352184 -0.005121809
0003e0 c7 db 86 3a 8c 99 69 3c 70 a1 e0 ba 7f ae fd bb
       0.0010288887 0.0142578 -0.0017137956 -0.007741749
0003f0 56 05 3d ba 3d 35 21 3c dd 4c a1 3d 60 49 c7 3c
       -0.0007210573 0.009839353 0.07875989 0.02432698

model.0.bias f4 [16]
000000 ff be 85 bd e1 75 37 3e 8a 37 40 be 1e dc 8e bd
       -0.0653057 0.17916061 -0.18771186 -0.06975578
000010 a2 51 8c 3d 34 a7 71 bd cd 3f 1c 3e a9 4e bf bd
       0.06851508 -0.058997348 0.15258713 -0.09341175
000020 f4 15 2b be 0e be 8e bd 47 6d 91 bd 62 1e 34 be
       -0.16707593 -0.06969844 -0.07100921 -0.17589715
000030 45 1c cd 3d 21 17 12 bd 69 83 26 be 3a 2e 7c 3d
       0.100151576 -0.03566659 -0.16261066 0.061567523

model.3.weight f4 [32, 16, 3, 3]
000000 e9 59 fd 3b 46 a0 a9 3b 99 40 9b bb 81 5c 98 bc
       0.0077316654 0.005176577 -0.0047379253 -0.018598797
000010 6e 9a 54 3d b8 28 29 3c 2a 02 50 3d f4 ad a7 3c
       0.051905088 0.0103246495 0.050783314 0.02046869
000020 6e 59 e4 3c b3 d9 94 bc fa 29 9a bc e1 4c 6c 3b
       0.027874675 -0.018170213 -0.018818844 0.0036056566
000030 b1 57 de 3c 4f 69 f3 bc 45 ac 13 3b 77 f8 ca 3c
       0.027141424 -0.029713301 0.00225331 0.02477668
000040 c4 c2 1e 3c 6e c9 fe 3c 5a c2 e7 3b c3 0f 93 b9
       0.00968999 0.031101909 0.007072729 -0.00028049768
000050 50 47 ab bc 5e 76 7d 3c d4 31 b5 3b 16 1f 8a bc
       -0.020908028 0.0154701155 0.0055296216 -0.016860526
000060 dc 26 c6 bc ab 7b 73 bc af 54 0f 3d d7 66 fc 3a
       -0.024188451 -0.014861028 0.03499287 0.0019256723
000070 4f 00 42 bd ca 7a 89 bc 47 27 ae bc 58 35 27 bd
       -0.047363576 -0.016782183 -0.021258963 -0.040822357
000080 64 dc 43 3c 45 51 31 bd c5 f1 f8 bc 69 a8 49 bb
       0.011954401 -0.043290395 -0.030388722 -0.0030770546
000090 82 1b 36 3c 1a 0b e3 3c c6 64 63 3d 45 a4 c9 3c
       0.011114957 0.027715255 0.055516027 0.024614463
0000a0 96 92 14 bb 22 92 de 3c 00 a7 c3 3c 6f 01 c4 bb
       -0.002267038 0.02716929 0.023883343 -0.005981616
0000b0 ca 9f 61 3c 41 ad 29 bc 2c b9 10 3d 84 44 f6 3c
       0.013771007 -0.010356248 0.035332844 0.030061968
0000c0 86 73 1c 3d 0f 9a 10 3d ca e7 a3 3c c4 9b 02 3c
       0.03819611 0.03530317 0.020007987 0.007971708
0000d0 a1 22 ce 3c 69 eb 48 bb 33 ea 3b bc a0 0e 82 bc
       0.025162997 -0.0030657894 -0.011469412 -0.015876114
0000e0 1b 35 af 3c b6 32 a1 3c 00 44 25 38 a7 af f8 bc
       0.021387627 0.019677501 3.9402395e-05 -0.030357195
0000f0 af f4 2a 3d 40 f5 90 bc c6 a9 34 3b b0 4d 49 3c
       0.041737255 -0.01769507 0.0027567013 0.012286589
000100 b6 d6 15 3d f8 d0 39 3c aa 03 6a 3c b0 01 18 3c
       0.036581717 0.011341326 0.0142831 0.009277746
000110 bf 39 09 bd c1 db 46 3d 19 43 a3 3c 8f 5c 87 ba
       -0.033502337 0.048549417 0.019929456 -0.0010327267
000120 8b c3 57 bd 73 de 6b bc 2a 4b 4f bc 46 26 59 bd
       -0.05267672 -0.014396298 -0.012652198 -0.053015016
000130 15 ef 46 3c 89 fd 18 bd fc dd 8d 3b 18 2c 55 3a
       0.012141963 -0.037351165 0.004329441 0.00081318757
000140 1d 15 91 bd d5 c8 9d bc b4 ed 84 ba a5 20 4b bc
       -0.07084105 -0.019260803 -0.0010141642 -0.01239792
000150 33 05 61 3b a5 33 42 3c 8a cb 9a bc bc 56 e6 bc
       0.0034335374 0.011853133 -0.018895883 -0.02811753
000160 25 e0 15 3c 08 e7 31 3d 78 5a fb bc 1f 70 36 3c
       0.0091476785 0.04343322 -0.030682787 0.01113513
000170 af ce 19 3d a8 3d 30 bd bd c8 27 bc e0 cd 40 bd
       0.037550624 -0.04302755 -0.010240731 -0.047071338
000180 86 54 50 bd b6 b3 40 bd cb 64 f4 3a d3 fb 4a bc
       -0.050861858 -0.047046386 0.0018645761 -0.012389141
000190 0e 03 f9 bc a5 96 1f 3c d6 86 27 ba d7 55 36 bd
       -0.030396964 0.009740506 -0.00063906366 -0.044515457
0001a0 e0 57 72 bc db 9e 7a bc d2 a6 07 bc 1b 61 86 bc
       -0.014791459 -0.015296663 -0.008279519 -0.016403725
0001b0 b4 70 af bc 9a 28 2f bd 73 be 09 bd f3 a8 30 3b
       -0.021416046 -0.04276333 -0.033628892 0.002695617
0001c0 13 53 13 bc 39 b6 a4 bc 92 69 86 3c 10 01 d4 ba
       -0.008991974 -0.020106422 0.016407762 -0.0016174633
0001d0 f8 91 5c 3c bc ad 29 3d 08 63 d4 bb ac 7c 88 3c
       0.013462536 0.04142545 -0.006481532 0.01666101
0001e0 e8 10 8a bc 26 8f 49 bc dd 1b d0 bc e4 dc 79 bb
       -0.016853765 -0.012302196 -0.025403911 -0.0038126046
0001f0 2c a7 9a bc 6a db 69 bb 83 b8 a1 bc 0e 14 f8 bc
       -0.018878542 -0.003568376 -0.019741302 -0.030283
000200 86 b7 30 bc 48 c0 a4 3a 69 bd ee bb bf d1 94 3c
       -0.010785943 0.0012569511 -0.007285763 0.018166421
000210 ec 66 45 3c b1 3a 0e bd 5d 9e bb bb 62 6c 41 3c
       0.012048464 -0.03472394 -0.0057256655 0.011805626
000220 66 c4 4b ba 11 70 bc 3c a8 6a 09 3c 6f 4d 0b 3b
       -0.0007773101 0.023002656 0.008387245 0.002125587
000230 b1 c7 31 bd 8e 9f 30 3d 53 07 b4 bc 6b 50 b2 ba
       -0.04340333 0.043120913 -0.021976149 -0.0013604289
000240 4c 17 49 3c df 6d e8 bc c3 69 94 bc cb 64 c8 3c
       0.012273621 -0.028372703 -0.018116837 0.024462124
000250 e6 f9 0f 3c f0 02 98 3c d0 0e 88 b9 17 f8 c4 ba
       0.008787608 0.018556088 -0.00025950978 -0.001502755
000260 68 25 e4 3b b4 42 a5 ba ce 5a c3 3c 33 3f 6e bb
       0.006962467 -0.001260838 0.02384701 -0.0036353588
000270 34 59 d1 3b 5b ee 18 3d 8e 78 65 3b 26 68 e9 bb
       0.0063888077 0.03733669 0.0035014483 -0.007123011
000280 c8 7a b6 bc b8 52 7b bc 90 51 f4 3c 7b dd 08 3c
       -0.022275344 -0.015339546 0.029824048 0.008353586
000290 38 c8 07 bd 5f b0 74 3b 94 2e 01 3a 28 4c 0d bc
       -0.033149928 0.003733657 0.00049279 -0.008624114
0002a0 8b 0b 92 bc e8 09 48 3b db 1a 97 bb 78 b1 ca 3c
       -0.01782777 0.0030523483 -0.0046113557 0.024742827
0002b0 d6 ab 09 3d fa cd 4d bc 1e 9d 23 3c 3d 3b 9f bb
       0.03361114 -0.012561316 0.00998619 -0.0048593567
0002c0 e2 e8 fe bc 33 d3 96 3c 72 9a 83 bc 40 ae 9e 3b
       -0.031116907 0.018411255 -0.016064856 0.0048425496
0002d0 7a 10 38 bc c6 c3 19 bb 3d a2 8d bc ee 58 a9 ba
       -0.011234397 -0.0023462637 -0.017289275 -0.001292018
0002e0 9a 52 af 3c 46 f7 c8 3c ba cd 92 3a ed 21 34 bd
       0.021401692 0.024531972 0.0011200227 -0.043977667
0002f0 31 3f 8b bc 8d 98 76 3c f8 16 87 b9 0d 77 14 3c
       -0.016997905 0.015051019 -0.0002576632 0.009061587
000300 21 b6 d6 bc ea 0c 57 3c b2 5a 56 bd f4 b8 8c 3c
       -0.026209893 0.013125638 -0.052332588 0.017178036
000310 62 8f f1 3c 54 58 31 bc 63 af 7c 3c 68 e8 0d bc
       0.029487316 -0.010824282 0.015422675 -0.008661367
000320 e9 60 9d 3b 36 7f 5f bc 27 23 1f 3d 11 4a 7b ba
       0.0048028124 -0.013641169 0.038851883 -0.0009585927
000330 85 a8 6b bb 53 a3 36 3c be 2d 16 3d 0b fd d0 3b
       -0.00359586 0.011147338 0.036664717 0.0063778213
000340 56 92 1d bc d0 fb e4 bc 3d 7c c9 3c 44 25 94 3c
       -0.009617409 -0.027952105 0.024595374 0.018084176
000350 59 85 20 bd e8 8b ad bb e3 2e 1e 3c b4 3e 52 3c
       -0.03918967 -0.005296219 0.009654733 0.012832332
000360 81 46 2a bc 7e 9b 9d 3c 2c f4 ac 3c b7 17 11 3d
       -0.010392786 0.019239184 0.021112524 0.035423007
000370 2c d9 4e 3c 0d 48 4b bc 2d a6 d8 3a d6 4b a6 3c
       0.01262502 -0.012407315 0.0016529016 0.020299833
000380 1d 63 b6 3c f2 62 82 3c cf f6 62 3d 23 7b 6f 3c
       0.022264058 0.015916321 0.055411156 0.01461676
000390 47 0e 6c bc af 0e 87 3c 38 54 94 3b 3e 8c 32 bc
       -0.014407701 0.016486494 0.004526641 -0.010897694
0003a0 ff 79 cd 3b 74 7a bc ba e5 e2 02 bc 95 20 95 3b
       0.0062706466 -0.0014379756 -0.007988666 0.004551003
0003b0 16 6e 91 3b 2f 5b 9e 3c c0 0d f3 bb 22 e1 be 3c
       0.004438172 0.01933059 -0.0074174106 0.023300711
0003c0 2d 64 06 3c fd 6f 98 bc ae 23 9c 3b 73 14 74 3c
       0.008202595 -0.018608088 0.0047649955 0.014897454
0003d0 44 b0 34 bc 31 bd dd 3c a7 ba ad 3c fb 39 d3 bc
       -0.011028353 0.027067753 0.021207167 -0.025784483
0003e0 0f b2 26 3c 1d dc 00 bd 6c 9c ca bc cd 6e 3b bb
       0.010174288 -0.031459916 -0.02473279 -0.0028599978
0003f0 bc 34 a1 bb 04 66 84 3b bb c8 8a 3c 40 80 37 bc
       -0.0049196165 0.0040404815 0.016941419 -0.011200011

model.3.bias f4 [32]
000000 41 37 85 bc 55 f7 70 bd 2e 47 1f bd 1c 3a 37 3d
       -0.016261699 -0.058829624 -0.03888624 0.04473315
000010 d1 9b 1b bd 99 b7 9a bd b9 80 35 3c a4 68 98 3d
       -0.037990395 -0.0755455 0.011078053 0.074418336
000020 4e b3 bc bb 95 4a e8 3c 63 93 98 3d 37 41 85 bd
       -0.0057586795 0.028355876 0.07449987 -0.06506579
000030 3d 79 a7 3c c3 15 7d bc 77 f7 71 bd ca 45 bf bb
       0.020443553 -0.015447083 -0.05907389 -0.005837177
000040 4b 41 7c 3d ef 37 8c bd c2 df a6 3d 29 69 35 bb
       0.061585706 -0.06846606 0.08148147 -0.0027681089
000050 6b c3 e4 bc b3 7e f7 3c a5 85 64 3c 94 9b 63 bd
       -0.027925214 0.030211782 0.013947879 -0.055568293
000060 53 eb 58 3c 2e fb 95 3d 27 a0 63 3d 0f c0 de 3c
       0.013239699 0.07323299 0.055572655 0.02719119
000070 77 1e 7c bd 56 a1 34 3c f9 1e 4b bd d9 0a 67 bd
       -0.06155249 0.011024794 -0.049590085 -0.05640683

model.6.weight f4 [32]
000000 03 0e 7e 3f ab bb 7c 3f 17 2e 7d 3f 60 b9 80 3f
       0.9924013 0.9872386 0.9889845 1.0056572
000010 05 e5 83 3f e5 f3 80 3f 67 e9 83 3f ad 51 80 3f
       1.0304266 1.0074431 1.0305604 1.0024925
000020 90 1c 82 3f c2 dc 78 3f 08 dd 7e 3f b8 e6 79 3f
       1.0164967 0.9721185 0.99556017 0.97617674
000030 62 59 7d 3f 5e 27 82 3f e6 c9 81 3f ce 4e 7d 3f
       0.9896451 1.0168264 1.013974 0.9894837
000040 00 f0 80 3f 78 52 82 3f c4 ca 81 3f f8 11 80 3f
       1.0073242 1.0181417 1.0140004 1.0005484
000050 21 7f 80 3f 4c 65 81 3f 95 f4 83 3f 21 5e 7e 3f
       1.0038797 1.0109038 1.0309016 0.9936238
000060 9b b1 80 3f e5 7f 74 3f eb a5 7c 3f 0d e1 7e 3f
       1.0054201 0.9550765 0.9869067 0.9956215
000070 3c 16 82 3f 26 d8 81 3f 00 3c 81 3f 83 1e 7d 3f
       1.0163035 1.0144088 1.0096436 0.9887468

model.6.bias f4 [32]
000000 4a 40 71 bb 27 59 53 bb e2 5b f6 bb 78 95 8f 3b
       -0.0036812 -0.0032249184 -0.0075182775 0.0043818317
000010 5a 5b e1 ba 48 1a 86 ba 83 ec fd 3b f1 b7 c2 3b
       -0.0017193363 -0.0010231221 0.0077491417 0.0059423377
000020 a8 e0 5d bb ba 02 43 3b 40 da 4d bb 88 00 f6 3a
       -0.003385583 0.0029756264 -0.0031410605 0.0018768469
000030 9c da 8c 39 7c 33 d3 bb 80 5b 21 38 04 ba 5f 3b
       0.00026865758 -0.0064453464 3.8470607e-05 0.0034137974
000040 6f fb cd 3b 24 ff 6f bb 67 52 12 3c f7 9d c6 ba
       0.0062860767 -0.0036620582 0.008930779 -0.0015153278
000050 db 9c 5e bb 54 73 36 3b 44 fc 83 ba 0d 03 df ba
       -0.0033968005 0.0027839737 -0.0010069688 -0.0017014459
000060 a7 79 02 bc ef a7 61 bb 69 03 15 bc 79 19 f1 bb
       -0.0079635745 -0.0034432372 -0.009095051 -0.007357773
000070 9b ae 03 3c cb 0c 29 3b 44 c3 f6 ba cd 4f 20 bb
       0.008037235 0.0025794979 -0.0018826504 -0.0024461627

model.6.running_mean f4 [32]
000000 cf 48 a7 3b 0b 0e cd bb 97 44 01 3c a7 eb d8 3d
       0.005105115 -0.0062577776 0.007889888 0.10591822
000010 13 54 e6 ba aa 69 c3 bc 91 f9 0d 3e db 71 10 3e
       -0.0017572663 -0.023854095 0.13864733 0.14105932
000020 83 3d 3c 3d 50 7c c0 3d 35 40 ba 3d 10 07 bc bc
       0.0459571 0.09398711 0.09094278 -0.022952586
000030 71 f7 b5 3c 12 85 aa 3c 30 b2 18 3c 1c 71 5f 3d
       0.022212716 0.020815406 0.009319827 0.05455123
000040 7b 65 0c 3d 67 1b 00 bd b6 31 f3 3d 9b b4 b4 3c
       0.034276467 -0.031276133 0.11874716 0.022058776
000050 9b 06 8f bb 4a aa b4 3d 8f 0f f2 3d 4a 68 97 bc
       -0.004364801 0.088215426 0.11819374 -0.018482346
000060 7a 20 1e 3d c0 d3 82 3d 8b 52 07 3d e6 d3 c8 3b
       0.03860519 0.06388044 0.033037703 0.006128776
000070 a2 15 ee ba 49 2e 91 3d 5a 32 80 bc 2e 32 0b 3b
       -0.0018164406 0.07088906 -0.01564901 0.0021239626

model.6.running_var f4 [32]
000000 a8 8f fd 3a 3f 0e f0 38 b6 96 53 3a 49 bd eb 3b
       0.0019345181 0.00011446745 0.0008071469 0.0071941954
000010 54 4a 80 39 6e ff 97 39 c4 f1 58 3c 76 6f 3e 3c
       0.0002446944 0.00028991274 0.013241235 0.011623254
000020 42 58 44 3b 61 e7 be 3b 7a 3c 90 3b 2e 2c 23 3a
       0.0029959832 0.0058259224 0.0044017406 0.000622454
000030 b0 23 07 3b ac e6 9a 3a a5 53 86 3a dd a5 7a 3b
       0.0020620637 0.0011818013 0.0010248317 0.0038245835
000040 b7 f0 c5 3a e7 42 38 3a ad 35 96 3b 7a e4 99 3a
       0.0015101646 0.0007029012 0.0045840354 0.0011741065
000050 55 f2 66 38 77 95 cf 3b ff b8 15 3c b3 cc 5f 39
       5.5061962e-05 0.0063349563 0.009138345 0.00021343194
000060 55 b9 47 3b 82 8c 08 3b 01 43 5b 3a b0 88 07 3a
       0.0030475457 0.0020835702 0.00083641714 0.00051702093
000070 d3 97 7b 39 3f e1 8a 3b 78 22 dd 39 a1 5f d2 39
       0.00023993784 0.004238277 0.00042178086 0.0004012557

model.7.weight f4 [64, 32, 3, 3]
000000 dc 34 1a bb a9 bc 09 bc 6f c5 4a 3d a5 73 82 bb
       -0.0023530042 -0.0084067965 0.049504694 -0.003981071
000010 19 df 47 bc 98 62 4d 3d 76 f4 e0 3a 33 85 07 bd
       -0.012199187 0.050142854 0.0017162699 -0.033086013
000020 60 53 02 3d 91 97 12 3b d9 b6 80 bc 17 c5 22 3c
       0.031817794 0.0022368173 -0.015712189 0.009934685
000030 69 1b d6 3c 0c 61 cb bc a0 08 1c bd 83 8c ba 3c
       0.026136117 -0.024826549 -0.038094163 0.02277208
000040 9b c9 67 3b 85 53 b4 3b 3e 3d e1 bc 6a cc 97 3c
       0.003536797 0.0055031204 -0.027495023 0.01853009
000050 93 ba b6 bb 77 bf 4b 3d dc 5b 9c 3c 57 c6 8e bc
       -0.0055764406 0.049743142 0.01908677 -0.01742856
000060 a3 0d 1f 3d 50 fd 8a 3c eb 64 4d bd 2e 76 ae 3c
       0.038831364 0.016966492 -0.05014507 0.021296587
000070 9a a9 69 bc a7 5f d4 bc a3 64 e6 bc b7 31 00 bd
       -0.014261628 -0.025924517 -0.02812416 -0.03129741
000080 1c c4 8c bc 34 39 c4 bc b4 1c d4 bc df 25 3e bd
       -0.017183356 -0.023953058 -0.025892593 -0.046422835
000090 5e a7 80 bc e8 99 51 bc 44 60 14 3b da 78 09 3c
       -0.015704807 -0.012793042 0.0022640387 0.00839063
0000a0 5c a1 27 3b 07 97 52 3c cf a9 4c 3c c2 3f 94 bc
       0.0025578355 0.012853391 0.012491657 -0.018096808
0000b0 2e 4a 07 bd 34 53 f6 3b 6d 52 11 3d 7f d9 b8 bb
       -0.033029728 0.007517243 0.035478998 -0.005641162
0000c0 0b 39 6f 3c 3b 72 d0 bc ef 10 98 bc 34 b3 27 bb
       0.014601002 -0.025445094 -0.018562762 -0.002558899
0000d0 ad cd cf ba 48 e9 a6 3c 1a 45 29 3c fc a6 f9 3c
       -0.0015854143 0.020374909 0.0103314165 0.030475132
0000e0 7f 2a a6 3b 58 c4 73 3c d9 d6 20 3d ac 7b 99 3c
       0.005070984 0.014878355 0.039267395 0.01873573
0000f0 d4 ed 0c bd 97 a3 9b bb 0c f6 d0 bc ca ab 08 bb
       -0.034406498 -0.004749726 -0.02550795 -0.0020854347
000100 ab 1b 91 bb 31 ae 0e 3b 65 69 29 3d 2d c4 9e 3c
       -0.004428347 0.0021771307 0.041360278 0.019380653
000110 82 e3 14 bc fa 05 58 bb ae 58 43 3c f7 87 5b 3c
       -0.009087445 -0.0032962547 0.011922998 0.013399116
000120 a3 5b 15 3c c0 b2 67 bc 48 b2 df bc da 5d b5 3c
       0.009116086 -0.014141738 -0.02730669 0.022139478
000130 e1 7b 41 bc f6 07 92 3c a5 a6 d8 ba ee 35 6d 3c
       -0.01180932 0.017826062 -0.0016529156 0.01447819
000140 90 3e b2 3b 44 03 25 3d cf aa 37 3d 3a 21 b0 bc
       0.005439587 0.040286317 0.04484063 -0.021500219
000150 f7 f6 fb 3a ec f2 8a 3c 00 1a c5 39 d7 3f 40 3c
       0.0019223382 0.016961537 0.0003759414 0.011733971
000160 2b 82 56 bc 82 a8 d6 bc 0a 5a 8b bb c3 05 2a 3d
       -0.013092558 -0.026203398 -0.004252677 0.0415094
000170 3a 34 f8 3c ea 91 bc bc 82 a7 1b 3d db f3 db bb
       0.030298341 -0.023018796 0.038001545 -0.0067124194
000180 b5 58 29 bb e4 8f c6 3c f0 f2 b0 bc a6 28 b4 3b
       -0.0025840227 0.024238534 -0.021600217 0.0054980097
000190 88 07 1b bc 88 8f fc bc dc 30 89 3c 72 77 b0 bb
       -0.009462245 -0.03083016 0.01674693 -0.0053853327
0001a0 4c d9 28 bc 7b 7e ea 3b 6e f8 38 bc 41 17 95 bc
       -0.010305714 0.007156191 -0.011289699 -0.018199565
0001b0 69 e5 d4 3c c1 c4 88 3b 0b 68 9e 3c 6d 46 21 bd
       0.025988298 0.0041738455 0.01933672 -0.039373804
0001c0 9c e4 1c bb 36 a3 c6 3b 63 b4 64 bc 39 e3 a5 bc
       -0.0023939973 0.0060619367 -0.013959023 -0.02024995
0001d0 c9 ac bc bc ad 77 01 bd f7 71 09 3d cb 00 0a bd
       -0.02303161 -0.031608272 0.03355595 -0.033692162
0001e0 f8 15 db 3c 61 cc ca bb e7 b9 49 3c d2 e0 be 3c
       0.026743874 -0.0061889146 0.012312389 0.023300562
0001f0 e5 d6 06 3d 84 88 13 3c 6a 61 ac bc 9c 99 c4 bc
       0.032919783 0.009004716 -0.021042544 -0.023999028
000200 90 27 f0 bb 7f e1 15 3b fc 86 b3 3c 7e 71 41 bc
       -0.007328935 0.0022870002 0.021914952 -0.011806844
000210 1e 81 d2 bc 82 22 3b 3d 13 a4 36 3c 0f 0c f4 3c
       -0.025696333 0.045687206 0.011147517 0.029790906
000220 16 67 5e 3c c8 a0 b9 bc fc ce e7 3b 12 14 32 bd
       0.013574382 -0.022659674 0.007074235 -0.04347617
000230 1f 4e 25 bc be 72 11 3d 7c c0 0b 3b 90 a6 37 3c
       -0.010089426 0.035509817 0.0021324446 0.011209145
000240 6a b0 b2 3c d0 bb 39 3b 72 b3 d0 3c cc ad 55 3c
       0.021812636 0.0028340705 0.025476191 0.013041925
000250 15 34 f7 3b 0b 97 09 3c 6e 77 e3 bc da 53 4a 3c
       0.0075440505 0.008397828 -0.02776691 0.012349093
000260 7e ec 58 3b e6 7f c1 ba b0 f9 f8 bb ed fb ef 3b
       0.0033099945 -0.0014762848 -0.0075981244 0.007323733
000270 88 a2 34 bc 8c 72 54 3c 03 5d 2e bc bd a3 2f 3d
       -0.011025079 0.012966763 -0.010642293 0.042880762
000280 5c e3 10 3c ef 4a 40 bb 30 17 29 3c e2 cc 55 bd
       0.008843269 -0.002934154 0.01032047 -0.052197345
000290 a7 d6 b0 3c 70 18 09 bc b4 c3 a3 bc c8 88 84 3b
       0.02158673 -0.008367643 -0.01999078 0.004044626
0002a0 15 10 0a bd af 01 23 bc da 3d 54 3b 29 29 2f 3c
       -0.033706743 -0.009949132 0.00323855 0.010690966
0002b0 f9 97 08 3d ee 9b 05 bd 48 dd 20 3c 7e 76 46 bc
       0.033348057 -0.03261941 0.009818383 -0.012113212
0002c0 5d 7f a5 3c ab d0 29 ba 04 b9 2b 3d 45 5e 0c bc
       0.020202333 -0.00064779323 0.04192449 -0.0085673975
0002d0 92 49 29 3d 2d ee a1 ba 92 05 08 bc 98 98 45 bc
       0.041329928 -0.0012354307 -0.008302109 -0.012060307
0002e0 d4 68 fd 3c a3 b6 9f bb 6b b0 8f bc 62 ca 30 3c
       0.030933775 -0.004874067 -0.017540177 0.010790439
0002f0 03 f6 b1 3b 9a 1c 3b 3c 24 1b 02 b9 ce 40 13 bc
       0.005430938 0.011420393 -0.00012407877 -0.008987619
000300 7d 20 47 bb d2 73 d2 bc 54 60 47 3c 7a 9c 88 3c
       -0.0030384355 -0.025689993 0.0121689625 0.016676176
000310 a9 c2 12 bc 21 cd 03 bd 78 db 35 3a 28 f3 1c 3d
       -0.008957543 -0.032178048 0.00069373054 0.03831783
000320 bb 16 c0 3c 86 aa 90 3c 9b 25 3b 3d 8c 38 dd 3b
       0.023448339 0.017659437 0.04569016 0.0067511257
000330 56 88 0a bd c9 36 00 3c 46 ad 5b 3b df cf 3e bc
       -0.033821426 0.007825562 0.0033520027 -0.01164624
000340 1f 37 8a bc a4 63 87 3c 81 69 1d 3c 18 5b b9 3c
       -0.016871987 0.016527005 0.009607674 0.022626445
000350 a3 7a 00 3d 25 c2 67 bc 5a 55 4c 3c c5 45 a3 bc
       0.031366955 -0.014145409 0.012471521 -0.01993073
000360 69 d8 1a 3c e1 bf 8c 3c a2 4d 78 3c 63 0f 39 bc
       0.00945101 0.017181339 0.015155228 -0.011295172
000370 50 ce 8e 3c 3b bd dd 3b 0d ca 70 bc 92 e7 aa 3c
       0.017432362 0.006766943 -0.01469661 0.020862374
000380 32 03 1a bd 2f 00 c4 3c f0 52 e3 bb fa c9 0f 3c
       -0.037600704 0.023925869 -0.006937377 0.008776182
000390 59 17 3c bc 24 0e ce 3b 11 9c 5e bc 53 0e 56 bc
       -0.011480176 0.006288307 -0.013587014 -0.013064939
0003a0 36 dc 55 bd b6 fe ff 3c 04 a8 0c 3c 1f 6b ad 3b
       -0.052211963 0.031249385 0.00858498 0.005292311
0003b0 db de 41 bc 99 79 44 3c 88 79 c4 bc 85 67 ce 3b
       -0.011832918 0.011991882 -0.023983732 0.0062989616
0003c0 78 6d 81 3c 97 43 f6 bb c6 43 c8 bb 6f 74 61 bd
       0.01579927 -0.0075153816 -0.006111595 -0.05504268
0003d0 c2 72 6c bc 76 15 97 3c 0b eb 6a bc 1d c7 25 3c
       -0.014431657 0.01844285 -0.014338265 0.010118273
0003e0 12 14 88 bc e2 7c 5b 3b 8f 05 a5 bc 9f d6 ae 3c
       -0.016611133 0.0033491184 -0.020144252 0.021342574
0003f0 98 b0 dd 3c 30 82 38 3c 98 74 b9 bc e2 bb d0 bc
       0.027061746 0.011261508 -0.022638604 -0.025480215

model.7.bias f4 [64]
000000 4f a5 43 bd 76 40 3e 3c 32 73 26 bd c9 55 e5 bc
       -0.047765072 0.011612048 -0.040637203 -0.027995007
000010 f6 03 ff 3c e3 2e 41 3d d8 fd 42 bc 1a 77 36 bd
       0.031129818 0.047163855 -0.011901341 -0.044547178
000020 13 3d 38 bd b0 34 b8 3c b2 7b 5b bd 32 36 42 bd
       -0.04498012 0.02248606 -0.053584762 -0.047414966
000030 67 32 e0 3c 57 fe 13 bd ee b2 bf bc 2d 68 5c 3b
       0.027367784 -0.03613123 -0.02340075 0.003363143
000040 64 ab 4e 3d 81 df 6c bd 7d 2c 92 3b 18 72 94 3a
       0.05045642 -0.057830337 0.00446087 0.0011325506
000050 d5 17 40 3d bc 4a 1f bd 36 01 73 bb e8 b2 d4 3a
       0.046897728 -0.03888963 -0.003707958 0.0016227635
000060 54 73 da bc f4 db 3f bb 3e d4 e0 bb b2 50 83 3c
       -0.02666632 -0.002927539 -0.0068612387 0.01602969
000070 69 82 45 3c 8d 79 34 3d 3d dc 16 3d aa 66 00 bd
       0.012055018 0.044061232 0.03683113 -0.031347908
000080 de 1c 28 3c 4c 04 39 3c b3 f2 27 3d c4 97 04 3c
       0.010260789 0.011292528 0.04100294 0.008092824
000090 82 18 f0 3c e4 dd 95 bc cd 57 10 3d 4e 51 27 bc
       0.029308561 -0.018294282 0.035239983 -0.010212256
0000a0 d1 9b bb 3c 0e 4c 11 3d 42 60 49 3d 77 40 b9 bc
       0.022901447 0.035472922 0.049164064 -0.022613747
0000b0 54 d7 f3 bc 46 1b 54 3d 4e db 53 3d 17 34 12 bc
       -0.029765762 0.051783822 0.051722817 -0.008923552
0000c0 a1 dc d3 bc 32 a7 cf 3c 69 a3 29 bd c2 27 24 bd
       -0.02586204 0.02534828 -0.041415606 -0.04007698
0000d0 69 64 21 3d 25 bf 88 ba 7d aa 8d bc b6 0b a4 3c
       0.0394024 -0.0010432942 -0.01729321 0.020025115
0000e0 0c 5c 22 3d 72 2f 48 3d ad 5e 6f 3d 74 5e a1 bc
       0.039638564 0.048873372 0.0584399 -0.01969836
0000f0 f7 14 82 bc a7 3d 88 bc f1 d5 18 3d e1 1f c1 bb
       -0.015879137 -0.01663096 0.037313405 -0.005893693

model.10.weight f4 [64]
000000 0d 5b 79 3f 09 68 7e 3f 86 30 7b 3f 64 af 7f 3f
       0.9740456 0.99377495 0.98120916 0.99877
000010 f7 00 7d 3f 08 1b 7e 3f b0 dd 7b 3f 88 8e 81 3f
       0.988296 0.99259996 0.98385143 1.0121622
000020 86 77 83 3f d6 02 80 3f 78 f5 80 3f 02 4b 7f 3f
       1.0270851 1.0000865 1.0074911 0.9972383
000030 30 38 83 3f c9 3c 7f 3f ff 8c 85 3f 49 65 7a 3f
       1.0251522 0.99702126 1.0433654 0.978108
000040 26 c4 7c 3f 67 33 80 3f 28 50 76 3f f0 f0 7a 3f
       0.987368 1.0015687 0.9621606 0.9802389
000050 06 da 80 3f 8c cc 7c 3f 5a 4c 83 3f 45 f2 83 3f
       1.0066535 0.98749614 1.0257676 1.030831
000060 24 11 83 3f 6a d6 7d 3f ae 42 7b 3f dc 0e 77 3f
       1.0239606 0.99155295 0.9814862 0.9650705
000070 a6 f7 7f 3f 7b 26 80 3f cd b7 7f 3f 35 52 80 3f
       0.99987257 1.0011743 0.9988983 1.0025088
000080 e7 2c 79 3f 00 d4 81 3f c5 66 7e 3f ec 0d 7d 3f
       0.9733414 1.0142822 0.99375564 0.9884937
000090 76 c9 72 3f ea 66 7a 3f 76 cb 7c 3f 85 d8 81 3f
       0.94838655 0.97813284 0.98747957 1.0144202
0000a0 c7 50 87 3f 8b 58 81 3f b9 f1 80 3f f8 00 82 3f
       1.0571526 1.0105146 1.0073768 1.0156546
0000b0 9e 60 7d 3f b4 06 7e 3f 3f 52 7b 3f a2 e8 81 3f
       0.9897555 0.9922898 0.9817237 1.0149119
0000c0 c5 6f 82 3f 3e 44 84 3f ce f7 82 3f 33 69 7d 3f
       1.0190359 1.0333326 1.0231874 0.98988646
0000d0 33 f4 7e 3f 99 f9 7c 3f 57 06 81 3f e3 9b 7a 3f
       0.9959137 0.98818356 1.008006 0.97894114
0000e0 93 57 7e 3f b1 bd 80 3f 85 96 7d 3f 1f 10 81 3f
       0.9935238 1.0057889 0.990578 1.0083045
0000f0 d1 71 81 3f 89 cf 7b 3f 67 36 7d 3f a4 87 83 3f
       1.0112859 0.9836355 0.98911136 1.0275769

model.10.bias f4 [64]
000000 7c 13 e0 b7 96 9a 6f 3a 00 ce d2 38 db 61 1a bb
       -2.6711954e-05 0.00091401616 0.00010051951 -0.0023556862
000010 e2 69 4c bb 32 70 7b 3a 3a 87 66 ba 88 d9 9b ba
       -0.003119104 0.00095916085 -0.0008793954 -0.0011890391
000020 12 ec 86 ba 38 05 5a ba a9 cb 17 bb 1c 2c ab 3b
       -0.0010293743 -0.00083168177 -0.0023162162 0.005223764
000030 90 28 cd b9 70 09 53 bb 18 8b 3d bb ee 52 99 bb
       -0.00039130868 -0.003220167 -0.0028922018 -0.0046790754
000040 dc c4 7d 3b 82 c8 90 3b 5e 8c 10 3b 37 78 0f bb
       0.0038722074 0.0044184336 0.0022056322 -0.0021891722
000050 b7 52 41 3a 2a 5e 6d bb 1e 4b f9 3a 09 9d 9f bb
       0.0007374691 -0.0036219456 0.0019019579 -0.004871015
000060 aa f1 34 3a 3c fd 7f bb ee 27 e2 b9 ac a2 ea 38
       0.0006902466 -0.0039060852 -0.0004313583 0.000111882895
000070 0f 7e d2 b9 aa ce 51 bb 20 10 f1 ba f8 7b 39 b9
       -0.00040148242 -0.003201405 -0.0018391646 -0.00017689157
000080 c1 54 c2 3b b6 e4 bd 3a 43 ba fd 3a c6 fc e1 bb
       0.0059305136 0.0014487717 0.0019357878 -0.006896588
000090 24 c9 07 3b d4 c1 5f b9 7e e4 1a bb 54 7c ff ba
       0.0020719254 -0.00021339144 -0.0023634727 -0.0019492009
0000a0 b8 d8 1a bb b2 a3 05 b9 44 3f a7 3b d9 88 9d 39
       -0.002362771 -0.0001274485 0.0051039774 0.00030047333
0000b0 33 70 fd ba 8f 1a 1f 3b c4 0c 11 3a d0 65 81 3a
       -0.0019335806 0.0024277305 0.0005533213 0.0009872261
0000c0 eb b0 55 3b fa ff 4c ba f2 36 b8 ba 86 ee bf ba
       0.0032606672 -0.0007820126 -0.0014054461 -0.0014643229
0000d0 ef 81 e1 3a 08 94 bc ba fd 18 f9 ba d8 06 34 ba
       0.0017204861 -0.0014387378 -0.001900464 -0.0006867475
0000e0 b3 b3 a8 ba 05 27 c5 ba f8 10 52 3b 2d 76 15 3b
       -0.0012870937 -0.0015041536 0.0032053571 0.0022806034
0000f0 f6 11 29 3b 3e e0 88 ba 98 fe 71 3b 49 98 f6 3a
       0.002579806 -0.0010442806 0.0036925431 0.0018813695

model.10.running_mean f4 [64]
000000 fd f6 19 bc 16 90 ab 3c 47 fb cc bb 3a c4 f8 ba
       -0.0093972655 0.020942729 -0.0062555405 -0.0018979379
000010 d9 cc 08 3d dc 27 2f 3d c8 f6 77 ba 01 79 ff bb
       0.033398483 0.042762622 -0.00094590755 -0.007796407
000020 0f 32 88 bb 2e 62 c8 3c fc c8 38 bc 91 17 cf bb
       -0.004156358 0.024460878 -0.011278387 -0.006319948
000030 35 75 07 3d 28 ce a9 bb e8 45 55 bb 65 8d 53 3c
       0.03307076 -0.0051820464 -0.0032542888 0.012912129
000040 08 21 60 3d 85 67 41 bc 3c 95 44 3c 6c 95 dc 3b
       0.054719 -0.011804466 0.011998471 0.0067316797
000050 29 89 5d 3d 25 97 8d bb d4 7f cf 3b a5 68 08 3c
       0.054085884 -0.0043209963 0.006332377 0.00832573
000060 3a f2 75 bb 0a 00 4b 3c 13 0b a4 3b a1 d7 68 3c
       -0.0037528411 0.012390146 0.005006203 0.014211566
000070 2e 3a 96 3c 46 15 3e 3d 30 10 40 3d f5 91 de bb
       0.01833829 0.046407007 0.046890438 -0.006792302
000080 c4 39 ae 3c c8 ea 64 3c 04 d1 34 3d ed a5 87 3c
       0.02126778 0.013971992 0.044144645 0.016558612
000090 fc 11 07 3d be 36 c0 3a e3 df 0d 3d 22 dd a4 3b
       0.032976136 0.0014664752 0.034637343 0.005031244
0000a0 99 da c5 3c a1 86 18 3d 00 33 5d 3d 83 b3 23 bb
       0.024152087 0.037237767 0.054003716 -0.0024978823
0000b0 25 54 a0 ba bd 9c 64 3d 5c 93 4e 3d 91 d0 3a 3a
       -0.0012232108 0.05581354 0.0504335 0.0007126416
0000c0 03 7a 90 3b b6 5e f1 3c ca 96 e0 bb fe 3c f5 bb
       0.004409076 0.029464107 -0.006853913 -0.0074840775
0000d0 2c f1 21 3d 93 97 6f 3b 51 72 20 bb f1 cc c3 3c
       0.03953664 0.003655885 -0.00244822 0.023901435
0000e0 06 50 22 3d 4e 9e 30 3d 65 21 75 3d b6 b9 b0 ba
       0.039627098 0.04311972 0.0598463 -0.001348308
0000f0 ce 32 3c 3b 6f 3f 86 3b cf 18 2d 3d d1 74 5a 3b
       0.0028716805 0.0040969173 0.042259987 0.0033333788

model.10.running_var f4 [64]
000000 cb d9 0b 39 72 1e 9a 3a 97 32 4b 39 4a b2 e1 39
       0.00013337207 0.0011758341 0.00019378435 0.0004304818
000010 17 e9 96 3a 58 6a a9 3a c8 43 00 39 4d e4 4c 38
       0.0011513558 0.001292537 0.00012232282 4.885001e-05
000020 09 eb 21 3a 96 fa 93 3a 7f 39 9b 38 7d b1 36 3a
       0.00061766856 0.001128989 7.4016854e-05 0.0006969197
000030 f0 38 bd 3a bf e4 5c 39 6d dd b5 38 d7 01 81 3a
       0.0014436524 0.0002106605 8.671996e-05 0.0009842467
000040 be 50 04 3b fb d2 93 38 af b1 f4 39 95 76 6c 39
       0.0020189728 7.0488044e-05 0.0004667169 0.00022550889
000050 69 16 e1 3a b0 35 11 3a 39 30 a5 39 be c6 9f 39
       0.0017172816 0.0005539311 0.0003150718 0.00030474918
000060 0c c3 1e 39 f1 70 89 3a a0 e8 a0 39 ee 50 f2 39
       0.00015140715 0.001048593 0.00030690897 0.00046218134
000070 cf cb 9d 3a 67 75 08 3b f8 8c 36 3b e0 ac 42 38
       0.0012038889 0.002082193 0.002785502 4.6414207e-05
000080 69 f0 9a 3a 85 3a c4 39 16 68 a3 3a 1d 6c 54 3a
       0.0011820915 0.00037427634 0.0012466933 0.00081032683
000090 37 15 b2 3a 7a 8b 83 39 64 52 ae 3a 82 be b9 39
       0.0013586645 0.00025090185 0.0013299701 0.0003542789
0000a0 17 1a 93 3a b1 8a f7 3a ad 59 85 3b 64 74 56 39
       0.0011222985 0.0018885938 0.004069528 0.00020451989
0000b0 30 0e c9 39 a0 4c 21 3b ec c9 d2 3a 55 c1 06 39
       0.00038348278 0.0024612322 0.0016081906 0.00012851258
0000c0 20 88 9c 3a 7b ec c9 3a 23 f5 10 39 26 ad 16 39
       0.0011942424 0.001540556 0.0001382423 0.00014369618
0000d0 ab be 84 3a 09 35 3a 39 4a f0 f5 38 ec 97 51 3a
       0.0010127624 0.000177581 0.00011727268 0.00079953554
0000e0 82 46 da 3a 63 e6 aa 3a d4 f7 dd 3a 27 21 63 39
       0.0016653093 0.0013038631 0.001693482 0.00021660757
0000f0 16 eb 8e 39 ce ba 4a 3a 41 df 0f 3b d8 2b 32 39
       0.00027259503 0.00077335245 0.0021953138 0.00016991736

model.11.weight f4 [128, 64, 3, 3]
000000 38 55 18 3d c8 d4 22 bc 65 71 8a bc b2 da 5f 3c
       0.037190646 -0.009938426 -0.016899774 0.013662981
000010 13 9d e2 39 c8 1b 02 bd 07 da 91 bc 5c 4a e6 3c
       0.00043223109 -0.031764776 -0.017804159 0.02811163
000020 05 17 ba 3c a3 b7 1f bd 4d b8 b2 bc 5d 9e 09 bd
       0.022716055 -0.03899349 -0.021816397 -0.033598293
000030 38 46 1f 3d c9 c3 9a 3c a6 be 72 3b 3d cb c1 bb
       0.038885325 0.018892186 0.0037039905 -0.0059141205
000040 02 a6 33 bc b7 c0 b5 bc e8 bb 0e bd 2b 87 a1 bc
       -0.010964872 -0.02218662 -0.03484717 -0.019717773
000050 6c 6a 1c 3d 86 54 c1 3c ae c9 cd 3b 9a 2e 01 bc
       0.03818743 0.023599874 0.0062801456 -0.007884646
000060 e1 54 88 3c 86 b4 f4 3c cb 14 c5 3a 09 b9 9d bc
       0.016642036 0.029871237 0.0015036104 -0.01925327
000070 e0 c2 a7 bc 06 fe e5 bc e4 b2 00 bd f8 5c 8d bc
       -0.020478666 -0.02807523 -0.031420603 -0.017256245
000080 f3 c5 fa 3c a2 54 69 3c a2 01 ef 3c 8f 60 05 bd
       0.030611968 0.014241369 0.029175583 -0.03256279
000090 0b f4 02 bb 24 ed 8f 3b ee b4 e6 bc 11 d7 89 3c
       -0.0019981887 0.004392283 -0.028162446 0.016826184
0000a0 9b b6 f3 3b 77 09 96 bc db 4f c6 bb d3 04 87 3c
       0.0074375398 -0.01831506 -0.006052 0.016481793
0000b0 f7 45 27 3c bf 81 27 3c 5c 93 86 3c d3 c0 0f 3b
       0.010209552 0.010223805 0.016427688 0.0021935
0000c0 a8 cc c0 3c 28 78 06 3d 7c 7b 36 3c 69 ae 3f 3c
       0.023535088 0.032829434 0.011137839 0.011699297
0000d0 2e a6 b4 3c 6c e5 95 bb 3e 77 1e 3d f9 24 8d bc
       0.022051897 -0.0045744684 0.038687937 -0.017229544
0000e0 e9 ec e9 3b 24 eb 40 3c fe 06 2b 3c bd 0c 11 bc
       0.0071388376 0.011774812 0.010438679 -0.008853135
0000f0 59 9b 06 3b 1a 15 8b 3c f7 a6 fd 3b 0e 98 08 bb
       0.0020539372 0.016977835 0.007740851 -0.0020842585
000100 2c be 6d 3b 87 0c 2c 3c d6 26 8b bb 70 c9 f7 bb
       0.0036276681 0.010501034 -0.004246573 -0.007561855
000110 fc 33 07 3d b4 29 83 bb 7b 05 bc bc cf 30 35 3d
       0.03300856 -0.004002774 -0.022951832 0.044236
000120 ae 70 38 3c a9 27 c4 bb 48 49 56 3c 46 2f 16 bd
       0.011257334 -0.005986173 0.013078995 -0.036666177
000130 91 75 20 bc 9c ed f7 3a 9c 72 e4 ba 6f 7d d5 3c
       -0.009793655 0.0018915418 -0.0017429176 0.026060788
000140 65 b1 39 bd 74 41 7f bc b9 c6 f9 3c bd d3 8d 3c
       -0.045335192 -0.01557957 0.030490266 0.017312879
000150 08 88 b3 bb 6a 71 09 bd 5d b0 cc 3c 48 0e 65 3c
       -0.0054788627 -0.033555426 0.02498644 0.013980456
000160 24 9c a6 3b a8 6d d6 bc 80 96 d0 3c 47 a9 fe 3c
       0.0050845314 -0.026175335 0.025462389 0.031086577
000170 78 6d 52 3c 68 c4 e0 3b 68 e9 36 3c b5 8e 97 3c
       0.012843482 0.006859351 0.011164047 0.018500665
000180 59 c4 73 3c 9e a6 4b 3c 34 3c 10 3d 4f 1f 9b 3c
       0.014878356 0.012429861 0.035213664 0.018935828
000190 1a 07 cd bc 30 df b5 3c 1f 90 09 3d d6 1e 87 3c
       -0.0250278 0.02220115 0.03358471 0.016494196
0001a0 a5 91 46 bb 41 d3 93 3b ce fe f4 bb 64 7d 8e bc
       -0.0030299213 0.0045112674 -0.007476664 -0.017393775
0001b0 72 db c8 bc 31 da 6b 3c 54 d1 56 3c 73 be ba 3c
       -0.024518702 0.014395283 0.013111431 0.022795891
0001c0 fe 9c 27 bd 1b 7b 1d 3d b8 f2 b4 bc 51 73 11 3b
       -0.040921204 0.03844748 -0.022088394 0.0022193978
0001d0 fe b5 e9 3c e8 0d 19 bd 2a 1b fd 3c 89 6c 49 3b
       0.028529163 -0.037366778 0.030896742 0.0030734858
0001e0 2f 33 8e 3c 57 4d 10 3d 3f 19 f3 bc b9 48 b9 3b
       0.01735839 0.035230007 -0.029675124 0.005654421
0001f0 b3 69 20 bc 4b 72 6b bc 1d 17 c6 3c 63 24 b5 3c
       -0.009790826 -0.014370511 0.024180943 0.022112077
000200 b8 91 1d 3d 6a c3 db 3c 08 7e 5e bc 9f 57 7e bc
       0.038469046 0.02682658 -0.013579853 -0.01552382
000210 3c 5f bd bb f8 29 81 3c 28 64 d5 3c ee ff 32 bc
       -0.005779175 0.015767083 0.026048735 -0.010925276
000220 b3 20 81 bc 59 b2 d5 bb 72 53 17 3c 4b 49 bc 3c
       -0.015762663 -0.006521505 0.0092362035 0.022984168
000230 97 25 2d bc 1a f9 b7 3c 92 8a 2e bd 18 47 82 bc
       -0.010568044 0.022457648 -0.04261262 -0.01590304
000240 15 03 9b bc 5f 41 32 bc 9b 59 37 bc 58 e4 32 3c
       -0.018922368 -0.0108798435 -0.011190797 0.010918699
000250 de 76 cf ba bb f3 52 3b d3 8f 89 3c 3a f1 f9 3b
       -0.0015828272 0.0032188732 0.016792214 0.0076276334
000260 27 8e b2 3a 96 33 98 3a e3 c5 68 bb ce 19 69 3c
       0.0013622687 0.0011612053 -0.003551834 0.014227344
000270 8b ea 90 3c d7 0d 8f bb b0 07 ba bc 93 bc dd 3b
       0.017689964 -0.0043656635 -0.022708744 0.0067668646
000280 4d b0 94 3b e8 bd ab bc 65 cc a7 3a 29 a3 bf 3c
       0.0045376183 -0.020964578 0.0012802003 0.02339323
000290 df ab e7 bc 0d c6 1e bd 59 37 7c bc dc f0 33 3c
       -0.028280197 -0.038763095 -0.015394055 0.010982718
0002a0 a8 4a 05 3d 37 aa 83 bc e9 dc a1 3c ba 06 e8 3b
       0.0325419 -0.016072376 0.019758658 0.00708088
0002b0 0c a3 ff 3b 23 7c 1f bc 3a b4 66 3b 07 ae d0 bc
       0.007801419 -0.009734186 0.0035202638 -0.025473608
0002c0 d4 46 29 3d 87 0a a2 bc 15 37 ff bc 18 c6 55 bb
       0.041327313 -0.01978041 -0.031154195 -0.0032619294
0002d0 6c 64 91 bc a8 5e 95 3c 9b bd 24 bb cc 98 72 bc
       -0.01774808 0.018233612 -0.0025137428 -0.014806937
0002e0 b1 81 3a bc b0 54 57 3c 33 67 72 3c 38 7a 4b bc
       -0.01138346 0.01314275 0.014795112 -0.012419276
0002f0 8c 12 87 3c 1a af 27 bc fa a3 40 bc 4d 3d 03 3c
       0.016488336 -0.010234619 -0.011757845 0.008010221
000300 cb 6c 8a 3c 7b 97 22 bb 40 a0 56 3c 54 73 8b bc
       0.01689758 -0.0024809528 0.01309973 -0.017022766
000310 18 01 ba bc 04 63 0a 3c 6c 54 fb bc 94 53 96 bc
       -0.0227056 0.008446459 -0.030679904 -0.0183504
000320 35 b7 be bc 25 94 a3 bc 4c b5 ef bb a5 9c 83 3c
       -0.02328072 -0.019968102 -0.0073153134 0.016065905
000330 ed 79 2f 3c f2 8f 80 3c 96 f2 5c 3b 64 d2 b0 3b
       0.010710222 0.015693638 0.0033713928 0.0053961743
000340 25 a4 f0 bc 06 5d 18 3c 8e f5 2b 3d 90 54 c9 bc
       -0.029375145 0.009299522 0.041982226 -0.024576455
000350 5c f2 4a 3d 00 9d 50 3c 42 48 c5 3c 07 df 6f bc
       0.04954754 0.012732744 0.024082307 -0.014640576
000360 74 8a d2 bc 38 02 a0 3c db 2a a3 3c c5 22 33 3b
       -0.025700785 0.019532308 0.019917896 0.0027333957
000370 37 cd 3d bd 6d ac c7 3c 22 a5 56 3b 7e d6 0b bd
       -0.046338286 0.024374211 0.0032752235 -0.034140103
000380 17 cd 67 bc 82 60 ee 3c fc 0a 2f ba 7e 7c 58 3c
       -0.014148018 0.029098753 -0.0006677357 0.013213275
000390 b8 e2 c5 bc 8d 51 6d bd 68 ca f3 3c f0 e7 9f bc
       -0.02415596 -0.0579391 0.0297596 -0.019519776
0003a0 3f 18 9e bc b4 dd ca bc 3a 29 4e bc 6a c8 84 bb
       -0.01929867 -0.02476392 -0.012583071 -0.0040522115
0003b0 b0 1b 10 ba 1c 71 57 bc 48 6f f2 3b 6e cc a6 3c
       -0.000549729 -0.013149526 0.0073985197 0.020361152
0003c0 1d c0 d5 39 44 1e 5f 3c 07 bb 83 bc 1d d2 a3 bc
       0.0004076966 0.013618056 -0.016080393 -0.01999765
0003d0 b6 2b 91 bc 3d 23 40 bd 20 37 a5 bc 0e 4f a2 3c
       -0.017721038 -0.046908606 -0.020167887 0.019813087
0003e0 00 81 9a 3c 4f a2 9a bc 8e 12 00 3c 37 0f a0 3c
       0.01886034 -0.018876223 0.007816924 0.019538505
0003f0 4c 52 f0 39 d2 0a 41 bb d7 c1 16 3c 88 1d fa 3c
       0.00045837683 -0.0029455912 0.009201488 0.03053166

model.11.bias f4 [128]
000000 2f 12 d4 3c a0 e4 e3 bb bf ee eb 3b 45 41 1a 3d
       0.025887577 -0.0069547445 0.0072000916 0.037659902
000010 06 64 09 3d 14 aa 08 bd 7c 79 9b 3c 2f 8e e7 bc
       0.033542655 -0.033365324 0.018978827 -0.02826604
000020 b6 84 e7 bc 28 81 c6 3c 09 ee a1 3a 2b 39 50 3c
       -0.028261524 0.024231508 0.0012354265 0.012708942
000030 8f 49 fe 3c 8d 0e 87 bc bd b3 af 3b 2c 28 84 bc
       0.031040935 -0.01648643 0.0053620026 -0.016132437
000040 5d d0 27 bb 23 02 a6 3b a2 e2 f9 3c 9c c4 c6 bc
       -0.0025606372 0.0050661727 0.030503575 -0.024263673
000050 fa 52 ca 3b b8 1c 98 bc aa 08 c7 bc 01 8c b3 3c
       0.0061744424 -0.018568382 -0.024296124 0.021917345
000060 c6 b6 88 ba 9e 9a b4 3b de e1 22 bd 02 d1 1b bd
       -0.0010430447 0.005511596 -0.039766185 -0.038041122
000070 42 da 8a 3b 63 1b 35 bd d4 25 10 3d 3c 2b 0f 3d
       0.004237444 -0.04421557 0.035192326 0.03495334
000080 48 55 32 3d c9 23 43 bc d1 5d e2 bc 6b 3e bf bb
       0.04353836 -0.011910387 -0.027632626 -0.005836298
000090 95 82 1b 3d 41 f7 17 3c 59 b5 9a 3c e1 5d 12 3d
       0.03796633 0.0092752585 0.018885301 0.03573406
0000a0 7a f8 99 3c d9 a3 cb 3c 15 20 f9 3c 8a 4a 43 bd
       0.01879524 0.024858402 0.030410806 -0.047678508
0000b0 9f 23 92 bc 1b 86 f7 3c c2 a7 cb 3b 2a e6 39 bc
       -0.017839251 0.030215314 0.0062150666 -0.011346379
0000c0 58 c2 b8 3b 5d 8d 8b 3c f2 55 d8 3c d2 44 0c bd
       0.005638402 0.01703518 0.02640817 -0.03424532
0000d0 34 36 69 3c f1 7d 2b 3c 04 4e e0 3c 1e 33 a3 3b
       0.014234114 0.0104670385 0.02738095 0.004980459
0000e0 62 27 84 3c 1e a7 21 bd df e4 1f bd cb 25 95 3c
       0.01613206 -0.039466016 -0.039036628 0.018206498
0000f0 26 0d 75 3c d0 19 15 bd 18 c9 a2 3b 6a ac d1 3b
       0.014956748 -0.03640157 0.00496782 0.006398727
000100 f6 c4 6a bc 77 17 b6 bc 0c 83 b8 38 90 83 8f bb
       -0.014329186 -0.022227986 8.798213e-05 -0.004379697
000110 c7 03 13 3c 41 1e 2b bd d3 de 15 3d 82 be 07 3d
       0.008973069 -0.0417769 0.036589455 0.033140667
000120 2a b3 2c bc fa 8d 27 3d 15 72 0c bb ea d2 b9 bc
       -0.010540763 0.040906884 -0.0021430303 -0.02268358
000130 f8 42 51 3c 1e 8f a3 3b 2f 37 7c bc bb 29 8e bb
       0.012772314 0.004991426 -0.015394016 -0.0043384708
000140 48 26 9d 3c 7a 40 c7 bb 22 5e e3 3c 2c 5c 42 bc
       0.019183293 -0.0060806843 0.027754847 -0.011862796
000150 f4 5b de 3c f6 75 35 3c 37 37 b6 bc a5 40 a0 bc
       0.027143456 0.011075487 -0.022243125 -0.019562075
000160 0e 23 e9 3c 39 92 8c bc 21 99 15 bd 65 33 7d bc
       0.028459098 -0.017159568 -0.03652299 -0.015454148
000170 05 ca 1d 3c 40 e1 96 bc b4 29 76 bc 68 37 c2 bb
       0.009630685 -0.018417954 -0.015024591 -0.005927015
000180 a9 32 7f bc bf 13 02 b9 9f a7 1d bd 74 44 ac 3c
       -0.015576043 -0.00012405122 -0.038489934 0.021028735
000190 4e 7d 98 bc 83 5b c8 3a 9c 69 19 bd d1 fd 75 bc
       -0.018614437 0.0015286062 -0.037454233 -0.015014128
0001a0 57 62 04 bc 39 75 21 bc 26 cb 9a 3b fe 8b d4 bc
       -0.008080087 -0.009854608 0.004723924 -0.02594566
0001b0 72 0d b1 bb 90 36 35 bc b9 79 c4 3c 85 e2 09 3d
       -0.005403214 -0.011060372 0.023983823 0.03366329
0001c0 d9 fd 39 3c 48 04 13 3d 6f 0b d2 3c 89 65 2b 3c
       0.011352026 0.035892755 0.025640218 0.01046122
0001d0 6c 33 ea 3b c3 1f 7e 3c 07 98 14 bd eb 78 3c 3c
       0.0071472432 0.015510502 -0.036277797 0.011503438
0001e0 35 02 c7 3c 5c 61 89 3c 42 d5 83 3c 8b 95 e2 bc
       0.024293045 0.016770057 0.0160929 -0.027659198
0001f0 73 d6 b3 3c 29 6e a6 3c 2b 29 9a 3c 08 9e 1c bd
       0.021952843 0.0203162 0.018818459 -0.038236648

model.14.weight f4 [128]
000000 df 76 7b 3f e9 af 7f 3f b5 8d 80 3f b4 39 82 3f
       0.9822826 0.9987779 1.0043246 1.017386
000010 ba f6 7d 3f b8 25 7f 3f 34 a5 84 3f 9e d8 79 3f
       0.992046 0.9966693 1.0362916 0.97596157
000020 4d 58 80 3f 0b 02 7a 3f 28 7a 80 3f ba 4a 83 3f
       1.0026947 0.9765937 1.0037279 1.025718
000030 d0 06 84 3f 39 52 80 3f cc 37 79 3f 55 6d 7f 3f
       1.0314579 1.0025092 0.97350764 0.997762
000040 8e 48 82 3f e1 4c 7c 3f e0 91 7b 3f 34 7f 81 3f
       1.0178392 0.9855481 0.9826946 1.0116944
000050 a9 e1 7a 3f 6c 7c 82 3f 61 01 7b 3f f5 bd 79 3f
       0.9800058 1.019422 0.9804898 0.97555476
000060 e7 fd 85 3f 93 d1 80 3f 4a a6 81 3f 4e c8 7c 3f
       1.046811 1.0063957 1.0128872 0.9874314
000070 c1 fd 80 3f af 87 82 3f a0 86 80 3f eb d6 7f 3f
       1.007744 1.0197657 1.0041084 0.99937314
000080 8c 32 84 3f c9 6e 7c 3f 4d 13 7d 3f 21 17 81 3f
       1.0327926 0.98606545 0.98857576 1.0085183
000090 bf b0 7f 3f 3d e3 7d 3f 56 a0 80 3f 7f c5 81 3f
       0.9987907 0.99174863 1.0048931 1.0138396
0000a0 8d 09 7f 3f d8 28 7d 3f 69 20 80 3f f7 32 80 3f
       0.9962395 0.9889045 1.0009891 1.0015553
0000b0 6c 9e 83 3f 7e 36 80 3f 5e 71 83 3f 5b 84 87 3f
       1.0282722 1.001663 1.0268972 1.0587267
0000c0 b8 cd 7c 3f fc 16 83 3f b0 e0 7a 3f df 02 79 3f
       0.987514 1.0241389 0.97999096 0.97270006
0000d0 bb d6 7b 3f e8 4c 80 3f 13 6c 7d 3f 82 db 80 3f
       0.9837453 1.002347 0.98993033 1.0066988
0000e0 03 a7 83 3f 25 dc 81 3f 73 dc 82 3f 5a b4 80 3f
       1.0285343 1.0145308 1.0223526 1.0055039
0000f0 cd be 84 3f 5e d1 7e 3f f7 84 81 3f 8a 13 81 3f
       1.0370728 0.9953822 1.0118703 1.0084088
000100 54 6c 7a 3f 12 1d 84 3f d2 23 80 3f a6 1f 7f 3f
       0.97821546 1.0321372 1.0010931 0.99657667
000110 5a c1 80 3f b5 85 81 3f 41 c8 82 3f b8 81 81 3f
       1.0059006 1.0118929 1.0217363 1.0117712
000120 db 1c 7c 3f b2 fd 84 3f fb 42 83 3f 27 a4 80 3f
       0.9848153 1.0389922 1.0254816 1.0050095
000130 38 6a 7e 3f 35 8d 78 3f 23 9f 7b 3f 40 03 85 3f
       0.99380827 0.97090465 0.982897 1.0391617
000140 ea 5a 80 3f df e2 7a 3f 29 91 7d 3f 41 6b 86 3f
       1.0027745 0.9800243 0.9904962 1.0501481
000150 cf 89 81 3f 2f 12 80 3f 57 64 80 3f c8 49 7b 3f
       1.0120181 1.0005549 1.0030621 0.98159456
000160 9b 04 7b 3f 81 60 85 3f 59 0d 7e 3f ae 52 84 3f
       0.980539 1.0420076 0.99239117 1.0337732
000170 14 50 81 3f 9e 42 7d 3f 59 9a 7b 3f f7 4b 7d 3f
       1.0102563 0.98929775 0.9828239 0.9894404
000180 c9 b2 80 3f 20 ce 81 3f 95 4e 7d 3f 67 5f 82 3f
       1.0054561 1.0141029 0.9894803 1.0185364
000190 d6 0f 80 3f 33 f2 81 3f ff 74 80 3f 7d d8 7f 3f
       1.0004833 1.0152038 1.0035704 0.9993971
0001a0 e2 1d 83 3f a8 a1 80 3f 1b a6 74 3f 5f d4 83 3f
       1.0243495 1.0049334 0.95565957 1.0299186
0001b0 5f e9 82 3f e1 c6 7f 3f eb 77 7f 3f 44 38 81 3f
       1.0227469 0.9991284 0.99792355 1.0095296
0001c0 f4 74 85 3f 6f 93 82 3f 80 41 83 3f c0 28 80 3f
       1.0426316 1.0201243 1.0254364 1.0012436
0001d0 17 71 7e 3f 3c d3 83 3f de 99 83 3f 9c 24 81 3f
       0.9939131 1.0298839 1.0281332 1.0089297
0001e0 b3 5d 7f 3f c6 24 81 3f f0 2d 80 3f 8c 68 86 3f
       0.9975235 1.0089347 1.0014019 1.0500655
0001f0 68 d5 7f 3f 00 32 84 3f a6 a6 7c 3f 65 72 84 3f
       0.9993501 1.0327759 0.98691785 1.034741
