results/netD10.pth (torch_old, 405364 bytes, 21 tensors)

model.0.weight f4 [16, 3, 3, 3]
-0.0109854555 -0.0062027858 0.030779706 -0.014072739 -0.027347138 0.00994092 0.044031426 0.019005045
0.024343902 -0.10836192 -0.11353458 -0.096734375 -0.0823119 -0.091693416 -0.10648292 -0.0943531
-0.088174544 -0.08159718 0.11794211 0.12057056 0.06566266 0.099964954 0.11180781 0.09833188
0.049485814 0.06891341 0.056867626 0.045196608 -0.102742195 0.05188611 0.073134236 -0.05038923
0.0538369 -0.000108651904 -0.10854362 0.04169261 0.081022695 -0.11381364 0.04068315 0.03841134
-0.09258695 0.034522604 0.014180595 -0.10197679 0.087537415 0.094465666 -0.14909707 0.046545442
0.028696403 -0.09479522 0.011934945 0.09604221 -0.08147499 0.04950847 -0.025727024 0.01842252
0.018294021 0.05610453 0.044184662 -0.036631722 -0.008916641 -0.07398453 -0.07317288 0.0484307
0.0767152 0.03887736 0.11876318 0.061997615 -0.025880506 0.020132583 -0.025855344 -0.041433662
0.030203955 0.038478795 0.0043903827 0.119655974 0.06161619 -0.06960618 0.017931318 -0.12265401
-0.059163183 0.13955012 -0.045682684 -0.0074512446 -0.011947918 -0.07954184 -0.0025246618 -0.07148608
-0.05487924 0.10013603 0.15060055 -0.04414489 0.0014915114 0.0033748474 -0.083392955 0.01631942
-0.06695763 -0.058444444 0.121610224 0.14998102 -0.018360605 0.0040872484 -0.0032509204 -0.069878936
-0.0043486645 -0.044782527 -0.07596295 0.06294586 0.056357175 0.030090926 0.087116554 0.054389924
0.070975296 0.07534748 0.07066353 0.051436525 0.033303697 0.013436418 -0.01117786 -0.008028609
0.0024506475 -0.02150859 -0.0081868535 0.007814699 -0.028947173 -0.013957515 -0.017888628 -0.028020779
-0.0148031525 -0.02640736 -0.07219579 -0.037424374 -0.008136925 -0.026100403 -0.02026623 0.04546552
0.08701537 0.045784328 -0.021949064 0.039482854 0.034696355 -0.12188828 -0.0957505 -0.02457927
0.05328271 0.14556004 0.06879104 -0.054893676 0.020677458 0.048435044 -0.13524581 -0.14340183
-0.0021141109 0.05721127 0.11512521 0.06456288 -0.0824713 0.014403394 0.06543775 -0.11360369
-0.11913715 -0.0018945158 -0.11140013 -0.00034431252 0.04000583 -0.14276806 0.023251817 0.021289675
-0.0058750142 0.09780396 0.07681771 -0.14830305 0.040884264 0.090695165 -0.119165026 0.03094703
0.030246776 -0.038767368 0.07634344 0.038401365 -0.13842292 0.12795348 0.047012743 -0.079051666
0.09238237 0.08010036 -0.10689349 0.021327786 -0.03934393 -0.035849098 -0.08232246 -0.05901126
-0.111498445 -0.14511791 -0.08809098 -0.062284954 -0.06387725 -0.03761561 0.047788654 0.08526025
0.06958027 0.09323356 0.10740411 0.05800216 0.05662725 0.06774293 0.045065816 -0.012268736
-0.0027554762 -0.011639559 0.019903466 0.031967353 0.030131806 0.005121158 -0.004399542 -0.008314522
-0.10423099 -0.1364598 -0.06301609 -0.14088044 -0.16230755 -0.13257262 -0.1255239 -0.09614766
-0.0583685 0.07993152 0.12426439 0.08086102 0.11534186 0.11564746 0.120133266 0.06875353
0.12724756 0.11640825 0.02098456 0.013062581 -0.019699901 0.029327126 0.03889591 0.013635922
0.05324425 -0.03182634 -0.060343143 -0.027914543 -0.09582579 -0.07675969 -0.044212017 -0.066587746
0.021252625 0.065011844 0.13056694 0.09216967 -0.040374525 -0.13533092 -0.07075101 -0.045467168
00000000: 57fc 33bc bd40 cbbb b925 fc3c 5891 66bc
00000010: 1b07 e0bc 3edf 223c 4c5a 343d 78b0 9b3c
00000020: dd6c c73c dbec ddbd d184 e8bd ac1c c6bd
00000030: 2493 a8bd c2c9 bbbd b813 dabd 333c c1bd
00000040: db94 b4bd 6c1c a7bd a28b f13d b3ed f63d
00000050: 257a 863d 6dba cc3d 7efb e43d 3a62 c93d
00000060: a3b1 4a3d 7922 8d3d 07ee 683d 1420 393d
00000070: 806a d2bd 8886 543d 67c7 953d f064 4ebd
00000080: 1584 5c3d 0cdc e3b8 1e4c debd dfc5 2a3d
00000090: 3aef a53d 2017 e9bd 60a3 263d 3655 1d3d
000000a0: 3a9e bdbd 9367 0d3d ba55 683c 35d9 d0bd
000000b0: d146 b33d 3777 c13d e7ac 18be 6fa6 3e3d
000000c0: b814 eb3c ff23 c2bd ca8a 433c c7b1 c43d
000000d0: 5cdc a6bd 65c9 4a3d 7bc1 d2bc d3ea 963c
000000e0: 58dd 953c ddcd 653d fafa 343d 250b 16bd
000000f0: 1a17 12bc 3485 97bd aadb 95bd 455f 463d
00000100: dc1c 9d3d de3d 1f3d 1c3a f33d 36f1 7d3d
00000110: 5b03 d4bc 16ed a43c 96ce d3bc 58b6 29bd
00000120: 496e f73c f19b 1d3d 33dd 8f3b 310e f53d
00000130: 4261 7c3d af8d 8ebd b3e4 923c 0732 fbbd
00000140: 1855 72bd 3ae6 0e3e c41d 3bbd 9229 f4bb
00000150: 33c1 43bc d5e6 a2bd cc74 25bb 4b67 92bd
00000160: 0ec9 60bd 1e14 cd3d 0837 1a3e 46d1 34bd
00000170: d17e c33a 8b2c 5d3b edc9 aabd 4eb0 853c
00000180: 1521 89bd 7163 6fbd c80e f93d a094 193e
00000190: fb68 96bc 53ee 853b 650d 55bb b01c 8fbd
000001a0: 3e7f 8ebb e26d 37bd 7792 9bbd c2e9 803d
000001b0: c8d6 663d 3f81 f63c 2a6a b23d f8c7 5e3d
000001c0: 7f5b 913d c84f 9a3d 0ab8 903d 1baf 523d
000001d0: 7569 083d 6c24 5c3c 5823 37bc 6d8a 03bc
000001e0: 0b9b 203b c832 b0bc 2722 06bc 3909 003c
000001f0: 9f22 edbc 10ae 64bc 2c8b 92bc d58b e5bc
00000200: ec88 72bc 3f54 d8bc 63db 93bd 4d4a 19bd
00000210: bd50 05bc 83d0 d5bc 5d05 a6bc 0e3a 3a3d
00000220: 1d35 b23d 5988 3b3d 86ce b3bc c6b8 213d
00000230: c41d 0e3d 90a0 f9bd d718 c4bd 775a c9bc
00000240: f93e 5a3d b10d 153e 51e2 8c3d 31d8 60bd
00000250: c663 a93c d363 463d e17d 0abe eed7 12be
00000260: e58c 0abb 5d56 6a3d c4c6 eb3d 8b39 843d
00000270: b7e6 a8bd 37fc 6b3c 3a04 863d 0da9 e8bd
00000280: 2efe f3bd 6751 f8ba c025 e4bd d884 b4b9
00000290: 27dd 233d ca31 12be 987a be3c af67 ae3c
000002a0: 3183 c0bb 714d c83d 9b52 9d3d c1dc 17be
000002b0: 4276 273d 63be b93d cb0c f4bd a084 fd3c
000002c0: 16c8 f73c 88ca 1ebd f359 9c3d c04a 1d3d
000002d0: bdbe 0dbe 3d06 033e 6f90 403d d7e5 a1bd
000002e0: f832 bd3d a80b a43d f9ea dabd 9cb7 ae3c
000002f0: 1a27 21bd 81d6 12bd ae98 a8bd cab5 71bd
00000300: 4c59 e4bd ca99 14be 0b69 b4bd 821e 7fbd
00000310: 13d2 82bd d312 1abd 09be 433d ed9c ae3d
00000320: 1a80 8e3d 3df1 be3d b0f6 db3d ac93 6d3d
00000330: faf1 673d cebc 8a3d ef96 383d cf02 49bc
00000340: 3895 34bb d9b3 3ebc 980c a33c 33f0 023d
00000350: fad6 f63c 63cf a73b 092a 90bb a239 08bc
00000360: 0f77 d5bd 1ebc 0bbe 940e 81bd f642 10be
00000370: f333 26be 1ec1 07be 5689 00be 10e9 c4bd
00000380: cf13 6fbd 23b3 a33d 547e fe3d 769a a53d
00000390: 5a38 ec3d 93d8 ec3d 6e08 f63d a7ce 8c3d
000003a0: 2f4d 023e 7367 ee3d d0e7 ab3c 7004 563c
000003b0: b061 a1bc 713f f03c 5151 1f3d 3469 5f3c
000003c0: a516 5a3d 565c 02bd 5f2a 77bd 0aad e4bc
000003d0: 5040 c4bd 2f34 9dbd a917 35bd 285f 88bd
000003e0: fc19 ae3c ee24 853d 57b3 053e 74c3 bc3d
000003f0: c25f 25bd 3094 0abe e8e5 90bd c83b 3abd

model.0.bias f4 [16]
-0.003161542 -0.0011052781 -0.1650992 -0.056592554 -0.18029575 -0.009994911 -0.004713807 0.0023433827
8.609307e-05 -0.004800436 -0.055696536 -0.002811998 -0.032753203 -0.006523361 -0.18848734 -0.0035565707
00000000: df31 4fbb fbde 90ba c40f 29be 98cd 67bd
00000010: 739f 38be b2c1 23bc 4776 9abb 7093 193b
00000020: dd8c b438 fa4c 9dbb 0d22 64bd 7f49 38bb
00000030: 3928 06bd ebc1 d5bb d302 41be 5b15 69bb

model.3.weight f4 [32, 16, 3, 3]
0.037124302 0.04636808 0.06420799 0.19667532 0.1477135 0.13713348 -0.10129209 -0.095874466
-0.16729811 -0.087112226 -0.22859386 -0.18996955 -0.08436748 0.064037904 -0.10486576 0.036105044
-0.022321256 0.042001285 -0.091850415 -0.038237736 -0.10028206 -0.07293852 -0.038706508 -0.014588275
0.026507536 0.07224452 -0.04991832 -0.13278438 0.12718715 -0.20850815 0.009086756 -0.013871353
0.045436837 -0.08091626 -0.063616045 -0.08810941 0.034833636 0.024819158 0.09516818 -0.026801229
-0.008442857 -0.06688396 0.027770143 0.023048524 -0.033759788 -0.072351925 0.20357653 -0.33977225
-0.06265586 -0.017128618 0.05579688 0.07648299 0.054082837 0.004189273 -0.02988206 -0.07997749
-0.11690444 0.053513873 0.093605466 0.09107742 -0.03678973 -0.06798218 -0.08154531 -0.0024316097
0.052708145 0.05624432 0.06680684 0.05149102 0.045726173 -0.040396616 -0.083637 -0.048560724
-0.07430521 -0.010319374 0.0063532116 0.14977312 0.10549159 0.12706117 -0.08607329 -0.07965741
-0.08349898 -0.0146072935 -0.2018006 -0.21988437 -0.01996462 0.0065103313 0.022632014 0.024266431
-0.004993883 0.03742563 -0.09607143 -0.031385478 -0.023515698 -0.13694213 -0.07703159 -0.025605239
0.01589648 0.026627798 0.043513905 0.010522597 0.05108531 0.07347637 0.017581495 -0.015915135
0.051028263 0.012277353 -0.042728517 -0.028532198 0.04511148 0.32360876 -0.03185131 -0.07607504
0.02191161 -0.0068292753 -0.007686375 0.04724817 0.08898271 -0.0490679 0.005169263 0.09156967
0.022927115 0.060341783 0.044120483 -0.02228709 -0.017181454 -0.054631155 -0.027941398 0.044441253
-0.03592514 0.105009526 -0.026151843 0.0061004697 -0.034222167 -0.0034290755 -0.020652605 -0.27870327
-0.24207848 -0.28016472 0.050259955 0.09215678 0.08544871 -0.0011955554 -0.05467169 -0.0460722
-0.043174732 -0.014631749 -0.04633762 0.0031863677 0.036632992 -0.003273657 -0.08362142 -0.005855239
-0.086029135 -0.02002955 -0.01853552 0.032117028 -0.006076619 0.0909547 0.01872153 -0.011263157
0.10713712 0.03420196 0.07353308 0.27969572 0.2127536 0.13013825 0.14863396 0.16116934
0.12917776 0.0739441 0.04350269 -0.027598942 -0.16173263 -0.011537946 -0.031767707 0.05969919
-0.021053778 0.0035624846 0.09825038 -0.14223115 0.08891774 0.0952805 0.03323172 0.055006757
0.07517812 0.011540297 0.05668638 0.013943331 -0.012474511 -0.025916174 -0.10977483 -0.03335825
0.025248572 0.029947748 0.099699 0.0958022 0.14540452 0.083057135 0.10119514 0.0025649488
-0.27490717 0.0010833783 -0.01629552 -0.07987529 -0.010520956 0.04920494 -0.086157404 -0.010348701
-0.028937198 -0.02954257 -0.03610525 0.0024140421 0.006250316 -0.0027347764 0.019766934 0.011756686
-0.03299574 -0.11373728 -0.0052784104 -0.011731934 -0.044808704 0.02277757 0.017601168 0.009465659
0.042949058 0.06868739 -0.0008350166 -0.07222989 0.11154691 -0.040264383 -0.06578421 -0.094041355
-0.047016393 -0.0393622 0.05850841 0.03497929 0.0011810006 0.054754257 -0.06935418 0.004834151
0.038193267 -0.025408208 -0.04440119 0.012312611 0.04426372 0.053558808 0.049383715 0.04784599
-0.004905708 -0.030677795 0.01424926 -0.056581084 -0.0062718387 0.039779812 -0.03537001 -0.010842676
00000000: a70f 183d 75ec 3d3d 7b7f 833d 4165 493e
00000010: 3542 173e b86c 0c3e 3a72 cfbd d559 c4bd
00000020: 3250 2bbe e567 b2bd 8214 6abe 6187 42be
00000030: dbc8 acbd 4e26 833d dcc3 d6bd e2e2 133d
00000040: 11db b6bc 8a09 2c3d 121c bcbd 2c9f 1cbd
00000050: ae60 cdbd ca60 95bd b78a 1ebd a903 6fbc
00000060: 5526 d93c eff4 933d 2777 4cbd a1f8 07be
00000070: 593d 023e 2983 55be 9ee0 143c ac44 63bc
00000080: fa1b 3a3d 6db7 a5bd 2149 82bd b572 b4bd
00000090: b7ad 0e3d 8c51 cb3c 89e7 c23d 408e dbbc
000000a0: e953 0abc 75fa 88bd 367e e33c 42d0 bc3c
000000b0: b447 0abd 3f2d 94bd 5e76 503e a1f6 adbe
000000c0: b751 80bd 5151 8cbc 458b 643d 1da3 9c3d
000000d0: f785 5d3d 2b46 893b 39cb f4bc 3dcb a3bd
000000e0: 986b efbd 5d31 5b3d 39b4 bf3d cc86 ba3d
000000f0: d4b0 16bd 3e3a 8bbd 3a01 a7bd a45b 1fbb
00000100: 7fe4 573d 7260 663d 06d2 883d 3fe8 523d
00000110: 5e4b 3b3d ec76 25bd e049 abbd 9ce7 46bd
00000120: 542d 98bd 9712 29bc 9a2e d03b 205e 193e
00000130: fa0b d83d 531c 023e 3147 b0bd 6d23 a3bd
00000140: 8301 abbd 6e53 6fbc d1a4 4ebe 5e29 61be
00000150: d88c a3bc 9e54 d53b c666 b93c 65ca c63c
00000160: baa3 a3bb 9e4b 193d 19c1 c4bd 0f8e 00bd
00000170: fea3 c0bc 8f3a 0cbe bdc2 9dbd 14c2 d1bc
00000180: 5639 823c 8a22 da3c a33b 323d f866 2c3c
00000190: d43e 513d c77a 963d 1107 903c 7560 82bc
000001a0: 0303 513d f326 493c 1904 2fbd 5bbc e9bc
000001b0: d1c6 383d 0cb0 a53e 8576 02bd 3bcd 9bbd
000001c0: fa7f b33c 1dc8 dfbb fddd fbbb 4c87 413d
000001d0: 913c b63d 6cfb 48bd ec62 a93b e188 bb3d
000001e0: a5d1 bb3c f228 773d aeb7 343d 6a93 b6bc
000001f0: 1fc0 8cbc ebc4 5fbd 5ce5 e4bc 0808 363d
00000200: 3d26 13bd 3c0f d73d 643c d6bc 73e6 c73b
00000210: 8b2c 0cbd 57ba 60bb a72f a9bc 32b2 8ebe
00000220: 6ce3 77be c071 8fbe 62dd 4d3d b2bc bc3d
00000230: bcff ae3d 2fb4 9cba 6cef 5fbd 34b6 3cbd
00000240: fdd7 30bd 01ba 6fbc 84cc 3dbd 61d2 503b
00000250: 7a0c 163d da8a 56bb b541 abbd 4edd bfbb
00000260: 0b30 b0bd 0315 a4bc ced7 97bc 258d 033d
00000270: 601e c7bb 7546 ba3d e55d 993c 1b89 38bc
00000280: b56a db3d 5b17 0c3d 8398 963d 4734 8f3e
00000290: 14dc 593e f642 053e 8033 183e 9309 253e
000002a0: 2d47 043e 0170 973d e02f 323d 2d17 e2bc
000002b0: 3d9d 25be a709 3dbc db1e 02bd 2387 743d
000002c0: f978 acbc 9378 693b 7f37 c93d 0ba5 11be
000002d0: 811a b63d 6c22 c33d fc1d 083d c44e 613d
000002e0: fcf6 993d 8413 3d3c fa2f 683d 9272 643c
000002f0: e461 4cbc 284e d4bc a0d1 e0bd a9a2 08bd
00000300: 18d6 ce3c fb54 f53c fd2e cc3d f233 c43d
00000310: ece4 143e dc19 aa3d 663f cf3d b318 283b
00000320: a2c0 8cbe 2500 8e3a 2f7e 85bc a895 a3bd
00000330: 1660 2cbc 1f8b 493d 4b73 b0bd 998d 29bc
00000340: b40d edbc 4203 f2bc 19e3 13bd e834 1e3b
00000350: 73cf cc3b ef39 33bb 44ee a13c 1d9f 403c
00000360: 8b26 07bd 17ef e8bd 84f6 acbb 4c37 40bc
00000370: 5589 37bd 0798 ba3c 5330 903c da15 1b3c
00000380: 5aeb 2f3d f9ab 8c3d 04e5 5aba 44ed 93bd
00000390: b572 e43d 44ec 24bd dfb9 86bd c198 c0bd
000003a0: 4394 40bd 423a 21bd 84a6 6f3d 7246 0f3d
000003b0: cecb 9a3a 0046 603d 9009 8ebd cc67 9e3b
000003c0: 8b70 1c3d e024 d0bc 06de 35bd d5ba 493c
000003d0: e04d 353d 7b60 5b3d 9446 4a3d 28fa 433d
000003e0: 10c0 a0bb 0050 fbbc ba75 693c 91c1 67bd
000003f0: ff83 cdbb 28f0 223d 25e0 10bd 7ba5 31bc

model.3.bias f4 [32]
-0.00803778 -0.11898349 -0.14451519 -0.035961244 -0.10807774 0.0933333 -0.09628132 -0.060037326
-0.011198198 -0.15887512 -0.02674708 -0.105022445 -0.002634118 -0.07696965 -0.05701081 -0.08595954
-0.009791809 -0.04955534 -0.028022302 0.05511537 -0.058677092 -0.015297893 -0.045855597 -0.20860872
-0.051727112 -0.077907436 -0.08229452 -0.1415733 0.05822575 -0.075316176 0.06451909 0.07924361
00000000: e5b0 03bc 9ead f3bd cafb 13be 194c 13bd
00000010: dd57 ddbd 8725 bf3d 242f c5bd b3e9 75bd
00000020: a678 37bc 29b0 22be b11c dbbc 0216 d7bd
00000030: 2ba1 2cbb 44a2 9dbd 2b84 69bd 8e0b b0bd
00000040: d36d 20bc 8afa 4abd 078f e5bc a7c0 613d
00000050: 6457 70bd 04a4 7abc 14d3 3bbd 869d 55be
00000060: cfdf 53bd ef8d 9fbd 088a a8bd 97f8 10be
00000070: 207e 6e3d 5e3f 9abd 9622 843d 794a a23d

model.6.weight f4 [32]
1.213687 1.1738216 1.164346 1.1805018 1.0444175 1.136176 1.3043706 1.1191615
1.4299661 1.1824754 1.0166591 1.1663903 1.4571998 1.0222361 1.2059243 1.229238
1.2730207 1.0210513 1.0004002 1.120697 1.0736623 1.2596805 1.1567497 1.0834045
1.144689 1.1175208 1.1278121 1.1590166 1.0400501 1.1790788 1.1646783 1.091075
00000000: 185a 9b3f c93f 963f 4a09 953f af1a 973f
00000010: 79af 853f 376e 913f 9ef5 a63f af40 8f3f
00000020: 2109 b73f 5b5b 973f e321 823f 474c 953f
00000030: 8685 ba3f a2d8 823f ba5b 9a3f ac57 9d3f
00000040: 58f2 a23f cfb1 823f 1d0d 803f 0073 8f3f
00000050: c46d 893f 363d a13f 6010 943f 00ad 8a3f
00000060: 2b85 923f ec0a 8f3f 265c 903f a85a 943f
00000070: 5d20 853f 0eec 963f 2e14 953f 58a8 8b3f

model.6.bias f4 [32]
0.026334886 0.011378002 0.01612451 -0.009252313 0.0616761 -0.061274875 -0.021985726 0.0046729757
0.03568354 0.028103685 0.028782899 0.009967127 -0.016984606 0.007618544 0.0008644974 0.006551042
-0.023110706 0.032218836 0.0041492525 -0.043539573 0.007008533 -0.032191742 0.014392441 -0.009024977
0.008441991 0.043264564 -0.05105799 0.02387116 -0.043550204 -0.02320207 -0.012189697 -0.022978226
00000000: 42bc d73c cd6a 3a3c 8c17 843c 0397 17bc
00000010: 14a0 7c3d 5dfb 7abd 691b b4bc c31f 993b
00000020: e728 123d b339 e63c 1dca eb3c 294d 233c
00000030: 4d23 8bbc fba4 f93b 709f 623a 20aa d63b
00000040: aa52 bdbc e6f7 033d 74f6 873b 8d56 32bd
00000050: d6a7 e53b 7ddb 03bd 46ce 6b3c 7fdd 13bc
00000060: 4750 0a3c 2f36 313d 2f22 51bd 738d c33c
00000070: b361 32bd 4412 bebc 4bb7 47bc d53c bcbc

model.6.running_mean f4 [32]
0.004931519 -0.02286509 0.003804347 0.007611279 0.055446923 -0.014760525 -0.0011179443 -0.0152890105
0.014762601 0.012258928 0.02852949 -0.0029038053 0.013584944 0.019444823 0.0043033464 0.0013702967
-0.003034615 0.029875377 0.008900498 -0.033909105 0.005628151 -0.008293293 0.012312759 -0.0009815425
-0.0073261056 0.024273476 -0.02131044 0.010415409 -0.02286051 -0.005460682 -0.0055879406 -0.0045908885
00000000: 9498 a13b 924f bbbc 5a52 793b 0968 f93b
00000010: 501c 633d 21d6 71bc fc87 92ba c27e 7abc
00000020: d6de 713c acd9 483c adb6 e93c c54d 3ebb
00000030: 6393 5e3c c04a 9f3c 1603 8d3b 879b b33a
00000040: 64e0 46bb 35bd f43c 65d3 113c 46e4 0abd
00000050: 5a6c b83b 98e0 07bc 74bb 493c 1aa7 80ba
00000060: d40f f0bb 2bd9 c63c 3b93 aebc 64a5 2a3c
00000070: f745 bbbc 85ef b2bb 0b1b b7bb 2a6f 96bb

model.6.running_var f4 [32]
0.0030674296 0.007311274 0.0055307774 0.003453677 0.019704208 0.007205105 0.007876162 0.0040763994
0.008651872 0.0065677343 0.027462196 0.0066928444 0.005595431 0.007946881 0.010598474 0.0058580507
0.0052519524 0.019742046 0.0045651817 0.013301123 0.022856258 0.0054554464 0.007008987 0.00781157
0.0024825537 0.009328718 0.004851815 0.008384215 0.005586152 0.006361041 0.012329662 0.0047636484
00000000: ee06 493b 6993 ef3b 863b b53b 1657 623b
00000010: b86a a13c cd18 ec3b 050b 013c 5193 853b
00000020: 95c0 0d3c 2636 d73b 66f8 e03c a64f db3b
00000030: e159 b73b a333 023c 39a5 2d3c e4f4 bf3b
00000040: 9218 ac3b 12ba a13c 8597 953b f4ec 593c
00000050: 0c3d bb3c 9ac3 b23b a5ab e53b 33f8 ff3b
00000060: 57b2 223b 7bd7 183c f9fb 9e3b f25d 093c
00000070: 0a0c b73b 4870 d03b 5a02 4a3c 6118 9c3b

model.7.weight f4 [64, 32, 3, 3]
0.11298685 0.013724147 0.03742828 0.18267484 0.1383505 0.035625264 0.08864022 0.04581117
-0.017021652 -0.20792219 -0.0510084 -0.046432424 -0.00026826392 0.06686132 -0.08882203 0.040552024
0.077422276 -0.06722601 -0.122448586 -0.026921123 0.011452459 -0.0664509 0.013141013 0.029444473
0.076293565 0.090487145 0.023057759 -0.021206051 -0.004505888 0.060070105 -0.008682965 0.10145578
0.044054877 -0.013456132 0.091826275 0.060110234 -0.0015019075 -0.009174424 -0.04183515 -0.018441247
0.030646622 -0.036756944 -0.016047822 -0.017733248 -0.017865632 0.14954478 0.12031449 0.0073645054
0.13695091 0.087023094 0.020287545 0.109844066 0.046510264 0.021654056 0.01726877 -0.06628479
0.022654071 -0.052214835 0.03743288 -0.04694137 0.039567612 0.0781251 0.021418387 0.03474447
-0.0062320535 -0.018099742 0.00865405 0.031956524 0.033330444 0.08991515 0.0028442934 -0.00886324
-0.07942735 -0.06430518 -0.06489271 0.004170433 -0.05450111 -0.106775545 -0.03457535 -0.017576149
-0.11589733 -0.07058583 -0.055979647 0.100077726 -0.048456527 -0.008874792 0.018668173 0.034735527
0.016296037 -0.0070519643 0.02992973 0.056966092 0.031602297 0.0007299617 -0.008560599 0.027967807
0.049214784 0.016227739 0.04187142 -0.07790486 -0.18503979 -0.051459987 0.02066044 -0.12348549
-0.0033043637 0.016877672 -0.09088443 0.02585567 0.081603855 -0.026028713 -0.050659824 -0.09274988
-0.06786785 -0.084491454 -0.008892278 -0.07081597 -0.06997495 0.01925126 0.038084213 0.005669704
0.07773797 0.11622396 0.03897418 0.1014639 0.12838115 0.015089716 -0.16188209 -0.1636222
-0.07087303 -0.20194015 -0.024899798 -0.03693512 0.014605721 -0.05334685 -0.017094608 -0.008496686
-0.096826114 -0.106932856 -0.04539861 -0.036747072 0.013320547 0.01990914 0.07716256 0.02106531
-0.023425195 0.08329612 0.07721456 0.04804972 0.043398656 0.028156303 0.049920097 0.051189702
0.0029161028 -0.06624485 0.005937611 -0.008803958 0.013806105 0.053789385 0.019169303 0.012092172
0.036187176 0.037198298 -0.001982888 -0.021930566 -0.050854925 0.085906856 0.029637441 0.013107881
0.051627867 0.06588655 0.053327747 -0.005759255 -0.02564286 -0.0008575143 -0.022247303 -0.023230713
0.013884016 -0.061332185 -0.034504622 0.0015902837 -0.0055969744 -0.015633965 -0.042084873 0.011800326
0.01952199 -0.01320611 0.020697625 0.022175867 -0.01101193 0.040756255 -0.019136013 0.0226603
-0.034511954 -0.03872545 -0.0059852493 0.0032154354 0.013056715 0.06758297 -0.04878238 -0.0346526
-0.0073782043 -0.0025846197 0.026770141 0.053033177 -0.019160595 -0.008015368 0.056060728 -0.08330228
-0.1344239 -0.017612709 -0.118831225 -0.0025008363 0.0037159412 0.09392417 0.1280872 0.093052484
-0.062365893 -0.10454205 0.105200514 -0.12256694 0.09662041 -0.017089907 0.024042288 -0.05135715
-0.05868733 -0.09630793 -0.07190417 0.027488582 -0.24327533 -0.1486667 -0.028336322 -0.019764505
0.008882931 0.05921441 -0.19234893 -0.06560417 -0.043622747 -0.10446221 -0.027196182 0.014574213
-0.00872383 -0.06948494 -0.0077771065 -0.050302435 0.033522453 -0.0013861078 -0.013478901 0.08117029
-0.014591725 0.13415822 0.072774254 0.008031284 -0.07701723 -0.02812866 -0.01618299 -0.06850423
00000000: a665 e73d 3fdb 603c 654e 193d 1d0f 3b3e
00000010: c1ab 0d3e cceb 113d 0189 b53d 7ea4 3b3d
00000020: fe70 8bbc 8ee9 54be 2fee 50bd ed2f 3ebd
00000030: c6a5 8cb9 96ee 883d 53e8 b5bd e119 263d
00000040: 928f 9e3d caad 89bd 53c6 fabd b089 dcbc
00000050: 18a3 3b3c 6917 88bd 674d 573c 8935 f13c
00000060: cd3f 9c3d 5351 b93d a0e3 bc3c 50b8 adbc
00000070: 21a6 93bb 120c 763d ff42 0ebc 0cc8 cf3d
00000080: e372 343d 1c77 5cbc 6a0f bc3d 2636 763d
00000090: a7db c4ba 5350 16bc 565b 2bbd 1912 97bc
000000a0: a00e fb3c 738e 16bd b976 83bc 5145 91bc
000000b0: f25a 92bc 4422 193e 7167 f63d f351 f13b
000000c0: dc3c 0c3e 2a39 b23d 1132 a63c edf5 e03d
000000d0: 8c81 3e3d d963 b13c 3c77 8d3c 52c0 87bd
000000e0: 0895 b93c 39df 55bd 3853 193d 9845 40bd
000000f0: a611 223d 0d00 a03d 9d75 af3c 3850 0e3d
00000100: 4136 ccbb e945 94bc b7c9 0d3c d8e4 023d
00000110: 8185 083d 6f25 b83d 5367 3a3b 1f37 11bc
00000120: ceaa a2bd 6fb2 83bd 78e6 84bd 21a8 883b
00000130: 8e3c 5fbd 23ad dabd e29e 0dbd dbfb 8fbc
00000140: 945b edbd 4e8f 90bd ea4a 65bd 8df5 cc3d
00000150: 5a7a 46bd 9367 11bc ffed 983c d746 0e3d
00000160: 447f 853c 2a14 e7bb 312f f53c 4755 693d
00000170: 6971 013d e75a 3f3a c141 0cbc be1c e53c
00000180: 7195 493d 09f0 843c 5e81 2b3d 958c 9fbd
00000190: 127b 3dbe b5c7 52bd 1540 a93c f6e5 fcbd
000001a0: 068e 58bb 0b43 8a3c 9e21 babd 45cf d33c
000001b0: ec1f a73d 2b3a d5bc ad80 4fbd a6f3 bdbd
000001c0: 4dfe 8abd db09 adbd ebb0 11bc f707 91bd
000001d0: 074f 8fbd d2b4 9d3c 31fe 1b3d edc8 b93b
000001e0: 1635 9f3d d406 ee3d 64a3 1f3d 4ecc cf3d
000001f0: 5976 033e db3a 773c 6bc4 25be 948c 27be
00000200: e125 91bd 66c9 4ebe a9fa cbbc 4849 17bd
00000210: d64c 6f3c 3a82 5abd fe09 8cbc af35 0bbc
00000220: c54c c6bd 9dff dabd e5f3 39bd 1984 16bd
00000230: 6c3e 5a3c 7e18 a33c 6707 9e3d 2891 ac3c
00000240: 32e6 bfbc 2897 aa3d ab22 9e3d c8cf 443d
00000250: cac2 313d 0ca8 e63c 0479 4c3d 4bac 513d
00000260: 161c 3f3b 61ab 87bd 4b90 c23b 7a3e 10bc
00000270: 0033 623c 4252 5c3d f108 9d3c 3f1e 463c
00000280: 0139 143d 3e5d 183d 57f3 01bb bba7 b3bc
00000290: 414d 50bd efef af3d 38ca f23c 70c2 563c
000002a0: be77 533d 87ef 863d 326e 5a3d 22b8 bcbb
000002b0: fa10 d2bc cfca 60ba fa3f b6bc 564e bebc
000002c0: c979 633c 7537 7bbd b854 0dbd 1171 d03a
000002d0: d366 b7bb cd12 80bc 3061 2cbd 2856 413c
000002e0: 95ec 9f3c 715e 58bc 118e a93c 2aaa b53c
000002f0: 626b 34bc 08f0 263d 21c3 9cbc 18a2 b93c
00000300: 685c 0dbd 949e 1ebd e91f c4bb 0eba 523b
00000310: d5eb 553c f168 8a3d 08d0 47bd e2ef 0dbd
00000320: ddc4 f1bb b962 29bb 0e4d db3c 5139 593d
00000330: aef6 9cbc e452 03bc ef9f 653d 639a aabd
00000340: 6ba6 09be 8748 90bc c95d f3bd 12e5 23bb
00000350: 2687 733b 515b c03d 4a29 033e 4d92 be3d
00000360: 6173 7fbd 241a d6bd 5e73 d73d 6004 fbbd
00000370: ece0 c53d 2200 8cbc 55f4 c43c e05b 52bd
00000380: 2062 70bd 183d c5bd 7e42 93bd bc2f e13c
00000390: 2b1d 79be 153c 18be 9321 e8bc 2ce9 a1bc
000003a0: b789 113c cf8a 723d 1ef7 44be 7b5b 86bd
000003b0: c4ad 32bd 48f0 d5bd 87ca debc aec8 6e3c
000003c0: 65ee 0ebc 1f4e 8ebd 19d7 febb ed09 4ebd
000003d0: d74e 093d 0fae b5ba 9cd6 5cbc 9c3c a63d
000003e0: 2112 6fbc c660 093e ab0a 953d a695 033c
000003f0: 36bb 9dbd 136e e6bc 3192 84bc f24b 8cbd

model.7.bias f4 [64]
-0.05714109 -0.026949076 -0.029632175 -0.07011246 -0.047758784 -0.0455316 -0.06190603 -0.050151754
-0.07143624 -0.036413252 -0.063745685 -0.12582958 -0.098576345 -0.03228894 -0.062594935 -0.051157832
-0.096229106 -0.06306188 -0.05007127 -0.08813691 -0.034486614 -0.025899652 -0.062752195 -0.07720779
-0.027041016 -0.078566566 -0.029469892 -0.008734407 -0.033884577 -0.07715206 -0.031356707 -0.077127084
-0.09435255 -0.046576887 -0.030913796 -0.02370844 -0.015308398 -0.043400194 -0.03500623 0.0006783993
-0.0055914363 -0.05016227 -0.039190527 0.009948513 -0.034418188 -0.028923813 -0.093343 -0.022037156
-0.039982155 -0.01513359 0.0033027893 -0.03214523 -0.030450292 -0.03725705 -0.021376442 -0.00055876444
-0.059722323 -0.16025239 -0.049807508 -0.08821547 -0.047209945 -0.054361746 -0.07554192 -0.10801737
00000000: c70c 6abd 4fc4 dcbc 2dbf f2bc 1f97 8fbd
00000010: b79e 43bd 587f 3abd 2d91 7dbd ed6b 4dbd
00000020: 2a4d 92bd 1026 15bd 198d 82bd 78d9 00be
00000030: 65e2 c9bd 6841 04bd c631 80bd e08a 51bd
00000040: c413 c5bd 9626 81bd 8817 4dbd 2081 b4bd
00000050: d641 0dbd 822b d4bc 3984 80bd 1e1f 9ebd
00000060: 1f85 ddbc 82e7 a0bd d86a f1bc c21a 0fbc
00000070: 8eca 0abd e601 9ebd e46f 00bd cef4 9dbd
00000080: e93b c1bd 68c7 3ebd ee3e fdbc 3438 c2bc
00000090: 13d0 7abc 67c4 31bd b162 0fbd 9bd6 313a
000000a0: 5e38 b7bb f476 4dbd 3f86 20bd 16ff 223c
000000b0: 16fa 0cbd a2f1 ecbc 9d2a bfbd 4487 b4bc
000000c0: 54c4 23bd e1f2 77bc 9c73 583b b7aa 03bd
000000d0: e472 f9bc d99a 18bd a61d afbc 0c7a 12ba
000000e0: 659f 74bd 3419 24be f502 4cbd 50aa b4bd
000000f0: 375f 41bd 6caa 5ebd b9b5 9abd 3638 ddbd

model.10.weight f4 [64]
1.0088972 1.1844437 1.2095939 1.0746297 1.0870765 1.1802514 1.2057707 1.2051085
1.0621219 1.0386343 1.1128553 0.9955459 1.0736991 1.1792852 1.057228 1.1675897
1.159284 1.1470964 1.2178849 1.0833611 1.4006699 1.218709 1.0995275 1.0623486
1.1250645 1.0727729 1.1239357 1.0599039 1.0231006 1.1145905 1.073032 0.99728084
1.2785659 1.2137504 1.0974752 0.97975475 1.0742348 1.0521795 1.0548766 1.1495768
1.0437211 1.3705571 1.0346329 1.0292776 1.2067597 1.0833915 1.0975302 1.133055
1.1471167 1.1300161 1.0805302 1.155951 1.0705924 1.1879774 1.1436043 1.1048005
1.1385309 1.0471483 1.0124259 1.0749903 1.0552697 1.0707052 1.1303174 1.0652332
00000000: 8b23 813f da9b 973f f9d3 9a3f 778d 893f
00000010: 5325 8b3f 7a12 973f b256 9a3f ff40 9a3f
00000020: 9cf3 873f f8f1 843f 0b72 8e3f 19dc 7e3f
00000030: f96e 893f d1f2 963f 3f53 873f 9473 953f
00000040: 6b63 943f 0ed4 923f a7e3 9b3f 94ab 8a3f
00000050: 2749 b33f a8fe 9b3f 51bd 8c3f 0afb 873f
00000060: 1d02 903f 9f50 893f 20dd 8f3f eeaa 873f
00000070: f6f4 823f e7aa 8e3f 1d59 893f cc4d 7f3f
00000080: 0ca8 a33f 2c5c 9b3f 117a 8c3f 35d1 7a3f
00000090: 8780 893f d1ad 863f 3206 873f 5525 933f
000000a0: a798 853f 6a6e af3f da6e 843f 5ebf 833f
000000b0: 1a77 9a3f 93ac 8a3f df7b 8c3f f207 913f
000000c0: b8d4 923f 5ea4 903f d04e 8a3f 34f6 933f
000000d0: 2c09 893f a50f 983f a061 923f 1a6a 8d3f
000000e0: 61bb 913f f508 863f 2c97 813f 4899 893f
000000f0: 1413 873f de0c 893f 3eae 903f 9059 883f

model.10.bias f4 [64]
-0.003515714 -0.05474837 -0.015442534 -0.009251628 -0.04817956 0.033876084 -0.025382005 0.048040573
0.07115877 0.048996896 -0.08405659 -0.046850704 0.055343557 -0.07247284 -0.007273268 -0.01850815
0.020812232 -0.07152172 -0.011105642 0.022529066 0.016752869 0.024081307 -0.03468852 0.038137276
-0.03213201 0.025860526 -0.006633037 0.05104696 0.02523213 0.073944055 -0.018635577 0.07633151
-0.024631822 0.041634493 -0.010092375 0.025479214 -0.0032270413 -0.03544871 0.061166104 0.022520734
0.012092071 0.04265569 -0.008249108 0.08568779 -0.019422248 0.036356624 -0.00322294 0.030058512
0.09264265 0.08534706 0.015399448 0.039798006 0.03629333 -0.0015220848 0.012412819 -0.025402198
-0.030070987 0.06274258 0.03358592 -0.029753376 0.054458003 -0.046446323 -0.055504914 0.029636744
00000000: e567 66bb d43f 60bd af02 7dbc 2494 17bc
00000010: ee57 45bd a6c1 0a3d eced cfbc 31c6 443d
00000020: b0bb 913d f8b0 483d dd25 acbd 86e6 3fbd
00000030: edaf 623d a46c 94bd 9854 eebb 679e 97bc
00000040: 6a7e aa3c fb79 92bd 70f4 35bc e08e b83c
00000050: 503d 893c 2946 c53c 8d15 0ebd d535 1c3d
00000060: db9c 03bd 74d9 d33c f259 d9bb 9e16 513d
00000070: 9db3 ce3c fb6f 973d a3a9 98bc b253 9c3d
00000080: adc8 c9bc ee88 2a3d 7d5a 25bc c9b9 d03c
00000090: c57c 53bb ab32 11bd 4f89 7a3d 677d b83c
000000a0: d21d 463c bcb7 2e3d 4427 07bc 147d af3d
000000b0: 681b 9fbc afea 143d f637 53bb 453d f63c
000000c0: 6ebb bd3d 70ca ae3d f74d 7c3c 3c03 233d
000000d0: 51a8 143d b180 c7ba 235f 4b3c 4518 d0bc
000000e0: 6e57 f6bc 2f7f 803d 6491 093d 5abd f3bc
000000f0: 5b0f 5f3d 803e 3ebd 1f59 63bd c2c8 f23c

model.10.running_mean f4 [64]
0.01970735 -0.018113557 -0.014566713 -0.0006249259 -0.012018375 0.016550489 -0.009360076 0.042538572
0.06500833 0.056045588 -0.03208776 0.0072091264 0.025085134 0.002624761 0.010913545 0.0007628345
-0.014607395 -0.0019300034 -0.0061681503 -0.002431447 0.027991254 0.0056703356 0.015258682 -0.013805932
0.006847939 -0.001489618 -0.018248796 0.018196423 0.009349467 -0.021977449 0.027454365 0.037773546
-0.02069171 0.0036010805 -0.022166405 0.055058043 0.05167627 0.030603228 0.016521197 0.012114953
0.036799274 -0.009931933 0.00712065 0.021390337 -0.01039407 0.018159235 -0.001520075 -0.00021013626
0.058845885 0.05799308 0.014528707 0.04677804 0.03758196 0.023819776 -0.017913189 0.004542914
-0.016983805 -0.021703342 0.0059489636 0.004461428 0.008540251 -0.011677784 -0.042373978 0.043412384
00000000: 4f71 a13c e262 94bc 39a9 6ebc 11d2 23ba
00000010: b8e8 44bc e494 873c 015b 19bc ed3c 2e3d
00000020: 1623 853d 0f90 653d 746e 03bd 893a ec3b
00000030: 577f cd3c 2f04 2c3b bace 323c f5f8 473a
00000040: db53 6fbc 2bf8 fcba 321e cabb e958 1fbb
00000050: ea4d e53c 39ce b93b 8dff 793c 4732 62bc
00000060: ad64 e03b 493f c3ba 807e 95bc aa10 953c
00000070: 822e 193c 0d0a b4bc fae7 e03c 6fb8 1a3d
00000080: a981 a9bc 1b00 6c3b 5296 b5bc 8b84 613d
00000090: 7faa 533d 9fb3 fa3c 7657 873c cc7d 463c
000000a0: d6ba 163d 8cb9 22bc 5754 e93b ca3a af3c
000000b0: e44b 2abc adc2 943c 413d c7ba 0658 5cb9
000000c0: 6208 713d 278a 6d3d d009 6e3c 549a 3f3d
000000d0: 8bef 193d b121 c33c aebe 92bc badc 943b
000000e0: 9f21 8bbc 35cb b1bc 86ef c23b 2c31 923b
000000f0: 69ec 0b3c 2d54 3fbc 5690 2dbd 2fd1 313d

model.10.running_var f4 [64]
0.020097382 0.011231102 0.0071607493 0.008107813 0.0064801555 0.012734743 0.010475725 0.013318585
0.030601451 0.01753677 0.0057023573 0.028391527 0.023289781 0.009644439 0.008348872 0.008300114
0.013510051 0.012084962 0.008027898 0.0137730995 0.023237376 0.009317497 0.010956865 0.013082174
0.009987833 0.011202368 0.0100434255 0.0096600475 0.0296947 0.005395295 0.017440327 0.017718377
0.008291531 0.011027715 0.008146634 0.013580086 0.012118387 0.020090917 0.015150174 0.007035654
0.014585744 0.012872169 0.009278565 0.014167981 0.005307866 0.010756272 0.01571458 0.011198409
0.019201476 0.018639008 0.014460408 0.020136401 0.0151663525 0.014058145 0.008073196 0.0073951567
0.014410656 0.020391123 0.015099852 0.01222564 0.007472594 0.012461831 0.016006034 0.020473873
00000000: 44a3 a43c a802 383c b8a4 ea3b a2d6 043c
00000010: 7c57 d43b 62a5 503c 60a2 2b3c 3236 5a3c
00000020: e5af fa3c 46a9 8f3c d7da ba3b 5995 e83c
00000030: 36ca be3c b603 1e3c b5c9 083c 34fd 073c
00000040: 4359 5d3c 0100 463c 7287 033c 91a8 613c
00000050: 4f5c be3c 6aa8 183c 6c84 333c 9d56 563c
00000060: 02a4 233c 238a 373c 2e8d 243c 2d45 1e3c
00000070: 4d42 f33c 04cb b03b 04df 8e3c 2126 913c
00000080: 34d9 073c 97ad 343c 7679 053c 027f 5e3c
00000090: 338c 463c b595 a43c 6f38 783c 588b e63b
000000a0: 0bf9 6e3c cae5 523c 1f05 183c d220 683c
000000b0: 9bed ad3b 133b 303c ddbb 803c 8879 373c
000000c0: 6a4c 9d3c d5b0 983c 59eb 6c3c 18f5 a43c
000000d0: 4b7c 783c 2254 663c 7045 043c 1253 f23b
000000e0: ac1a 6c3c 490b a73c 5f65 773c 0d4e 483c
000000f0: a9dc f43b b52c 4c3c 161f 833c d3b8 a73c

model.11.weight f4 [128, 64, 3, 3]
-0.044097863 0.083976746 -0.05101816 -0.00056617503 0.028737372 -0.007515686 0.024165317 -0.034663007
0.030567082 -0.028392674 -0.0220763 0.075174615 -0.10013747 0.013770033 -0.07384985 -0.03403994
0.14373405 0.0641439 -0.03273453 -0.039026044 0.010546924 -0.003396133 -0.018483333 0.05596444
-0.070893615 -0.04650371 -0.04265799 -0.10248794 -0.09718167 -0.057132553 0.042344965 0.085080676
0.09589668 0.025559597 -0.012353744 0.028505962 0.061387666 0.083140716 0.06078998 -0.03170767
-0.088674895 -0.12101867 0.023277834 0.103880696 0.023242226 0.030667717 0.05256798 0.040708866
0.04620662 0.038149606 0.02836339 -0.03503044 -0.09026086 -0.060952373 -0.069139004 0.0046773055
-0.017593639 0.03846829 0.05903326 0.045010287 0.012202466 -0.14296158 -0.0335971 -0.032881
0.003559824 -0.008483589 -0.003347468 0.043360386 -0.032085113 0.030128282 -0.046558667 -0.043259803
-0.05627335 -0.055682607 -0.051883172 -0.014823517 0.0068715955 0.026083408 -0.07668209 -0.033026762
-0.06788877 0.029116968 -0.04708494 -0.051765822 -0.02942891 0.099113286 0.03845106 -0.012466028
-0.042762008 -0.03212676 -0.020345472 0.014731519 -0.0009361163 -0.0060410243 0.07889265 0.07925134
0.007250258 -0.050714012 -0.032752886 0.019341493 0.011310503 0.042092673 -0.056064337 -0.045287732
0.018869331 -0.15234074 -0.02586011 0.0053562727 -0.04745503 -0.03913333 -0.05970687 -0.031320117
-0.056114294 -0.0830711 -0.1251442 -0.085221045 -0.038079433 -0.013982796 -0.08991513 0.10665672
0.026304726 -0.054546844 -0.08251375 -0.027590243 -0.052941877 0.010839998 -0.04132987 -0.034850433
-0.079555176 -0.10462066 -0.1494157 -0.15181167 0.014494666 -0.06608502 0.0321464 -0.08565802
-0.060830377 -0.085415915 0.09097793 0.19300258 0.148442 -0.009545371 -0.0071603116 0.005038173
-0.03966361 -0.06716474 -0.034192536 -0.021573914 -0.10836614 -0.17351909 -0.03772672 -0.205937
-0.014447042 0.09053864 -0.0065890234 0.025157915 -0.08729662 -0.16200002 -0.019042915 -0.1347736
-0.019561147 0.043892488 -0.04387148 -0.0067873346 -0.04239186 -0.04414539 0.011207127 0.029899465
0.01860784 -0.024634149 -0.013716227 -0.024747465 -0.015244398 -0.06418193 -0.07413197 -0.029615168
0.021402473 -0.08147222 0.0026751603 -0.011748863 0.044915512 0.062736064 -0.025507458 -0.06316287
-0.115282714 -0.13575956 0.085947126 -0.009407992 -0.016363425 0.07115561 -0.014089263 -0.068081416
0.008003527 -0.089308225 0.01142476 0.025547469 0.009920992 0.07381642 0.013786701 0.092252396
-0.0893943 -0.08445091 -0.0998277 -0.15207456 -0.06796674 0.009580081 0.042657513 0.030935552
-0.012119895 -0.030975314 -0.036092654 -0.06596178 -0.013508268 -0.07068084 -0.049298305 0.028702669
0.015184685 -0.047340997 -0.01632216 0.082645826 -0.08801637 0.051640514 0.02158885 -0.07652256
-0.08781792 -0.0025722038 0.08625024 0.022132784 -0.062194414 -0.017246718 -0.026407147 0.013291172
-0.004077217 0.06754813 -0.053092204 0.019062309 -0.024842253 0.036854446 0.074920505 0.022862097
-0.06291047 -0.09834629 -0.033188056 -0.016990576 -0.10925814 -0.020427443 -0.0048020794 -0.036591396
-0.06434214 -0.011873789 0.026680253 -0.004237719 -0.08573175 -0.13540617 -0.047040477 0.06758566
00000000: f69f 34bd 00fc ab3d 6bf8 50bd 5d6b 14ba
00000010: a36a eb3c 2546 f6bb 58f6 c53c ccfa 0dbd
00000020: d167 fa3c c197 e8bc 5bd9 b4bc 26f5 993d
00000030: e014 cdbd b49b 613c 973e 97bd 776d 0bbd
00000040: 052f 133e e15d 833d a414 06bd c6d9 1fbd
00000050: 01cd 2c3c a891 5ebb 5c6a 97bc f83a 653d
00000060: ac30 91bd ad7a 3ebd 25ba 2ebd 32e5 d1bd
00000070: 2f07 c7bd d303 6abd ea71 2d3d c73e ae3d
00000080: 7b65 c43d 5c62 d13c 5c67 4abc 5685 e93c
00000090: a271 7b3d ae45 aa3d eafe 783d e7df 01bd
000000a0: 2f9b b5bd a3d8 f7bd 28b1 be3c 67bf d43d
000000b0: 7b66 be3c dd3a fb3c 8651 573d 57be 263d
000000c0: 2743 3d3d c342 1c3d 575a e83c 147c 0fbd
000000d0: b0da b8bd 32a9 79bd c098 8dbd 1544 993b
000000e0: 8920 90bc ed90 1d3d dccc 713d b55c 383d
000000f0: daec 473c 8564 12be 1d9d 09bd 3aae 06bd
00000100: f04b 693b c0fe 0abc 3261 5bbb a99a 313d
00000110: ae6b 03bd 96cf f63c 4db4 3ebd 3131 31bd
00000120: e27e 66bd 7213 64bd 7383 54bd 56de 72bc
00000130: 1f2b e13b dfac d53c 800b 9dbd 1247 07bd
00000140: 4409 8bbd b586 ee3c 23dc 40bd 6608 54bd
00000150: e614 f1bc e8fb ca3d dc7e 1d3d 503e 4cbc
00000160: 3727 2fbd 5997 03bd 8cab a6bc 785c 713c
00000170: b465 75ba c9f3 c5bb 7892 a13d 874e a23d
00000180: 9293 ed3b 7fb9 4fbd e427 06bd 0d72 9e3c
00000190: b04f 393c 5e69 2c3d b8a3 65bd a17f 39bd
000001a0: db93 9a3c 36ff 1bbe 95d8 d3bc ac83 af3b
000001b0: 3560 42bd 454a 20bd 318f 74bd 8649 00bd
000001c0: 1ad8 65bd 2e21 aabd cd25 00be 5f88 aebd
000001d0: 2ef9 1bbd 1918 65bc 6c25 b8bd d76e da3d
000001e0: 027d d73c 836c 5fbd f8fc a8bd ef04 e2bc
000001f0: 95d9 58bd 3f9a 313c 8249 29bd 54bf 0ebd
00000200: d3ed a2bd 5b43 d6bd 6e00 19be 8574 1bbe
00000210: 097b 6d3c 9557 87bd f2ab 033d 796d afbd
00000220: 4629 79bd 8aee aebd a352 ba3d 78a2 453e
00000230: 2e01 183e 3064 1cbc 0ca1 eabb 4217 a53b
00000240: 4f76 22bd ab8d 89bd 790d 0cbd c7bb b0bc
00000250: 11ef ddbd fdae 31be 5587 1abd 26e1 52be
00000260: 49b3 6cbc 536c b93d bce8 d7bb f917 ce3c
00000270: 92c8 b2bd 55e3 25be e3ff 9bbc 1702 0abe
00000280: b33e a0bc 9cc8 333d 95b2 33bd 4a68 debb
00000290: 16a3 2dbd ccd1 34bd 199e 373c b9ef f43c
000002a0: 786f 983c 8ecd c9bc 07ba 60bc 32bb cabc
000002b0: a4c3 79bc d171 83bd 81d2 97bd 829b f2bc
000002c0: 3d54 af3c e8da a6bd be51 2f3b 4e7e 40bc
000002d0: 54f9 373d c47b 803d 04f5 d0bc 895b 81bd
000002e0: 5819 ecbd 8e04 0bbe 0c05 b03d fa23 1abc
000002f0: 970c 86bc 08ba 913d a7d6 66bc 456e 8bbd
00000300: 3a21 033c 3be7 b6bd eb2e 3b3c ed48 d13c
00000310: a88b 223c 102d 973d 9de1 613c d3ee bc3d
00000320: 5c14 b7bd 99f4 acbd 7772 ccbd 6fb9 1bbe
00000330: 2532 8bbd c6f5 1c3c a5b9 2e3d 8e6c fd3c
00000340: 8692 46bc f1bf fdbc e4d5 13bd f816 87bd
00000350: c851 5dbc 1ec1 90bd 05ed 49bd dc21 eb3c
00000360: 2fc9 783c a2e8 41bd 0db6 85bc 3742 a93d
00000370: ed41 b4bd 0185 533d 1adb b03c dcb7 9cbd
00000380: e2d9 b3bd 6b92 28bb f7a3 b03d d04f b53c
00000390: 92bf 7ebd fd48 8dbc cd53 d8bc 37c3 593c
000003a0: 2d9a 85bb ad56 8a3d 3677 59bd 8f28 9c3c
000003b0: fb81 cbbc b0f4 163d ec6f 993d 4b49 bb3c
000003c0: 34d7 80bd c869 c9bd 33f0 07bd d22f 8bbc
000003d0: bbc2 dfbd 7457 a7bc c35a 9dbb dce0 15bd
000003e0: d0c5 83bd 488a 42bc 8c90 da3c 90dc 8abb
000003f0: 2194 afbd eaa7 0abe 84ad 40bd 5a6a 8a3d

model.11.bias f4 [128]
0.02439539 -0.05446397 0.017913915 -0.014061221 -0.08802479 -0.055339407 0.019858498 -0.022712085
-0.037283923 -0.085132994 -0.02805154 -0.01739727 0.042533062 -0.08024662 -0.19280247 -0.06700244
-0.03698962 -0.033971008 -0.0038436863 -0.018365992 -0.04989408 -0.060785767 -0.029749881 -0.10197768
-0.084840074 -0.030771919 -0.03537208 -0.027198505 -0.041262697 -0.06605918 -0.057160236 0.00091562426
-0.037293546 0.010914241 0.012364366 -0.08108522 -0.05307213 -0.0010342819 -0.028272219 0.08749751
-0.03750697 -0.081057765 -0.029626984 -0.08482361 -0.050348144 -0.06313494 -0.005345403 -0.10005856
-0.054485876 -0.043424018 -0.00092496234 -0.095046535 -0.015661346 -0.009376257 -0.05237915 -0.01283355
0.007951376 -0.039949786 -0.008343878 0.007521568 -0.016131464 0.02064275 -0.025391849 0.018852675
-0.038096037 -0.019317674 -0.0509916 0.062199198 -0.1451403 -0.016295662 -0.012803614 -0.006581051
-0.0058509405 -0.0006130662 -0.04588247 -0.052049357 0.0025936642 0.017763123 -0.013931394 -0.013925672
-0.063085064 -0.05911456 0.0037587825 -0.065267 0.007485198 -0.013254915 -0.022802101 0.018228255
-0.0028436028 0.010212812 0.015244429 -0.044454444 -0.009246204 -0.044929374 -0.019807132 -0.05462967
-0.03542124 0.0011332887 -0.0044892747 -0.04840044 -0.12120998 0.025922947 -0.072260365 -0.008599916
-0.0031635242 -0.008042707 -0.06341293 -0.026657837 -0.0639004 -0.050943226 -0.037137497 -0.044631377
0.037280846 -0.01972155 -0.025608193 -0.029435627 -0.0125563685 -0.0156129105 -0.084933914 0.0010004021
0.038942903 -0.016462361 0.0070978696 -0.104092866 0.026115675 -0.050226834 -0.17086284 -0.003153405
00000000: d7d8 c73c 9d15 5fbd 34c0 923c 0961 66bc
00000010: 5746 b4bd 93ab 62bd 4aae a23c b20e babc
00000020: 07b7 18bd 355a aebd 58cc e5bc b884 8ebc
00000030: 2637 2e3d 5758 a4bd 036e 45be 9338 89bd
00000040: 6e82 17bd 2f25 0bbd 5be6 7bbb 4774 96bc
00000050: bc5d 4cbd 7ffa 78bd 06b6 f3bc add9 d0bd
00000060: a2c0 adbd 6415 fcbc 50e2 10bd 66cf debc
00000070: 1303 29bd 094a 87bd da20 6abd 8106 703a
00000080: 1ec1 18bd a5d1 323c e993 4a3c 0210 a6bd
00000090: 2962 59bd be90 87ba 249b e7bc e531 b33d
000000a0: e9a0 19bd 9d01 a6bd 4ab4 f2bc 00b8 adbd
000000b0: db39 4ebd e44c 81bd 7e28 afbb 81eb ccbd
000000c0: 952c 5fbd 62dd 31bd 2c79 72ba c2a7 c2bd
000000d0: 394c 80bc df9e 19bc 858b 56bd cf43 52bc
000000e0: 7d46 023c 63a2 23bd c3b4 08bc 7c77 f63b
000000f0: 2226 84bc fc1a a93c 9102 d0bc ed70 9a3c
00000100: 970a 1cbd 1940 9ebc 91dc 50bd 96c4 7e3d
00000110: a99f 14be 7b7e 85bc 40c6 51bc dba5 d7bb
00000120: 3fb9 bfbb 2db6 20ba 42ef 3bbd b531 55bd
00000130: 77fa 293b f883 913c 8040 64bc 8028 64bc
00000140: be32 81bd 1c22 72bd e855 763b b4aa 85bd
00000150: 6446 f53b 252b 59bc 79cb babc 6c53 953c
00000160: bd5b 3abb a353 273c c5c3 793c dd15 36bd
00000170: 647d 17bc dd07 38bd 9142 a2bc 5cc3 5fbd
00000180: dd15 11bd dc8a 943a c41a 93bb 8a3f 46bd
00000190: f03c f8bd 5c5c d43c 3efd 93bd a9e6 0cbc
000001a0: 2153 4fbb 8fc5 03bc a3de 81bd 8961 dabc
000001b0: 37de 82bd d8a9 50bd 7d1d 18bd 64cf 36bd
000001c0: cdb3 183d 178f a1bc 46c8 d1bc fc22 f1bc
000001d0: 3ab9 4dbc 4bcd 7fbc d5f1 adbd ed1f 833a
000001e0: 9882 1f3d 13dc 86bc 3f95 e83b a42e d5bd
000001f0: 8af0 d53c a7ba 4dbd abf6 2ebe 5ba9 4ebb

model.14.weight f4 [128]
1.0347208 0.98720926 1.1771361 1.0863208 1.0209119 1.0727352 1.0649428 1.1538013
1.0855738 0.9994557 1.1369313 1.0822115 1.1628183 1.0201254 1.1482885 1.1133399
1.2114959 1.0289536 1.114565 1.1179879 1.1090628 1.0581644 1.1356138 1.2266322
1.0572475 1.1114444 1.0663134 0.9930949 1.0664539 1.0276347 0.99641174 1.0181774
1.0589087 1.1828327 1.0859443 1.0707924 1.1396183 1.0499821 1.049479 1.0391324
1.1187491 1.0091937 1.0724504 1.026463 1.0642267 0.99471074 1.0131463 1.0846604
1.0658593 1.0064728 1.1580322 1.0450455 1.1302471 1.0915973 1.0704316 1.0990194
1.0249767 1.0370424 1.1865902 1.0134082 1.0991842 1.0695976 1.1449763 1.1530094
1.1389577 1.170273 1.1477838 1.0900781 1.1165415 1.121438 1.0534433 1.1349406
1.0534129 1.0401064 1.055327 1.0839033 1.109192 1.0704012 1.1984886 1.0903801
1.0746409 1.0256249 1.0443506 1.1714923 1.1154965 1.076449 1.0690137 1.1416025
1.0430577 1.1659261 1.1702472 1.0498775 1.0455643 1.1035883 1.1796592 1.0696167
1.1000159 1.2120681 0.9416917 1.0847027 1.0721779 1.0523932 1.1018864 1.0743896
1.1168369 1.1183256 1.1511748 1.1217167 1.0443974 1.1627387 1.1387278 1.0508791
1.1074171 1.0794294 1.1312859 1.0177118 1.084601 1.1488775 1.0668135 1.1407957
1.0802752 1.1764853 1.1185433 1.0358081 1.1108527 1.1310457 1.042461 1.1693058
00000000: bb71 843f bfb9 7c3f 65ac 963f 8f0c 8b3f
00000010: 3ead 823f 634f 893f 0c50 883f c3af 933f
00000020: 15f4 8a3f 54dc 7f3f f786 913f e885 8a3f
00000030: 3bd7 943f 7893 823f 1efb 923f ec81 8e3f
00000040: 4c12 9b3f c0b4 833f 11aa 8e3f 3a1a 8f3f
00000050: c5f5 8d3f ee71 873f cb5b 913f 4902 9d3f
00000060: e353 873f cf43 8e3f f57c 883f 783b 7e3f
00000070: 9081 883f 8989 833f d714 7f3f a353 823f
00000080: 528a 873f 1067 973f 3900 8b3f ba0f 893f
00000090: 03df 913f d065 863f 5455 863f 4a02 853f
000000a0: 2c33 8f3f 422d 813f 0e46 893f 2463 833f
000000b0: 9538 883f 5da5 7e3f c7ae 813f 27d6 8a3f
000000c0: 146e 883f 1ad4 803f 663a 943f 0dc4 853f
000000d0: f0ab 903f 76b9 8b3f e703 893f abac 8c3f
000000e0: 7032 833f cebd 843f 30e2 973f 5cb7 813f
000000f0: 11b2 8c3f 93e8 883f 958e 923f d095 933f
00000100: 5ec9 913f 81cb 953f 94ea 923f ae87 8b3f
00000110: d5ea 8e3f 488b 8f3f 3bd7 863f bc45 913f
00000120: 3cd6 863f 3522 853f f514 873f 58bd 8a3f
00000130: 01fa 8d3f e802 893f 1368 993f 9391 8b3f
00000140: d58d 893f ad47 833f 48ad 853f 76f3 953f
00000150: 97c8 8e3f 15c9 893f 71d5 883f 0820 923f
00000160: ea82 853f 113d 953f a9ca 953f 6362 863f
00000170: 0dd5 853f 6242 8d3f 13ff 963f 33e9 883f
00000180: 52cd 8c3f 0c25 9b3f b512 713f 8ad7 8a3f
00000190: 203d 893f d2b4 863f 9d0a 8d3f 9985 893f
000001a0: 83f4 8e3f 4b25 8f3f b259 933f 6a94 8f3f
000001b0: d0ae 853f 9fd4 943f d5c1 913f 3583 863f
000001c0: d8bf 8d3f be2a 8a3f facd 903f 6144 823f
000001d0: 35d4 8a3f 6b0e 933f 588d 883f 9805 923f
000001e0: 7546 8a3f 1297 963f 6d2c 8f3f 5c95 843f
000001f0: 6c30 8e3f 1bc6 903f 5d6f 853f d0ab 953f

model.14.bias f4 [128]
-0.007273916 -0.0013739906 -0.00053842005 0.012121744 0.002671804 -0.006366442 -0.026624028 0.017109718
0.0013571802 0.023031773 0.003278608 0.0058822967 0.0066696797 0.0030386895 0.012067764 -0.011086542
0.01868242 0.013462747 0.005839976 -0.007125383 0.0011512494 0.02103264 -0.00065705663 0.00902392
0.002097119 0.011272237 0.0071138893 -0.0013711178 0.0060763815 0.004791382 0.0061875847 0.0029517375
-0.0026045335 0.006167396 -0.0029110601 0.008498746 0.0017325298 0.009932735 -0.0024209442 0.0014082461
0.007374939 0.025024587 -0.0032802925 0.009057414 0.0026090294 0.0028077338 0.0011284612 0.00471258
0.010116365 0.0030690874 0.012414648 0.0035620432 0.006370947 0.015217523 0.009901763 -0.007823126
-0.01020815 0.0025129337 0.009304608 0.010390115 -0.0075495103 0.0008450918 0.0050094333 0.009908123
0.009538337 0.015597712 0.005375675 -0.00407548 0.0033019527 0.02298941 0.021335822 0.005025942
-0.0071041114 0.0034035535 0.0018741473 0.006078646 0.0019528363 0.006756534 -0.0104375435 -0.0001495824
0.004628185 0.00656081 0.0015488701 0.009608875 -0.008386112 0.008615246 0.0028105956 0.010119419
0.0017933864 -0.0019074404 -0.006489391 0.011804524 0.017683402 0.00039116124 0.0065666335 -0.010556819
-0.011475832 0.0068079242 -0.00033821058 0.01639772 0.0019460544 0.007344625 0.008762177 -0.0038484
-0.0056472355 -0.016485566 0.0039222282 0.006757714 0.0059827412 0.0071462076 0.0011031075 0.01206597
0.0019245307 -0.0032954835 -0.0031273714 0.0013833224 0.004743108 0.020119559 0.00026932076 0.008146084
0.010201097 0.0001376733 -0.0139681725 -1.2813798e-05 0.00441264 0.004086602 -0.0020236769 0.014264299
00000000: 085a eebb 7917 b4ba c224 0dba 489a 463c
00000010: 6f19 2f3b 969d d0bb a21a dabc ae29 8c3c
00000020: 69e3 b13a 21ad bc3c eadd 563b 48c0 c03b
00000030: 548d da3b c024 473b dfb7 453c 54a4 35bc
00000040: e00b 993c db92 5c3c 455d bf3b 0b7c e9bb
00000050: 85e5 963a a54c ac3c 533e 2cba 10d9 133c
00000060: d26f 093b 30af 383c a11b e93b 14b7 b3ba
00000070: 621c c73b 0601 9d3b 39c1 ca3b f071 413b
00000080: d2b0 2abb de17 ca3b 7cc7 3ebb 533e 0b3c
00000090: 0e16 e33a e9bc 223c b4a8 1ebb e694 b83a
000000a0: 79a9 f13b 5d00 cd3c 2dfa 56bb 8c65 143c
000000b0: 40fc 2a3b f501 383b e0e8 933a fc6b 9a3b
000000c0: 1cbf 253c be22 493b cf66 4b3c 2b71 693b
000000d0: 61c3 d03b eb52 793c 013b 223c 922c 00bc
000000e0: 1640 27bc 08b0 243b 5b72 183c 4d3b 2a3c
000000f0: e261 f7bb 2789 5d3a 2c26 a43b ae55 223c
00000100: af46 1c3c 8c8d 7f3c 6e26 b03b 9b8b 85bb
00000110: 9365 583b 4a54 bc3c 76c8 ae3c a8b0 a43b
00000120: 9bc9 e8bb 270e 5f3b f3a5 f53a 612f c73b
00000130: 50f6 ff3a ea65 dd3b 3b02 2bbc 38d9 1cb9
00000140: 08a8 973b 10fc d63b 7503 cb3a 8b6e 1d3c
00000150: e765 09bc f626 0d3c f831 383b ebcb 253c
00000160: 1010 eb3a 1403 faba f5a4 d4bb c367 413c
00000170: c8dc 903c c614 cd39 ea2c d73b 82f6 2cbc
00000180: 2105 3cbc 0215 df3b db51 b1b9 8354 863c
00000190: c012 ff3a 2eab f03b 3c8f 0f3c 7035 7cbb
000001a0: 720c b9bb bd0c 87bc 0986 803b d06f dd3b
000001b0: df0a c43b bc2a ea3b 2596 903a 59b0 453c
000001c0: 8940 fc3a 0af9 57bb 96f4 4cbb 9950 b53a
000001d0: 136c 9b3b c6d1 a43c 9f33 8d39 2777 053c
000001e0: 8022 273c 655c 1039 c3da 64bc d8fa 56b7
000001f0: e897 903b e7e8 853b aa9f 04bb ceb4 693c

model.14.running_mean f4 [128]
0.021124203 -0.008376115 -0.039599244 0.05693836 -0.017048579 -0.059854932 -0.0022917269 0.0742867
0.051526643 0.005972563 -0.037815508 0.010216007 0.00045779115 -0.043577086 -0.08457865 0.006265826
0.00653457 0.015586553 -0.0036048423 -0.048688095 -0.007263767 0.041510757 0.029602248 0.0670716
-0.029325275 -0.0041631917 -0.039268166 -0.008210354 -0.011359928 0.06361157 0.03576447 0.071407616
0.034741808 -0.0040483284 0.09869188 -0.057494115 -0.030562842 0.030399052 -0.03039274 0.05229676
-0.05881541 0.0047753905 0.019664614 0.020835578 -0.05150041 0.057623323 0.022118533 0.040280268
0.00934917 -0.0049641384 -0.05608742 -0.025577249 0.044238202 0.037865095 -0.008545389 -0.0135159055
-0.02680349 -0.018419733 0.0006294447 0.07522659 -0.06262556 0.004770613 0.0003557521 -0.084231056
-0.106867716 0.024974037 -0.043339048 0.027118484 -0.04394967 0.04462578 0.021383526 -0.01189894
-0.037370265 -0.0015040638 -0.047985256 -0.015825814 0.024155155 0.042101875 -0.05747974 0.0047257547
0.0055057663 -0.018980632 0.020965053 0.029904105 0.009965573 -0.0062295403 -0.04370576 -0.08010601
-0.0021080037 0.024620429 0.014357011 -0.010606128 0.031951286 -0.02486775 -0.079977006 0.026109252
0.015424158 -0.003067681 0.04784497 0.08341942 0.034529783 -0.012742496 -0.09014558 -0.0049898345
-0.010610616 0.028701115 -0.12517194 -0.06627722 0.0057183686 -0.04005774 -0.015169996 -0.0014608521
0.046753585 0.039162524 0.010545718 -0.022249706 -0.001548463 0.026159957 -0.036433876 -0.054387864
0.045072787 -0.043516997 -0.018984452 0.002865785 0.024777869 0.057018105 -0.052921135 0.028556515
00000000: aa0c ad3c f93b 09bc d132 22bd 3338 693d
00000010: 76a9 8bbc 722a 75bd cc30 16bb a023 983d
00000020: 9a0d 533d 7db5 c33b 6fe4 1abd 0a61 273c
00000030: b003 f039 e37d 32bd 9237 adbd 8f51 cd3b
00000040: f21f d63b be5e 7f3c 383f 6cbb 2b6d 47bd
00000050: e504 eebb 2f07 2a3d 6a80 f23c d65c 893d
00000060: 8f3b f0bc 626b 88bb a8d7 20bd b884 06bc
00000070: fe1e 3abc c846 823d c47d 123d 283e 923d
00000080: 6d4d 0e3d d7a7 84bb f81e ca3d f37e 6bbd
00000090: ed5e fabc 6f07 f93c 32fa f8bc 2135 563d
000000a0: 6de8 70bd e17a 9c3b af17 a13c 60af aa3c
000000b0: 18f2 52bd 6f06 6c3d ed31 b53c ecfc 243d
000000c0: 432d 193c 36aa a2bb ecbb 65bd 6187 d1bc
000000d0: 1e33 353d 6e18 1b3d f601 0cbc d171 5dbc
000000e0: fe92 dbbc fbe4 96bc 5201 253a 6610 9a3d
000000f0: d441 80bd cd52 9c3b 3d84 ba39 5581 acbd
00000100: 76dd dabd 5a96 cc3c 4984 31bd 9527 de3c
00000110: 9204 34bd 86c9 363d 812c af3c c6f3 42bc
00000120: 9011 19bd 0224 c5ba 308c 44bd 23a5 81bc
00000130: 08e1 c53c 0473 2c3d e06f 6bbd 81da 9a3b
00000140: b769 b43b 457d 9bbc e7be ab3c 74f9 f43c
00000150: a546 233c 2c21 ccbb d004 33bd 9f0e a4bd
00000160: 6f26 0abb c8b0 c93c ab39 6b3c 53c5 2dbc
00000170: 5adf 023d 74b7 cbbc fcca a3bd 12e3 d53c
00000180: 9cb5 7c3c 260b 49bb 16f9 433d cdd7 aa3d
00000190: 1a6f 0d3d e7c5 50bc 3f9e b8bd c481 a3bb
000001a0: 26d8 2dbc 9a1e eb3c 132d 00be 5abc 87bd
000001b0: 2761 bb3b 9613 24bd 938b 78bc 107a bfba
000001c0: b080 3f3d e268 203d f2c7 2c3c 0445 b6bc
000001d0: ccf5 caba 684d d63c b03b 15bd cfc5 5ebd
000001e0: 3e9e 383d e13e 32bd 4885 9bbc e5cf 3b3b
000001f0: f5fa ca3c d18b 693d d5c3 58bd 5aef e93c
