results/netD2.pth (torch_old, 405197 bytes, 21 tensors)

model.0.weight f4 [16, 3, 3, 3]
0	0xbc9a50e0	-0.018837392
1	0xbba9a63c	-0.0051772874
2	0xbd3f3668	-0.046682745
3	0xbac93ea7	-0.0015353755
4	0xbd0c1bcb	-0.034206193
5	0xbb7305e0	-0.003708236
6	0xbd54ea34	-0.051981166
7	0xbc8d4413	-0.017244374
8	0x3c65e5e0	0.014031857
9	0xbc8c5efd	-0.017135138
10	0xbccbce7b	-0.024878731
11	0xbd66878f	-0.056281622
12	0xbd5084d1	-0.050907914
13	0xbd16b557	-0.036794033
14	0xbd25d01e	-0.04048168
15	0x3c580a58	0.01318606
16	0x3b84a2c5	0.004047724
17	0xbc80a685	-0.015704403
18	0xbd13362d	-0.035940338
19	0xbc02ac33	-0.007975626
20	0x3c0f36ef	0.0087411245
21	0xbc9e0b05	-0.019292364
22	0xba3b7dee	-0.0007152249
23	0xbcf4a544	-0.029863961
24	0xbd2791f8	-0.04091069
25	0xbd1106ea	-0.035406984
26	0xbcceb9f5	-0.025235156
27	0x3cce73a5	0.025201628
28	0xbc01f855	-0.007932742
29	0x3ad3a43d	0.0016146969
30	0x3c859a4c	0.016308926
31	0x3cc85535	0.024454692
32	0x3c06eee3	0.008235666
33	0x3ce07afa	0.02740239
34	0x3ce99709	0.028514402
35	0x3cc93fd1	0.024566563
36	0x3c3a3ec4	0.011367504
37	0x3c9362a6	0.017991375
38	0x3d1f2156	0.03885015
39	0x3ceb7e42	0.028746728
40	0x3bbb339e	0.0057129404
41	0xbc21caca	-0.009875009
42	0x3d0a5475	0.03377195
43	0x3c0bff49	0.008544751
44	0xbba65ac5	-0.0050767385
45	0xbbe6df4a	-0.007045661
46	0xbc0ac7a5	-0.0084704505
47	0x3c96cb7c	0.018407576
48	0x3bb5746e	0.005537561
49	0x3d09e5f1	0.033666555
50	0x3cf0c4a6	0.029390644
51	0x3c7c8876	0.015413394
52	0xbc4ebfe0	-0.012618989
53	0xbc8b3c7e	-0.016996618
54	0x3b92b271	0.0044768383
55	0x3b014d67	0.0019729973
56	0xbc984d2d	-0.018591488
57	0xbd3dd54e	-0.046346
58	0xbb893a6b	-0.004187872
59	0xbc2e5875	-0.010641207
60	0x3c0f3bce	0.008742286
61	0x3cf10a26	0.029423784
62	0x3c0b71f5	0.008511056
63	0xbc93c437	-0.018037898
64	0xba836bfd	-0.001002669
65	0x3c96e3b1	0.018419119
66	0xbc85993a	-0.016308416
67	0x3c99dcee	0.018782105
68	0xbd122c4c	-0.035686776
69	0xbd0b6257	-0.03402933
70	0x3c6baf13	0.014385003
71	0x3ce8f860	0.028438747
72	0x3b76f1af	0.0037680676
73	0xbc61331b	-0.013745095
74	0xbc00a46e	-0.007851703
75	0xbccb0f2b	-0.024787506
76	0xbc953858	-0.018215343
77	0xbb007fdf	-0.0019607467
78	0xbc683890	-0.014173642
79	0xbc82fc6d	-0.015989507
80	0xbca51644	-0.020152219
81	0xbaafda2f	-0.0013416464
82	0x3ba46c24	0.005017774
83	0xbd40bdf8	-0.04705617
84	0x3c3e03c7	0.01159758
85	0xbd165fb1	-0.036712352
86	0xbd23d054	-0.0399936
87	0xbc7bbbc2	-0.015364589
88	0x3bc58c6e	0.0060287034
89	0x3c119d9c	0.008887675
90	0xbce04362	-0.02737588
91	0xbaeefedb	-0.0018233912
92	0xbc48d2e6	-0.012257313
93	0xbca74b40	-0.020421624
94	0xbd2bc64f	-0.04193717
95	0xbd523c33	-0.05132694
96	0xbd5d510c	-0.05403237
97	0xbc894e79	-0.016761051
98	0xbcfe0e58	-0.031012699
99	0xbc75d64f	-0.015004708
100	0xbd202b37	-0.039103713
101	0xbc267523	-0.0101597635
102	0x3c3b9b6d	0.011450631
103	0x3b694455	0.0035593708
104	0xbc0128a4	-0.007883225
105	0xbcd60764	-0.026126571
106	0xbd306ddc	-0.04307352
107	0xbd2a7050	-0.041611016
108	0xbd194c84	-0.037426487
109	0xbc707d5f	-0.014678328
110	0x3c480a35	0.012209465
111	0xbd2a10cf	-0.041519936
112	0xbd06e0b0	-0.032929122
113	0xbca5d11b	-0.02024131
114	0xbd5bc5cb	-0.053655427
115	0x3cda03ad	0.02661308
116	0xbaaefa3b	-0.0013349721
117	0xbc94c968	-0.018162444
118	0xbce5cb99	-0.028051184
119	0xbd054ad9	-0.032542083
120	0xbbe0592a	-0.0068465667
121	0xbd25613d	-0.040375937
122	0xbd38586f	-0.04500621
123	0x3b2e9f05	0.0026645076
124	0xba401a43	-0.0007328132
125	0xbc82779a	-0.015926171
126	0xbc4ee069	-0.012626746
127	0xbccd778e	-0.025081422
128	0xbc2047a2	-0.009782704
129	0xbc4945a2	-0.012284668
130	0xbcc18643	-0.023623591
131	0xbce66b41	-0.028127315
132	0xbd37cf53	-0.044875454
133	0xbd243b52	-0.040095635
134	0x3b5edccf	0.0034006124
135	0x3afdcd06	0.001936347
136	0xbd1a12a0	-0.03761542
137	0x3b6f5973	0.0036521822
138	0xbc8b3030	-0.016990751
139	0x3a7b4638	0.00095853535
140	0x3ac338bc	0.0014894227
141	0xbd6fb3b7	-0.058521
142	0x3cbe59ff	0.023236273
143	0xbc6f5941	-0.014608682
144	0xbd87aec1	-0.066251285
145	0xbd10e966	-0.035378836
146	0xbc83be6b	-0.01608201
147	0xbd2c3287	-0.042040374
148	0x3baab70a	0.0052098082
149	0xbc6ded78	-0.014521949
150	0xbd2543ca	-0.04034785
151	0xbc253b1d	-0.0100848945
152	0xbc515618	-0.012776874
153	0xbc548f1a	-0.012973571
154	0xbc84f58c	-0.016230367
155	0x3af2d7d2	0.0018527454
156	0xbc95d569	-0.018290238
157	0xbd1035fc	-0.035207734
158	0xbd2a751f	-0.0416156
159	0xbd184c88	-0.03718236
160	0xbbf9cbb9	-0.0076231626
161	0xbb2d1f61	-0.0026416408
162	0x3c91e1be	0.017807838
163	0xbd12317e	-0.03569173
164	0xbcae1c25	-0.021253655
165	0x3d3de4ca	0.04636077
166	0x3bea31bb	0.0071470416
167	0x3cce8e25	0.025214264
168	0x3cf1832a	0.02948149
169	0x3bd0d792	0.0063733542
170	0x3c9c2b5e	0.019063648
171	0x3c9751a2	0.018471543
172	0x3cecf6d2	0.028926287
173	0x3b98433a	0.004646686
174	0x3b4c5358	0.0031177606
175	0xbc8ff828	-0.017574385
176	0xbc1a857a	-0.009431237
177	0x3d115460	0.035480857
178	0xbc997ad7	-0.018735332
179	0x3d588e72	0.05287022
180	0xbc8b0a39	-0.016972648
181	0xbc31e32d	-0.010857386
182	0x3c14ad99	0.009074592
183	0xbae2377b	-0.0017258966
184	0x3c8d582f	0.017253963
185	0xbbc0bcbb	-0.0058818734
186	0xbc81eaa4	-0.015858956
187	0xbbd5ab54	-0.006520668
188	0xbc4c9178	-0.012485854
189	0x3c4272ac	0.01186816
190	0x3a0b0f08	0.0005304669
191	0x3b6228b8	0.0034509134
192	0xbc8537dc	-0.016261987
193	0x3c789880	0.015173078
194	0x3c8332c7	0.016015423
195	0xbc7f2ca6	-0.01557461
196	0x3caa9e2d	0.020827377
197	0x3b09f4c2	0.0021050428
198	0xbd45b8ee	-0.048272066
199	0xbd345c45	-0.044033308
200	0xbbb1280a	-0.0054063844
201	0xbc79cdc6	-0.015246814
202	0xbd160bd8	-0.03663239
203	0xbd5a05a9	-0.053228054
204	0xbbe7df03	-0.0070761456
205	0xbc654cd1	-0.013995365
206	0x3b750634	0.003738773
207	0xbccd9e26	-0.025099825
208	0xbc4b9f71	-0.0124281505
209	0x3c116a7b	0.008875485
210	0xbd0724c2	-0.03299404
211	0xbbe09141	-0.006853253
212	0xbccf6922	-0.025318686
213	0xbc11b376	-0.0088928845
214	0xbc65c792	-0.014024632
215	0xbc8d1c1b	-0.017225316
216	0x3c5ca72c	0.013467591
217	0x3cb1ed89	0.02171971
218	0xbd00d55e	-0.031453483
219	0x3cec93ce	0.028879073
220	0x3c0139c9	0.007887312
221	0x3c0313b7	0.008000306
222	0x3c040b6a	0.008059362
223	0xbb9f0fe1	-0.004854188
224	0x3ce235ef	0.027613608
225	0x3cb093ec	0.02155491
226	0x3d3e5104	0.04646398
227	0x3d5ceebf	0.053938624
228	0x3c6699f6	0.014074793
229	0x3ca88cc8	0.020574942
230	0x3c7a978b	0.01529492
231	0x3d29cddd	0.041456092
232	0x3c3210d0	0.010868266
233	0x3bc4032c	0.0059818234
234	0x3c838557	0.016054792
235	0x3d069ecd	0.032866288
236	0x3d107871	0.035271112
237	0xbb734b57	-0.0037123763
238	0x3d3a5d4b	0.045499127
239	0x3cbf04c2	0.023317698
240	0xbbe1224d	-0.006870544
241	0x3cc296b8	0.023753509
242	0x3cbc6953	0.022999441
243	0x3c458626	0.012055909
244	0xbbc783d6	-0.006088714
245	0x3b2ff4d8	0.002684882
246	0x3c31f995	0.010862728
247	0xbb8ffd19	-0.0043941853
248	0x3a378b24	0.00070016296
249	0x3c895f40	0.016769052
250	0xbaaac8de	-0.0013029834
251	0xbc05869f	-0.008149772
252	0x3be24652	0.0069053555
253	0x3c7dda45	0.015493934
254	0x3daa2bd2	0.08309139
255	0x3d0118c0	0.031517744

model.0.bias f4 [16]
0	0xbd67c175	-0.05658098
1	0x3e32411f	0.17407654
2	0xbe439ca7	-0.19102727
3	0xbd5f58f4	-0.05452819
4	0x3d9dbab6	0.07701628
5	0xbd47cada	-0.04877744
6	0x3e1d035e	0.15333316
7	0xbd9f1657	-0.07767933
8	0xbe29184a	-0.16513172
9	0xbd89fcef	-0.067376964
10	0xbd837ec5	-0.06420664
11	0xbe2e1d34	-0.17003328
12	0x3dc5af2e	0.096525535
13	0xbd0f5fe6	-0.035003565
14	0xbe213010	-0.1574099
15	0x3d51911a	0.05116377

model.3.weight f4 [32, 16, 3, 3]
0	0x3c462862	0.012094589
1	0x3a90e9f6	0.0011056054
2	0xbc4914cc	-0.012273025
3	0xbc7efd99	-0.015563392
4	0x3d3cf41c	0.04613124
5	0x3b0e6bd2	0.0021731746
6	0x3d4fd398	0.0507389
7	0x3c469300	0.0121200085
8	0x3c93f2c1	0.01806009
9	0xbcd22585	-0.025652656
10	0xbc78e5aa	-0.015191475
11	0x3c30fcdc	0.010802474
12	0x3cbfeda3	0.023428744
13	0xbcb4aa17	-0.022053761
14	0x3c6c8c03	0.014437678
15	0x3cb28a41	0.02179444
16	0x3c867f33	0.016418075
17	0x3d2cd519	0.042195413
18	0x3c840fa7	0.016120745
19	0x3b1a9bfe	0.0023591514
20	0xbccbad46	-0.024862897
21	0x3c9f9186	0.01947857
22	0x3b130975	0.0022436057
23	0xbcce9a97	-0.025220199
24	0xbcb1bff0	-0.021697968
25	0xbc8ff764	-0.01757402
26	0x3ce880ba	0.028381694
27	0x3c851c21	0.016248764
28	0xbd1c1b7d	-0.038112152
29	0xbc20052d	-0.009766859
30	0xbc23e318	-0.010002874
31	0xbd05045d	-0.032474864
32	0x3c975d22	0.018477026
33	0xbd1ed51e	-0.038777463
34	0xbce51894	-0.027965821
35	0x39fed9cc	0.00048608927
36	0x3c9492c7	0.018136395
37	0x3cc991f7	0.024605734
38	0x3d4937f6	0.049125634
39	0x3d05786b	0.032585543
40	0xbbb19138	-0.0054189228
41	0x3ca5c679	0.02023624
42	0x3cfc8bf3	0.030828452
43	0xbc1bca0b	-0.00950862
44	0x3bbfd5f1	0.005854361
45	0xbade9264	-0.0016980884
46	0x3d0ab9cc	0.033868596
47	0x3cc9e653	0.02464596
48	0x3d40fb04	0.047114387
49	0x3d0bd07d	0.034134377
50	0x3c5c8e68	0.013461687
51	0x3c6228d9	0.013803684
52	0x3cb28f9b	0.021796992
53	0xbc2b31d0	-0.010448888
54	0xbca2795e	-0.019833263
55	0xbcaafbb2	-0.02087197
56	0x3c9f6fc4	0.019462474
57	0x3c7a3748	0.015271969
58	0x39c3850b	0.00037292423
59	0xbce0d8a2	-0.027447049
60	0x3d1d1148	0.03834656
61	0xbc8f615d	-0.017502481
62	0x3ba02f5a	0.0048884572
63	0x3cc7f721	0.024409832
64	0x3d1f3c32	0.038875766
65	0x3bdfcf09	0.0068301004
66	0x3cd6bb82	0.026212458
67	0x3c3bc4ea	0.011460522
68	0xbd17b711	-0.03703982
69	0x3d6825d6	0.05667671
70	0x3ca6a817	0.020343823
71	0xbbb546be	-0.0055321148
72	0xbd6260e4	-0.055268183
73	0xbc1be9c7	-0.009516186
74	0xbb99d2c7	-0.004694316
75	0xbd65bba2	-0.056087144
76	0x3c80675c	0.015674286
77	0xbcfb27f5	-0.030658701
78	0xba171186	-0.0005762804
79	0x3b302ac8	0.0026880968
80	0xbd855131	-0.06509627
81	0xbcb25316	-0.021768134
82	0x3b6d25cd	0.003618586
83	0xbb913872	-0.0044317776
84	0x3a50ec64	0.0007969795
85	0x3c79ce18	0.0152468905
86	0xbc3d48d4	-0.011553008
87	0xbd068a7c	-0.032846913
88	0x3c359b0d	0.01108433
89	0x3d4f0ffa	0.050552346
90	0xbcd14920	-0.025547564
91	0x3beb36d4	0.007178167
92	0x3ccbb1fa	0.02486514
93	0xbd1c4e07	-0.03816035
94	0xbc582cb2	-0.01319425
95	0xbd6e157b	-0.058125954
96	0xbd4a65fe	-0.049413674
97	0xbd562233	-0.05227871
98	0xbc1f8427	-0.009736097
99	0xbc53a28b	-0.012917171
100	0xbd28458a	-0.041081943
101	0xbb87f2d1	-0.004148819
102	0xbba5b238	-0.0050566457
103	0xbd6df68e	-0.05809646
104	0xbd0031f5	-0.031297643
105	0xbca6cd23	-0.020361489
106	0xbcaeb188	-0.021324888
107	0xbd05d45f	-0.032673236
108	0xbcf433b1	-0.029809805
109	0xbd2217b5	-0.03957339
110	0xbcd36dfe	-0.025809284
111	0xbb17d806	-0.0023169531
112	0xbb852911	-0.0040637334
113	0xbc237a4c	-0.009977888
114	0x3c467e1f	0.012115031
115	0x3b17b7aa	0.0023150244
116	0x3cb578d7	0.022152347
117	0x3d0910f6	0.03346344
118	0xbb81e14b	-0.0039636246
119	0x3cc9ca94	0.02463273
120	0xbccff768	-0.025386527
121	0xbc3855d2	-0.01125093
122	0xbc9f0884	-0.01941324
123	0xbc245e74	-0.010032285
124	0xbc92601d	-0.017868096
125	0x3b4c9ca9	0.0031221306
126	0xbc30fbe1	-0.01080224
127	0xbcd8df86	-0.026473772
128	0xbc306e59	-0.010768496
129	0x3bd2280f	0.0064134668
130	0xbc010032	-0.007873582
131	0x3c69c5d6	0.014268359
132	0x3c8b1579	0.016978012
133	0xbd0a3513	-0.03374202
134	0xbbf87c6b	-0.007583191
135	0x3adc7e74	0.0016822354
136	0xbb2eb368	-0.0026657227
137	0x3ce89f36	0.02839623
138	0xb9993c18	-0.00029227207
139	0xbb3f594c	-0.0029197512
140	0xbd2da9f5	-0.04239841
141	0x3d154f2f	0.03645247
142	0xbcc35b12	-0.023847137
143	0x3a9b0608	0.0011827359
144	0xbb0d35cc	-0.0021546958
145	0xbd2137d4	-0.039359882
146	0xbcc6f0e7	-0.024284793
147	0x3c3785ae	0.011201305
148	0x39e2ea68	0.00043280725
149	0x3c77bb07	0.015120274
150	0xbc27e0bc	-0.010246452
151	0xbbd00a66	-0.006348896
152	0x3bb57498	0.0055375807
153	0x3c1b80c7	0.009491152
154	0x3d05ec63	0.03269614
155	0x3b324527	0.0027201863
156	0x3c7c33d7	0.015393219
157	0x3d353221	0.04423726
158	0x3c007786	0.007840997
159	0xba37d2ee	-0.0007012327
160	0xbc8c50d3	-0.017128384
161	0xbc4887fa	-0.012239451
162	0x3c9bd88b	0.019024154
163	0xba4d7630	-0.00078377407
164	0xbd233039	-0.03984091
165	0xbbb33d0b	-0.0054699234
166	0xbbe27494	-0.00691087
167	0xbc5eaa3c	-0.013590392
168	0xbccf2bf0	-0.025289506
169	0xbb3dc5b2	-0.0028956947
170	0xbc0e4e28	-0.008685626
171	0x3c82a919	0.015949773
172	0x3ce3ba5c	0.027798824
173	0xbc5481d5	-0.0129704075
174	0x3b2bda8a	0.0026222789
175	0xbc0ca1f9	-0.008583539
176	0xbcfcd8a2	-0.030865017
177	0x3c499bf4	0.0123052485
178	0xbca0ff6e	-0.019653048
179	0x3b8d1d25	0.004306453
180	0xbcde03ff	-0.027101515
181	0xbc72205b	-0.014778222
182	0xbcc1182c	-0.023571096
183	0xbc7bd84d	-0.015371394
184	0x3c584a43	0.013201299
185	0x3cb42786	0.021991502
186	0xbc2f384d	-0.0106945755
187	0xbd4c141e	-0.049823873
188	0xbc904d98	-0.017615125
189	0xb8f5e505	-0.000117251686
190	0xbc5042da	-0.012711251
191	0x3a4818f5	0.00076331134
192	0xbd238854	-0.039924935
193	0x3b6443b4	0.0034830393
194	0xbd6af4d2	-0.057362385
195	0x3bb2ea6d	0.0054600746
196	0x3cb75be9	0.022382693
197	0xbc6880ef	-0.014190896
198	0x3cb973b7	0.022638185
199	0xbb572824	-0.0032830322
200	0x3bff7448	0.007795844
201	0xbbe88786	-0.007096234
202	0x3d3659db	0.044519287
203	0x3b0e0b2a	0.0021674135
204	0x3a8bb800	0.0010659695
205	0x3c7571e8	0.014980771
206	0x3d1f9b26	0.03896632
207	0xbc190916	-0.009340545
208	0xbcb76e98	-0.022391602
209	0xbd167abf	-0.036738154
210	0x3c324a1c	0.010881927
211	0x3c031ef8	0.008002989
212	0xbd382fd6	-0.044967495
213	0xbc864b6c	-0.016393386
214	0x3b268279	0.0025407358
215	0x3c0d013b	0.00860625
216	0x3bcae82d	0.0061922283
217	0x3d0711d2	0.03297598
218	0x3cfac42f	0.030611126
219	0x3d4bff22	0.04980386
220	0x3cc3fe50	0.023924977
221	0xbbc2bc01	-0.005942822
222	0x3c4ecb29	0.012621679
223	0x3ce87d42	0.02838004
224	0x3cd8e07a	0.026474226
225	0x3d0377ff	0.03209686
226	0x3d8c2f6f	0.06844985
227	0x3cc0632f	0.023484794
228	0xb7f2c220	-2.8939045e-05
229	0x3cde9c48	0.02717413
230	0x3c3187b8	0.0108355805
231	0xb9e9ff70	-0.0004463154
232	0x3c69bf22	0.014266761
233	0x3b8b3d85	0.004249277
234	0xbc7952b6	-0.015217474
235	0xb9888d1f	-0.00026045085
236	0xba4d0ea2	-0.000782231
237	0x3c50a824	0.0127354
238	0xbc46fe2e	-0.012145562
239	0x3c948f85	0.018134842
240	0x3b04b56d	0.002024974
241	0xbcacba44	-0.021084912
242	0xb9c5cd55	-0.00037727752
243	0x3b4c364c	0.0031160293
244	0xbca7f049	-0.02050032
245	0x3c9fdd9c	0.019514851
246	0x3c35476e	0.011064393
247	0xbd0825ab	-0.033239048
248	0x3ba64855	0.0050745406
249	0xbd223ade	-0.03960692
250	0xbcf9347b	-0.030420532
251	0xbbd30b6e	-0.0064405715
252	0x3bfbf49a	0.007689071
253	0x3c6c6937	0.014429382
254	0x3cc79021	0.024360718
255	0xb939b247	-0.00017709388

model.3.bias f4 [32]
0	0xbc8b3054	-0.016990818
1	0xbd5bfad0	-0.05370599
2	0xbd0fa929	-0.035073433
3	0x3d41c460	0.04730642
4	0xbd13f5ac	-0.036122963
5	0xbd7c0488	-0.06152776
6	0x3c2c6b95	0.010523696
7	0x3d878268	0.0661667
8	0xbbe90fce	-0.00711248
9	0x3cace1f2	0.021103833
10	0x3da0a1d1	0.07843364
11	0xbd705d0b	-0.058682483
12	0x3c995676	0.018717986
13	0xbc768200	-0.015045643
14	0xbd6db254	-0.058031395
15	0xbc42efe5	-0.011898016
16	0x3d8c7c2c	0.068596214
17	0xbd7b73e5	-0.061389823
18	0x3d998fe8	0.07498151
19	0x39ea75cb	0.0004471972
20	0xbcd6d004	-0.026222236
21	0x3ce37829	0.027767258
22	0x3c87163d	0.016490096
23	0xbd45efb4	-0.0483243
24	0x3c91dd48	0.01780571
25	0x3d9033a3	0.07041099
26	0x3d855233	0.06509819
27	0x3d10c0e2	0.035340197
28	0xbd82563a	-0.06364103
29	0x3c12316f	0.008922919
30	0xbd34b25e	-0.044115417
31	0xbd64ca35	-0.055856902

model.6.weight f4 [32]
0	0x3f7d9bf8	0.99066114
1	0x3f7fbc91	0.99897105
2	0x3f7f8263	0.9980833
3	0x3f81f090	1.0151539
4	0x3f84b36c	1.0367255
5	0x3f83c283	1.0293735
6	0x3f837aa0	1.0271797
7	0x3f7fff21	0.9999867
8	0x3f823fc7	1.0175713
9	0x3f77e900	0.96839905
10	0x3f8052ea	1.0025303
11	0x3f7ba9e2	0.98306096
12	0x3f7dfbb2	0.9921218
13	0x3f827868	1.0192995
14	0x3f81bb15	1.0135218
15	0x3f7dc2e3	0.991255
16	0x3f832ae5	1.0247465
17	0x3f82d8f5	1.022246
18	0x3f82575e	1.0182912
19	0x3f812199	1.0088378
20	0x3f8118ce	1.0085695
21	0x3f816fc3	1.0112232
22	0x3f848d01	1.0355531
23	0x3f809fdc	1.0048785
24	0x3f818712	1.0119345
25	0x3f772d81	0.9655381
26	0x3f7f51c6	0.9973415
27	0x3f81f2b6	1.0152194
28	0x3f8250a9	1.0180866
29	0x3f8210f8	1.0161428
30	0x3f81d7b5	1.0143954
31	0x3f7e7c6e	0.99408615

model.6.bias f4 [32]
0	0xbb978e79	-0.0046251384
1	0xbbab66ca	-0.0052307593
2	0xbc11562a	-0.008870641
3	0x3bb31928	0.0054656453
4	0xba9e01b5	-0.0012054952
5	0x3adb629c	0.0016737762
6	0x3bf67df1	0.0075223376
7	0x3b8df974	0.0043327156
8	0xbb64b478	-0.0034897607
9	0x3b4cd6d9	0.003125599
10	0xbafd5212	-0.0019326827
11	0x3b2df04d	0.0026540936
12	0x3b4538eb	0.003009374
13	0xbaba6b8b	-0.0014222724
14	0xbb8df602	-0.004332305
15	0xb7d5d7b0	-2.5492016e-05
16	0x3c4693ba	0.012120182
17	0xbb7762ad	-0.0037748024
18	0x3bacc44e	0.005272425
19	0x3afaab9c	0.001912463
20	0xba557bf0	-0.00081437733
21	0x3ad13900	0.0015962422
22	0xbb24dbcf	-0.002515543
23	0xbb1a9ea1	-0.0023593085
24	0xbc312edc	-0.010814395
25	0xbc0a5592	-0.008443253
26	0xbbda2b84	-0.0066580195
27	0xbc0ad71a	-0.008474136
28	0x3c0d81e9	0.00863693
29	0x3b8e0baa	0.0043348866
30	0xbb6f2329	-0.0036489463
31	0xbb97aaca	-0.004628514

model.6.running_mean f4 [32]
0	0x3cb15f31	0.021651836
1	0x3da8a592	0.08234705
2	0x3d4eba93	0.0504709
3	0x3d1c98c1	0.038231615
4	0x3cb9f037	0.022697551
5	0x3dfce41f	0.12348198
6	0x3d4f0108	0.050538093
7	0x3da2e502	0.07953836
8	0x3cb55698	0.022136018
9	0x3c8ae5b8	0.016955242
10	0x3d22a194	0.039704874
11	0x3c1dad6e	0.009623868
12	0x3cec445e	0.028841194
13	0x3cbe3fc8	0.023223773
14	0x3c05db11	0.008169905
15	0x3c9a8ebc	0.01886689
16	0x3d2a6ec4	0.04160954
17	0x395a6db9	0.00020830975
18	0x3e10a25d	0.14124437
19	0x3d0f9a04	0.03505899
20	0x3c1791a6	0.009251034
21	0x3c9d4034	0.019195653
22	0x3d0406db	0.0322331
23	0x3dcbff73	0.099608324
24	0x3d23d9fc	0.040002808
25	0x3e29d538	0.16585243
26	0x3d4d64a3	0.050144803
27	0x3db33f60	0.08752322
28	0x3d26eff8	0.040756196
29	0x3c992cfa	0.018698204
30	0x39933613	0.00028078313
31	0x3c9f0683	0.019412285

model.6.running_var f4 [32]
0	0x3bb07828	0.0053854175
1	0x3c7aed49	0.015315362
2	0x3bd8114e	0.0065938598
3	0x3c0f0317	0.008728764
4	0x3b0be83b	0.0021348137
5	0x3cef6179	0.029221283
6	0x3b6499bc	0.0034881672
7	0x3bd09e6b	0.006366541
8	0x3af7b576	0.0018898684
9	0x3a4e17a3	0.00078617985
10	0x3c020bd4	0.00793739
11	0x3bbc6129	0.005748887
12	0x3b4e4508	0.0031474251
13	0x3ac6a1fb	0.0015154475
14	0x3ac221be	0.0014811081
15	0x3ac30f62	0.0014881904
16	0x3c0bbeff	0.008529424
17	0x3c3e5a4e	0.01161821
18	0x3c8f65c8	0.017504588
19	0x3c0a1529	0.008427897
20	0x3b21a040	0.0024662167
21	0x3ae2f365	0.0017314969
22	0x3bbb30b9	0.0057125953
23	0x3caacad4	0.02084867
24	0x3bd280c2	0.0064240405
25	0x3cc56d52	0.02409998
26	0x3bfd731c	0.0077346694
27	0x3c10b2e3	0.008831712
28	0x3b95d509	0.004572515
29	0x3b523adc	0.003207854
30	0x3b24e494	0.0025160657
31	0x3af63631	0.0018784461

model.7.weight f4 [64, 32, 3, 3]
0	0x3b50951a	0.0031827153
1	0xbb683d91	-0.0035437087
2	0x3d452481	0.048130516
3	0xbb7b8a70	-0.0038382076
4	0xbc1a1df7	-0.009406558
5	0x3d3a317e	0.045457356
6	0xbb33afb0	-0.002741795
7	0xbd0238d3	-0.031792473
8	0x3cd1e972	0.02562401
9	0xbb941b5f	-0.0045198645
10	0xbca87fbf	-0.020568727
11	0x3c188af8	0.0093104765
12	0x3cc5e71e	0.024158057
13	0xbce85f50	-0.028365761
14	0xbd28ddc5	-0.04122712
15	0x3c9c078a	0.019046564
16	0xb7f1cffc	-2.8826289e-05
17	0x3b2166ee	0.0024628001
18	0xbd033975	-0.032037217
19	0x3c5b9d16	0.013404151
20	0xbc2216d3	-0.009893137
21	0x3d3e287b	0.046425324
22	0x3c6a87d7	0.014314613
23	0xbcaf1477	-0.021372063
24	0x3d0a8d82	0.03382636
25	0x3c47263b	0.012155111
26	0xbd5740b1	-0.05255193
27	0x3c4d42eb	0.0125281615
28	0xbcb93047	-0.022606028
29	0xbd095a0b	-0.033533137
30	0xbd170148	-0.036866456
31	0xbd251cd0	-0.04031068
32	0xbcc81cd2	-0.024427805
33	0xbd0a3346	-0.033740304
34	0xbd039a56	-0.032129608
35	0xbd544084	-0.05181934
36	0xbca80a83	-0.020512825
37	0xbca415ac	-0.020029865
38	0x3a0ffbcb	0.0005492537
39	0x3c0cd0b9	0.008594685
40	0xbb4192fa	-0.0029537068
41	0x3c1e11e4	0.00964782
42	0x3c0ac5a5	0.008469974
43	0xbcd60efe	-0.026130196
44	0xbd0b8089	-0.034058128
45	0x3c9e9667	0.019358827
46	0x3d3cee1c	0.046125516
47	0x3bd22ea5	0.006414252
48	0x3cef86f9	0.029239165
49	0xbc38bb5b	-0.011275138
50	0xba8382f9	-0.001003354
51	0x3c70a06e	0.014686687
52	0x3c45f1b7	0.012081555
53	0x3d181da9	0.03713766
54	0x3ba5224d	0.0050394894
55	0x3ce053a6	0.027383637
56	0x3bdd1ed1	0.0067480584
57	0x3c6b06ce	0.014344884
58	0x3d2753a2	0.040851243
59	0x3cbf013a	0.023316015
60	0xbcf91f1a	-0.030410338
61	0xbb30c750	-0.0026974268
62	0xbcab83bd	-0.020936841
63	0xbc06fa49	-0.008238384
64	0xbc17541c	-0.009236362
65	0x3b08e8b3	0.0020890653
66	0x3d1e2236	0.038606845
67	0x3c8ed6f1	0.017436476
68	0xbc14f69d	-0.009092
69	0xbb928e71	-0.0044725467
70	0x3c2b198f	0.010443105
71	0x3c6bacf5	0.014384498
72	0x3bf87fe2	0.007583604
73	0xbc82d8af	-0.015972463
74	0xbcfbe023	-0.030746525
75	0x3cbd5334	0.023110963
76	0xbc367d1d	-0.011138228
77	0x3c6ddefe	0.0145184975
78	0x38e69aec	0.00010996111
79	0x3c615724	0.013753686
80	0x3b8b2034	0.0042457823
81	0x3d3011bf	0.042985674
82	0x3d3a55b0	0.045491874
83	0xbca24a05	-0.019810686
84	0x3be48b81	0.006974638
85	0x3ca04907	0.019566072
86	0xbb0d664c	-0.0021575866
87	0x3ca2132f	0.019784538
88	0xbc2099c4	-0.009802286
89	0xbcce1cbd	-0.025160188
90	0xbb64929e	-0.003487743
91	0x3d238a1e	0.03992664
92	0x3cc6e908	0.02428104
93	0xbce0f3d7	-0.027460022
94	0x3d03477f	0.032050606
95	0xbc93a407	-0.01802255
96	0xbc2e0277	-0.010620705
97	0x3ca4e5b1	0.020129057
98	0xbd00df60	-0.031463027
99	0x3c480274	0.012207616
100	0xbb2520de	-0.0025196592
101	0xbcdcb53e	-0.026941892
102	0x3c9663c6	0.018358123
103	0x397fd8f3	0.00024399515
104	0xbbfe6f3f	-0.0077647264
105	0x3a55b25b	0.0008151882
106	0xbc116788	-0.008874781
107	0xbc99faeb	-0.018796405
108	0x3d0a73d0	0.033801854
109	0x3c4603e7	0.012085891
110	0x3cbdfcc8	0.023191825
111	0xbd14cf95	-0.03633078
112	0x3b5d1d29	0.0033739305
113	0x3c227bca	0.009917209
114	0xbc741fad	-0.01490013
115	0xbc886533	-0.016649818
116	0xbcbfb67d	-0.023402447
117	0xbd1ddcd3	-0.038540673
118	0x3ceeadec	0.029135667
119	0xbd24b1c8	-0.040208608
120	0x3cb55ace	0.022138026
121	0xbc34ea05	-0.011042123
122	0x3b9a7c7d	0.004714547
123	0x3c8e92ec	0.017404042
124	0x3ce8730b	0.02837517
125	0x3b86ca89	0.0041134995
126	0xbce71635	-0.028208831
127	0xbcfb334b	-0.030664107
128	0xbc17b1fc	-0.009258743
129	0xbb528612	-0.003212337
130	0x3c7193cb	0.014744709
131	0xbc86cad7	-0.016454143
132	0xbceba670	-0.028765887
133	0x3d2f8e29	0.042860184
134	0x3c1678d8	0.009184085
135	0x3ce7bc40	0.028288007
136	0x3c5534f3	0.013013112
137	0xbccadf9e	-0.024764832
138	0x3bb8096d	0.005616358
139	0xbd35a030	-0.04434222
140	0xbc902e0e	-0.017600086
141	0x3cfba47e	0.030718084
142	0xbae04ecd	-0.0017113328
143	0x3bbbcb6e	0.005731038
144	0x3c6eee8b	0.01458324
145	0xbb98b15d	-0.004659815
146	0x3c6b87f3	0.014375675
147	0x3ba48d90	0.0050217584
148	0x39fae61a	0.00047855155
149	0xbb2347ae	-0.002491455
150	0xbd134b7c	-0.03596066
151	0x3b9c7230	0.0047743544
152	0xbbc86088	-0.006115023
153	0x3bfcdafc	0.0077165347
154	0x3b30107e	0.00268653
155	0x3c0e2e59	0.008678042
156	0xbc09f600	-0.008420467
157	0x3c97ff42	0.018554334
158	0xbc7e6c98	-0.01552882
159	0x3d1b4c26	0.037914418
160	0x3c200395	0.009766479
161	0xbc11a84d	-0.008890224
162	0x3bac6ae1	0.0052617644
163	0xbd6e6a6b	-0.058206957
164	0x3c9cdd01	0.019148352
165	0xbc3e22ea	-0.011605004
166	0xbcc74980	-0.02432704
167	0x3bbb04ea	0.005707373
168	0xbd0e104c	-0.03468351
169	0xbc50b12d	-0.0127375545
170	0x3ba738f2	0.005103224
171	0x3c5a6082	0.013328673
172	0x3d13c543	0.036076795
173	0xbd31157a	-0.043233372
174	0x3c1a0a77	0.009401909
175	0xbc27242e	-0.010201497
176	0x3bcfd9e5	0.0063431137
177	0xbbc0d6e7	-0.0058849934
178	0x3d2c0a84	0.042002216
179	0xbca2fc46	-0.019895684
180	0x3d02953c	0.031880602
181	0xbc2fdd18	-0.010733865
182	0xbc8fc522	-0.017550055
183	0xbcb647db	-0.02225106
184	0x3c76a222	0.015053304
185	0xbc70b9bc	-0.01469272
186	0xbd039a65	-0.032129664
187	0xba52a466	-0.00080353615
188	0xbaa352c7	-0.0012460583
189	0x3bccb0f4	0.0062466804
190	0xbb5b028d	-0.0033418268
191	0xbc349740	-0.011022389
192	0xbba7624e	-0.0051081544
193	0xbce4ae2c	-0.027915083
194	0x3c03c1ea	0.008041838
195	0x3c59f8cd	0.013303948
196	0xbc3914ff	-0.01129651
197	0xbd0e61f9	-0.034761403
198	0xbb08b466	-0.002085948
199	0x3d0ff73e	0.035147898
200	0x3caab058	0.02083604
201	0x3c5a2a6d	0.013315779
202	0x3d32b4d5	0.043629486
203	0x3a3315d3	0.000683156
204	0xbd1291aa	-0.035783447
205	0x3b9758e4	0.004618751
206	0xbb06be5f	-0.0020560247
207	0xbc613505	-0.013745551
208	0xbc9c9a55	-0.01911656
209	0x3ce981f6	0.028504353
210	0x3bfe2fd1	0.007757165
211	0x3cbed970	0.023297042
212	0x3d44010c	0.04785256
213	0xbc86de50	-0.016463429
214	0x3c8f6fad	0.017509306
215	0xbb5dbc8e	-0.0033834311
216	0x3b279fc3	0.0025577403
217	0x3c39def0	0.011344656
218	0x3c294177	0.010330549
219	0xbc8a08b5	-0.016849855
220	0x3c1d90c3	0.009617033
221	0xb9abe406	-0.00032785552
222	0xbcc9f3d2	-0.024652395
223	0x3c58aac7	0.01322431
224	0xbd2fbc0f	-0.042903956
225	0x3cb110c8	0.021614447
226	0xbc59f2aa	-0.0133024845
227	0x3c19091d	0.009340552
228	0xbc82c5cc	-0.015963458
229	0x3ab33f44	0.0013675471
230	0xbc1b110e	-0.009464515
231	0xbc7375fd	-0.014859674
232	0xbd639931	-0.055566017
233	0x3d1b8f47	0.037978437
234	0x3c9189f2	0.017765973
235	0x3c80725a	0.015679527
236	0xbc286833	-0.010278749
237	0x3c6b7349	0.014370748
238	0xbc87ab42	-0.016561154
239	0x3b589cf3	0.0033052533
240	0x3c6eec3d	0.014582691
241	0xbb5b3a75	-0.003345159
242	0xbc26c94b	-0.010179828
243	0xbd61c256	-0.055116974
244	0xbc403c48	-0.011733122
245	0x3cd0f1fe	0.025506016
246	0xbc99b47d	-0.018762821
247	0x3c3bd819	0.011465096
248	0xbc8dbc84	-0.017301805
249	0xbb965237	-0.0045874375
250	0xbcb2386a	-0.021755416
251	0x3ca2f794	0.019893445
252	0x3cb37bdd	0.021909649
253	0x3b43d049	0.0029878786
254	0xbcd78b43	-0.026311522
255	0xbcbf2c63	-0.023336595

model.7.bias f4 [64]
0	0xbd307f60	-0.043090224
1	0x3c70d808	0.014699943
2	0xbd3603f0	-0.04443735
3	0xbca2f778	-0.019893393
4	0x3cfa37ee	0.030544247
5	0x3d45ab49	0.048259053
6	0xbb269b85	-0.0025422287
7	0xbd23c739	-0.039984915
8	0xbd3dcbf2	-0.046337076
9	0x3ca369f9	0.019947993
10	0xbd3fbfea	-0.046813883
11	0xbd3f0533	-0.046635818
12	0x3ce92440	0.028459668
13	0xbd0f68e0	-0.035012126
14	0xbc987513	-0.018610513
15	0x3aa42cf8	0.0012525609
16	0x3d68010c	0.056641623
17	0xbd421641	-0.047384504
18	0x3b4dd95e	0.0031410079
19	0x3b8b6af3	0.0042546927
20	0x3d56a01b	0.052398782
21	0xbd1bbdb9	-0.03802273
22	0xbb12a57b	-0.0022376466
23	0x3b7cb856	0.0038562021
24	0xbcc1a656	-0.023638885
25	0xbbeee382	-0.0072903046
26	0xbbbb3a64	-0.005713748
27	0x3cb524cf	0.022112278
28	0x3c4fd3ef	0.012684806
29	0x3d1d1a5f	0.038355228
30	0x3d25ffe8	0.040527254
31	0xbcc34004	-0.023834236
32	0x3c86887f	0.016422508
33	0x3c706f17	0.014674923
34	0x3d3443ae	0.044009857
35	0x3be10e83	0.006868185
36	0x3d051ac1	0.032496218
37	0xbc9d1138	-0.01917325
38	0x3d274108	0.040833503
39	0xbc29edc3	-0.010371628
40	0x3cc889da	0.024479795
41	0x3d2a80a5	0.04162659
42	0x3d2ed52e	0.042683773
43	0xbc8edf1e	-0.017440375
44	0xbcd365e5	-0.025805423
45	0x3d3e4f07	0.046462085
46	0x3d3e58ff	0.046471592
47	0xba7bcca3	-0.00096053834
48	0xbccaa13c	-0.024735086
49	0x3cbef03b	0.02330791
50	0xbd1cd61d	-0.03829013
51	0xbcef6cac	-0.029226623
52	0x3d2fbd83	0.04290534
53	0x3b26758a	0.0025399649
54	0xbc60de30	-0.013724849
55	0x3c9a6a7e	0.018849608
56	0x3d209eb9	0.03921387
57	0x3d4caeea	0.0499715
58	0x3d778c88	0.060436755
59	0xbc77ac17	-0.015116713
60	0xbc4f408a	-0.012649665
61	0xbc8ccc7a	-0.017187346
62	0x3d16eff8	0.036849946
63	0x3b73f2ae	0.0037223506

model.10.weight f4 [64]
0	0x3f79ec7b	0.97626466
1	0x3f7eecf1	0.99580294
2	0x3f7b1826	0.9808372
3	0x3f813a7a	1.0095971
4	0x3f7d319d	0.9890383
5	0x3f809181	1.0044404
6	0x3f7de03a	0.9917027
7	0x3f82bab7	1.0213231
8	0x3f834424	1.025517
9	0x3f7fcbb3	0.99920195
10	0x3f81e74a	1.0148709
11	0x3f8036a8	1.001668
12	0x3f831142	1.0239642
13	0x3f7f763e	0.997898
14	0x3f861698	1.0475645
15	0x3f7a9d8a	0.97896636
16	0x3f7f5f9f	0.9975528
17	0x3f826c17	1.0189236
18	0x3f77d4c3	0.96809024
19	0x3f7beacb	0.9840514
20	0x3f8188cc	1.0119872
21	0x3f7cf231	0.98807055
22	0x3f837253	1.0269264
23	0x3f84865a	1.0353501
24	0x3f83f9ad	1.031057
25	0x3f7ce856	0.98792017
26	0x3f7b377d	0.98131543
27	0x3f7877d7	0.9705786
28	0x3f8017cd	1.0007263
29	0x3f80353a	1.0016243
30	0x3f802ca2	1.0013621
31	0x3f8184bf	1.0118636
32	0x3f7b159e	0.9807986
33	0x3f828168	1.0195742
34	0x3f8000c1	1.000023
35	0x3f7d9ca4	0.9906714
36	0x3f749746	0.95543325
37	0x3f7ab025	0.97925025
38	0x3f80044a	1.0001309
39	0x3f8201c5	1.015679
40	0x3f87986b	1.0593389
41	0x3f828b83	1.0198826
42	0x3f805530	1.0025997
43	0x3f82e43c	1.0225902
44	0x3f7ee1cf	0.99563307
45	0x3f7d4a5a	0.98941576
46	0x3f7b6dc9	0.98214394
47	0x3f8354ca	1.026025
48	0x3f82a1dd	1.0205647
49	0x3f844364	1.0333066
50	0x3f837867	1.0271119
51	0x3f7fe1ab	0.99953717
52	0x3f80252f	1.0011348
53	0x3f7dd26a	0.9914919
54	0x3f818f99	1.0121948
55	0x3f7a9b65	0.97893363
56	0x3f7d1190	0.98854923
57	0x3f81ba16	1.0134914
58	0x3f7f2f1b	0.9968125
59	0x3f81787e	1.0114896
60	0x3f82174a	1.0163357
61	0x3f7c264d	0.9849594
62	0x3f7d50a4	0.9895117
63	0x3f84d115	1.0376307

model.10.bias f4 [64]
0	0xbb1a42be	-0.0023538317
1	0x3b1c04c3	0.002380655
2	0xbaac97ba	-0.0013167777
3	0x3b1d6c92	0.0024021012
4	0xbae96e1b	-0.0017809303
5	0x3ba89ecf	0.0051458846
6	0xbbc1b329	-0.00591125
7	0xbb882963	-0.0041553243
8	0xbb8bd178	-0.004266914
9	0xbc4c7fbe	-0.012481628
10	0x3b025076	0.0019884384
11	0x3bd5a70b	0.006520157
12	0xbb54e53a	-0.0032485262
13	0xbadcaefd	-0.0016836819
14	0xbbc9dfbf	-0.006160706
15	0xbba0c737	-0.0049065608
16	0xb94650be	-0.0001891283
17	0x3a9dda2b	0.0012043169
18	0x3b9d391f	0.004798069
19	0xbb2248ef	-0.002476271
20	0x3bdc8b17	0.006730448
21	0xbbf4b366	-0.007467675
22	0xbb8c8e3e	-0.0042894175
23	0xbbe7ecdc	-0.0070777964
24	0xba5e8b2c	-0.0008489366
25	0xbbdb8931	-0.006699704
26	0x3bd7331e	0.006567373
27	0xbbcd5c68	-0.006267119
28	0x3b84f0bf	0.0040570195
29	0xbaa8fd75	-0.0012892919
30	0xbb81b5ab	-0.003958424
31	0xbb84ccc8	-0.004052732
32	0x3a93ab8d	0.0011266336
33	0xbb8ae23a	-0.004238394
34	0x3b79b3ec	0.0038101627
35	0xbc7737a8	-0.015088953
36	0xbbab766c	-0.005232623
37	0x3c10e2ad	0.008843106
38	0x3bc2de2d	0.0059468956
39	0x3b2f6aec	0.0026766611
40	0xbacb9399	-0.0015531658
41	0x3bb90818	0.005646717
42	0x3b051a94	0.0020310031
43	0x3a448f71	0.0007498181
44	0x3ba383a8	0.00499006
45	0x38e33deb	0.000108357366
46	0xba4e83ae	-0.0007877898
47	0xbad7af50	-0.0016455445
48	0x3b9216cf	0.0044582854
49	0x3a91956c	0.0011107153
50	0xbad6959c	-0.0016371491
51	0xbbdd3196	-0.006750296
52	0xbae58b73	-0.0017512873
53	0x3b88dbde	0.004176601
54	0x3a24897a	0.0006276589
55	0xbbad3d60	-0.0052868575
56	0x3b6f5818	0.0036521014
57	0x3b4b9dab	0.003106932
58	0xbb3f6101	-0.0029202106
59	0xb874c6b6	-5.8359197e-05
60	0x3a97f4bf	0.0011593326
61	0xba8a5a7c	-0.0010555531
62	0x3c0679b6	0.008207729
63	0x3bfebdcf	0.007774092

model.10.running_mean f4 [64]
0	0xbbe6913f	-0.0070363577
1	0x3cc5fa40	0.02416718
2	0xbba0698e	-0.0048953956
3	0x3cffc39e	0.031221207
4	0x3d25510d	0.0403605
5	0x3d3b3caa	0.04571215
6	0x3c582c47	0.01319415
7	0xba1e1609	-0.0006030505
8	0xbbf606de	-0.007508143
9	0x3cd04b6b	0.025426587
10	0xbb9c1fc5	-0.0047645294
11	0xbbb4df01	-0.005519748
12	0x3d1ed546	0.038777612
13	0x3c48b83c	0.012250956
14	0x3bfbe7d0	0.0076875463
15	0x3c881185	0.016609916
16	0x3d9c6251	0.0763594
17	0xbabd771f	-0.0014455057
18	0x3cca40d2	0.024689112
19	0x3cb884cd	0.022524262
20	0x3d8670f6	0.06564514
21	0x3c1f7dbd	0.009734568
22	0x3c61bdbe	0.013778148
23	0x3c401274	0.01172315
24	0x3b774dd8	0.0037735607
25	0x3bd787f2	0.0065774852
26	0x3be58e00	0.007005453
27	0x3cc9967c	0.02460789
28	0x3c9ded37	0.019278152
29	0x3d3411ce	0.043962292
30	0x3d339685	0.04384472
31	0x3c6c0996	0.014406582
32	0x3cfb62bd	0.03068673
33	0x3cd1c0f8	0.02560471
34	0x3d7b1864	0.061302558
35	0x3cb2e76c	0.021838866
36	0x3d343ee0	0.044005275
37	0x3a9e05c9	0.0012056167
38	0x3d39e75b	0.045386653
39	0x3c1d2689	0.009591707
40	0x3cfa9809	0.030590074
41	0x3d34400a	0.044006385
42	0x3d2e4294	0.042543963
43	0x3c2115b6	0.009831836
44	0x3b6cfd16	0.0036161593
45	0x3d5532a4	0.052050248
46	0x3d5b895a	0.053597786
47	0x3c56287e	0.0130711775
48	0x3c5687f4	0.013093937
49	0x3d17c21a	0.037050344
50	0xb861c2f6	-5.3825752e-05
51	0x3b125871	0.0022330547
52	0x3d313993	0.043267798
53	0x3c588a2e	0.013216538
54	0x3c07d899	0.008291387
55	0x3cbe497a	0.023228396
56	0x3d281d35	0.04104348
57	0x3d3f0a80	0.046640873
58	0x3d91b22b	0.07114061
59	0x3c026326	0.007958209
60	0x3c7bfd66	0.015380239
61	0x3c07fed1	0.008300499
62	0x3d2ca58e	0.042150073
63	0x3ca8eccb	0.020620724

model.10.running_var f4 [64]
0	0x39943657	0.00028269246
1	0x3b0eb260	0.00217738
2	0x3a425ca9	0.000741432
3	0x3c4fd43c	0.012684878
4	0x3b8169cb	0.003949379
5	0x3b8ba2c3	0.004261346
6	0x3aa6ecee	0.0012735405
7	0x3a6a79e5	0.00089445553
8	0x395d4388	0.0002110136
9	0x3a9c0401	0.0011903049
10	0x3a2b29c6	0.0006529357
11	0x3a452a51	0.0007521259
12	0x3b2b6a50	0.0026155896
13	0x3ba4ca62	0.0050290087
14	0x3abc9be0	0.0014389716
15	0x3b1bc74e	0.0023769918
16	0x3bdcb8a4	0.006735878
17	0x3b020a38	0.0019842517
18	0x3b6e11fa	0.0036326633
19	0x3b25f7c9	0.0025324693
20	0x3be35739	0.006937888
21	0x3ba0590e	0.0048934286
22	0x3a9e42ae	0.0012074315
23	0x3a238a88	0.00062385993
24	0x3aa01c66	0.0012215495
25	0x3a278431	0.00063902425
26	0x3a6a7248	0.0008943421
27	0x3ac8c8ae	0.0015318596
28	0x3ab45483	0.0013758097
29	0x3b817df6	0.0039517833
30	0x3b15b960	0.0022846088
31	0x3b966a5a	0.004590315
32	0x3b1085eb	0.0022052478
33	0x3b0b880c	0.0021290807
34	0x3bb311dd	0.005464776
35	0x3ae345bb	0.0017339507
36	0x3b99b2e0	0.004690513
37	0x39a5f861	0.0003165631
38	0x3ba80b4b	0.0051282994
39	0x3ac51ab4	0.0015037865
40	0x3b4c8e6e	0.0031212824
41	0x3b9004ad	0.0043950886
42	0x3ac622bd	0.0015116554
43	0x3b2014e6	0.002442652
44	0x3a79ed9c	0.0009534003
45	0x3b2aa907	0.002604069
46	0x3bb4a753	0.0055131107
47	0x3adf239e	0.0017024165
48	0x3b871fea	0.0041236775
49	0x3b87950e	0.0041376418
50	0x3a965629	0.001146977
51	0x3a8f019c	0.0010910514
52	0x3b018318	0.0019761976
53	0x3a9bb7a5	0.0011880292
54	0x3ae25ddb	0.0017270403
55	0x3a97b750	0.0011575017
56	0x3ac076f8	0.0014683893
57	0x3b7dd35f	0.0038730723
58	0x3b8e3f71	0.004341059
59	0x3ab484cf	0.001377249
60	0x3b060e40	0.002045527
61	0x3ae6b629	0.0017601895
62	0x3b2f6e18	0.0026768502
63	0x3b4bb225	0.0031081524

model.11.weight f4 [128, 64, 3, 3]
0	0x3d096b71	0.03354973
1	0xbc64a123	-0.013954434
2	0xbcc2514b	-0.023720404
3	0x3c9f2b42	0.019429807
4	0xba808e0e	-0.0009807961
5	0xbd0e4a83	-0.03473903
6	0xbc518ae2	-0.01278946
7	0x3cf0417f	0.029328106
8	0x3c959737	0.018260581
9	0xbd2e4127	-0.042542603
10	0xbcf6b1bb	-0.030114045
11	0xbd1a1757	-0.037619915
12	0x3d1abd3a	0.037778117
13	0x3bbfa7ea	0.0058488743
14	0x3ba9d3c1	0.0051827137
15	0xbbc9a375	-0.006153519
16	0xbcbe6053	-0.02323929
17	0xbcd4e870	-0.025989741
18	0xbd0a0e71	-0.03370518
19	0xbcce5745	-0.025188098
20	0x3d267f52	0.040648766
21	0x3ca20191	0.019776138
22	0x3b7eeca0	0.0038898364
23	0xba6b4c8a	-0.0008975944
24	0x3c53c7f4	0.0129260905
25	0x3cd14c89	0.02554919
26	0x3badb313	0.0053008883
27	0xbc8418ed	-0.016125167
28	0xbcb1956d	-0.021677697
29	0xbcba29b8	-0.022724971
30	0xbd057f4e	-0.03259211
31	0xbca14214	-0.019684829
32	0x3d09beff	0.033629414
33	0x3c6869f9	0.014185422
34	0x3cf57432	0.029962633
35	0xbcd2c3fd	-0.02572822
36	0xbb880e22	-0.0041520754
37	0x3b6e0ec5	0.0036324721
38	0xbcc7a732	-0.024371717
39	0x3c45c107	0.012069947
40	0x3b13f1a0	0.002257444
41	0xbca1a182	-0.019730333
42	0xbc20633f	-0.009789287
43	0x3c400359	0.011719548
44	0x3a7dee7a	0.000968672
45	0x3c18391a	0.009290958
46	0x3c38b7bf	0.011274277
47	0x39e7223c	0.0004408526
48	0x3c9484a6	0.018129658
49	0x3cd0e28d	0.025498653
50	0x3c21e6cd	0.009881687
51	0x3be0505c	0.006845517
52	0x3c8fac91	0.01753834
53	0xbb2c0326	-0.0026246994
54	0x3d1a3a0a	0.037653007
55	0xbc636513	-0.013879078
56	0x3b9e1727	0.0048245373
57	0x3c9516b4	0.018199302
58	0x3c62931f	0.013829022
59	0xbc036fc3	-0.008022252
60	0x3b8f9dc6	0.0043828217
61	0x3c9c3eb3	0.019072866
62	0xb9b97ea7	-0.00035380313
63	0xbb811128	-0.0039388128
64	0xbb573b81	-0.0032841864
65	0x3c475609	0.0121665085
66	0xbc3536d6	-0.011060437
67	0xbc773d6f	-0.0150903305
68	0x3d23ab8a	0.039958514
69	0xbbeaf574	-0.0071703736
70	0xbd05c246	-0.032655977
71	0x3d49a3f9	0.049228642
72	0x3c218416	0.009858152
73	0xbb14796b	-0.0022655379
74	0x3c3214d5	0.010869225
75	0xbd0a2f15	-0.033736307
76	0xbb67d4af	-0.0035374572
77	0xbaad1890	-0.0013206173
78	0xba192184	-0.0005841481
79	0x3d0e57f7	0.03475186
80	0xbd2ec8af	-0.042671856
81	0xbc873167	-0.016503049
82	0x3cfa8922	0.030582968
83	0x3c910ed6	0.01770727
84	0xbb2ba647	-0.0026191638
85	0xbcfffbca	-0.031247992
86	0x3ce034cb	0.027368924
87	0x3c6eb600	0.014569759
88	0x3bfaa10e	0.0076485937
89	0xbccb06e8	-0.024783567
90	0x3cc8137c	0.024423353
91	0x3cd3e15b	0.025864294
92	0x3c31decd	0.0108563425
93	0x3bc54843	0.006020577
94	0x3ae51ff2	0.0017480834
95	0x3cbe34c3	0.023218518
96	0x3c82508e	0.015907552
97	0x3c00d1f8	0.00786256
98	0x3d1f0a85	0.03882839
99	0x3cad1213	0.021126783
100	0xbcdd0cf2	-0.026983712
101	0x3ce47e1f	0.02789217
102	0x3cf19aef	0.029492823
103	0x3c13a449	0.009011337
104	0x3a32b3c8	0.00068169506
105	0xbafec18b	-0.0019436342
106	0xbc937ac7	-0.01800288
107	0xbcc3b719	-0.023891019
108	0xbc9e96d1	-0.019359024
109	0x3c9d2896	0.019184392
110	0x3b3e6542	0.0029052054
111	0x3d0765fb	0.03305624
112	0xbd131443	-0.035907995
113	0x3d10bc18	0.03533563
114	0xbc6ab469	-0.01432524
115	0x3c0dcdc9	0.00865502
116	0x3ce4eeb3	0.027945852
117	0xbd042aa5	-0.03226723
118	0x3cdffef9	0.02734326
119	0x3ad2c9d3	0.0016081877
120	0x3cb5d8c1	0.022198083
121	0x3d0bb8d6	0.03411182
122	0xbd02d817	-0.03194436
123	0x3c3fbe63	0.011703107
124	0xbb4037b5	-0.002933008
125	0xbaf53755	-0.0018708507
126	0x3ce4c8a5	0.027927706
127	0x3caf2ba6	0.021383118
128	0x3d206ec4	0.039168134
129	0x3cf9437d	0.030427689
130	0xbc285769	-0.010274746
131	0xbc546215	-0.012962838
132	0xbb9b3fb3	-0.004737818
133	0x3ca7ad66	0.020468425
134	0x3cf76b2c	0.03020247
135	0xbbede586	-0.0072600273
136	0xbc75f1ad	-0.015011233
137	0xbbd1405c	-0.006385846
138	0x3c3422fc	0.010994669
139	0x3cd28f06	0.025702965
140	0xbbd2cc83	-0.006433071
141	0x3cd07263	0.025445169
142	0xbd1927ce	-0.037391476
143	0xbc09f4fe	-0.008420227
144	0xbcbd0200	-0.023072243
145	0xbc43c0a4	-0.011947785
146	0xbc916da0	-0.017752469
147	0x3c8ccf2e	0.017188635
148	0x3b763493	0.0037567958
149	0xbacb65a8	-0.0015517967
150	0x3cd04d61	0.025427522
151	0x3c5820fe	0.01319146
152	0xbb56116d	-0.0032664195
153	0x3c09fd87	0.008422262
154	0xbb29337f	-0.0025818048
155	0x3c70e7ad	0.014703673
156	0x3c917b70	0.017759055
157	0x3b8a0529	0.004212041
158	0xbcb206ec	-0.021731816
159	0x3b72752e	0.0036996114
160	0x3c44dbda	0.012015307
161	0xbcc14706	-0.023593437
162	0x3b05d37f	0.002042025
163	0x3cc6d8d4	0.024273314
164	0xbcc8cb37	-0.024510963
165	0xbd1a537d	-0.037677277
166	0xbc3b4d9f	-0.0114320805
167	0x3cadee43	0.021231776
168	0x3cf9c015	0.0304871
169	0xbc4c8d96	-0.012484929
170	0x3ccd5b45	0.025067935
171	0x3c28a894	0.010294098
172	0x3c40b13b	0.011761005
173	0xbc17e66e	-0.009271247
174	0xb98cd92b	-0.00026864684
175	0xbc9e8c85	-0.019354114
176	0x3d28c750	0.041205704
177	0xbcc0b40e	-0.023523357
178	0xbcfc2323	-0.030778473
179	0xbc275b6c	-0.010214668
180	0xbc48d3fe	-0.012257574
181	0x3c92a33a	0.017900098
182	0xbc0416b7	-0.008062056
183	0xbc2bee2f	-0.010493799
184	0xbc20e4d6	-0.009820184
185	0x3c801bf1	0.015638324
186	0x3c875496	0.016519826
187	0xbc0d7611	-0.008634106
188	0x3c9fd393	0.019510066
189	0xbba8caeb	-0.005151143
190	0xbc1e6e2b	-0.009669821
191	0x3bce6198	0.006298255
192	0x3cac7d7a	0.021055926
193	0x3b40344f	0.0029328053
194	0x3c92a675	0.017901639
195	0xbc854b1f	-0.016271172
196	0xbc844115	-0.016144315
197	0x3c7f8e94	0.015597958
198	0xbd099189	-0.03358606
199	0xbc932db1	-0.017966123
200	0xbccb6ec9	-0.0248331
201	0xbc9e767a	-0.019343603
202	0xbbf5d11a	-0.0075017335
203	0x3c706129	0.014671602
204	0x3c3ceac8	0.011530586
205	0x3c88d711	0.016704114
206	0x3bdbac47	0.0067038867
207	0x3bea86d5	0.0071571865
208	0xbd046ea5	-0.03233208
209	0xbab90555	-0.0014115969
210	0x3d4e10f1	0.050309125
211	0xbcc4c186	-0.02401806
212	0x3d2d05f5	0.04224201
213	0x3ca7f26e	0.020501342
214	0x3cda3cde	0.026640352
215	0xbc582a47	-0.013193673
216	0xbc99d8e0	-0.018780172
217	0x3ce3e9e4	0.027821489
218	0x3cc433a1	0.0239504
219	0xbaa7cb34	-0.0012801648
220	0xbd3fe91a	-0.046853162
221	0x3cd9ed95	0.026602546
222	0x3acaa538	0.0015460616
223	0xbd049ce0	-0.03237617
224	0xbc2f3e4d	-0.010696006
225	0x3cfe3584	0.031031378
226	0x3be648e3	0.0070277317
227	0x3c4583d9	0.012055361
228	0xbcc5aa7f	-0.02412915
229	0xbd4fff43	-0.050780546
230	0x3cf0a926	0.029377531
231	0xbca0ba2a	-0.01962002
232	0xbc38842e	-0.011261983
233	0xbcabce71	-0.020972462
234	0xbc319fbd	-0.010841307
235	0xbbce2eae	-0.0062921857
236	0xba98f5d6	-0.0011669945
237	0xbc6f8674	-0.0146194585
238	0x3b9144b6	0.00443324
239	0x3ca49b8c	0.020093702
240	0x388edff0	6.812799e-05
241	0x3c26bd43	0.010176959
242	0xbc61f656	-0.013791641
243	0xbcb11c4f	-0.021619944
244	0xbc7dfc90	-0.01550211
245	0xbd3a7dec	-0.045530245
246	0xbc74db95	-0.014944931
247	0x3c56d064	0.013111208
248	0x3ca71343	0.020394927
249	0xbc44970d	-0.011998904
250	0x3c2ccdfb	0.010547156
251	0x3c8a8e39	0.01691352
252	0xba9589f6	-0.0011408913
253	0xbb414ace	-0.002949405
254	0x3c44a645	0.012002532
255	0x3cd810ef	0.026375262

model.11.bias f4 [128]
0	0x3c983bd1	0.01858321
1	0xbc274e6f	-0.010211571
2	0x3c3a31c5	0.011364405
3	0x3d2fa085	0.042877693
4	0x3d0bb31f	0.03410637
5	0xbd1775f3	-0.03697772
6	0x3c996fa3	0.01872999
7	0xbce2ea6f	-0.027699677
8	0xbc8c729a	-0.01714449
9	0x3cb157ab	0.021648249
10	0x3b8fc6a8	0.0043876953
11	0x3c3dea3c	0.01159149
12	0x3cf15f87	0.029464496
13	0xbc77d940	-0.01512748
14	0x3bd10646	0.0063789217
15	0xbc6faf6c	-0.014629226
16	0xbb0b3426	-0.00212408
17	0x3c7776b9	0.015103989
18	0x3d18158e	0.03712993
19	0xbc5de2c1	-0.013542832
20	0x3c27ab68	0.0102337375
21	0xbc72f6d7	-0.014829359
22	0xbc3f2e1c	-0.011668708
23	0x3cab07e2	0.020877782
24	0xba84d493	-0.0010134153
25	0x3b7a8b6d	0.0038230077
26	0xbd0860e5	-0.03329553
27	0xbd1b4dc1	-0.03791595
28	0x3bb8e8db	0.005642993
29	0xbd1ae077	-0.037811723
30	0x3d156248	0.03647068
31	0x3d071491	0.032978598
32	0x3d260747	0.040534284
33	0xbc118446	-0.008881634
34	0xbce72545	-0.028216014
35	0xbc1373d9	-0.008999788
36	0x3d132594	0.03592451
37	0x3c59704a	0.013271401
38	0x3c67bb1a	0.01414373
39	0x3d08ebd9	0.033428047
40	0x3c9c2c69	0.019064145
41	0x3cbda3a6	0.023149323
42	0x3cae1936	0.021252256
43	0xbd255933	-0.04036827
44	0xbc9cc981	-0.019139053
45	0x3cfd2480	0.030901194
46	0x3bfc500a	0.007699971
47	0xbc087ae8	-0.008330084
48	0x3c22abbf	0.009928643
49	0x3cb49210	0.022042304
50	0x3cc616fe	0.024180885
51	0xbce1658a	-0.027514238
52	0x3c93ecf9	0.018057333
53	0x3c2e2578	0.01062905
54	0x3cef1afd	0.029187674
55	0x3c86bbcf	0.016446976
56	0x3ca3ac1c	0.01997953
57	0xbd28b9ed	-0.041192938
58	0xbd0e9f95	-0.034820158
59	0x3cbe04a8	0.02319558
60	0x3c1ddb48	0.0096348
61	0xbd0626c9	-0.032751832
62	0x3c2b089b	0.010439063
63	0xbacdfdd7	-0.0015715909
64	0xbc4f2e1d	-0.012645272
65	0xbc9b9726	-0.018992972
66	0xb83f9ead	-4.5685727e-05
67	0xbb0e3016	-0.0021696142
68	0x3c1d7ed8	0.009612761
69	0xbd42f674	-0.047598317
70	0x3d023126	0.031785153
71	0x3d1d41b1	0.038392726
72	0xbc27b80d	-0.010236752
73	0x3d1c9c0c	0.038234755
74	0x3b9074b3	0.004408443
75	0xbc8b0b37	-0.016973121
76	0x3bea8b7b	0.0071577406
77	0x3bfe7f26	0.007766622
78	0xbc26d2e8	-0.01018212
79	0xbb1f3674	-0.0024293931
80	0x3c333650	0.010938242
81	0xbae9a9c3	-0.0017827082
82	0x3cd3e46d	0.025865758
83	0xbb444d54	-0.0029953318
84	0x3ce51e2d	0.02796849
85	0x3c50959c	0.012730982
86	0xbc8eee30	-0.017447561
87	0xbc6c2f97	-0.014415643
88	0x3ccb5725	0.024821827
89	0xbc5f54ad	-0.013631028
90	0xbd200240	-0.039064646
91	0xbc9d8e94	-0.019233026
92	0x3b07e074	0.002073315
93	0xbcbd5d9f	-0.023115931
94	0xbc749923	-0.014929089
95	0xbb8b29ee	-0.004246942
96	0xbc48d462	-0.012257667
97	0xbb01d052	-0.0019808006
98	0xbd23e3ff	-0.040012356
99	0x3ca8f309	0.0206237
100	0xbca370ae	-0.01995119
101	0x3b5aa6a9	0.0033363497
102	0xbd17d9f1	-0.03707308
103	0xbc5c9be9	-0.013464906
104	0xbc1898d0	-0.009313777
105	0xbc1b385d	-0.009473887
106	0x3b52cdca	0.0032166117
107	0xbcec0d24	-0.02881486
108	0xbb72a338	-0.0037023555
109	0xbc1a6c60	-0.009425253
110	0x3cb86481	0.022508861
111	0x3cd8c2c5	0.02646006
112	0x3b2edfb5	0.0026683633
113	0x3d17ae4b	0.037031453
114	0x3cdb742e	0.026788797
115	0x3b9e28da	0.004826647
116	0x3c639417	0.013890288
117	0x3c97bf27	0.018523766
118	0xbd12d7ed	-0.035850454
119	0x3c751fee	0.014961226
120	0x3cdbaa98	0.026814744
121	0x3cbd45d0	0.023104578
122	0x3cad834e	0.021180775
123	0xbce7b6d4	-0.028285421
124	0x3c90ca70	0.017674655
125	0x3c6a5f12	0.014304893
126	0x3c973ebf	0.018462537
127	0xbd196123	-0.037446152

model.14.weight f4 [128]
0	0x3f790163	0.9726774
1	0x3f7e39a8	0.99306726
2	0x3f813a61	1.0095941
3	0x3f8345a2	1.0255625
4	0x3f7e6fec	0.9938953
5	0x3f7ef760	0.99596214
6	0x3f84c04f	1.0371188
7	0x3f79aac4	0.9752619
8	0x3f826586	1.0187232
9	0x3f793679	0.97348744
10	0x3f81da36	1.0144718
11	0x3f83ad54	1.028727
12	0x3f83f09f	1.0307807
13	0x3f80b734	1.0055909
14	0x3f7b9998	0.9828124
15	0x3f80423e	1.0020216
16	0x3f829e00	1.0204468
17	0x3f7ed471	0.9954291
18	0x3f7d587a	0.9896313
19	0x3f8366f5	1.0265795
20	0x3f7ae809	0.9801031
21	0x3f8322b6	1.0244968
22	0x3f7e3443	0.99298495
23	0x3f7952d7	0.9739203
24	0x3f85be46	1.0448692
25	0x3f81243f	1.0089186
26	0x3f837430	1.0269833
27	0x3f7b84a0	0.98249245
28	0x3f814c42	1.0101397
29	0x3f82dceb	1.0223669
30	0x3f812d9d	1.0092045
31	0x3f8042aa	1.0020344
32	0x3f8446e5	1.0334135
33	0x3f7f218b	0.9966056
34	0x3f7e1ad7	0.99259704
35	0x3f80c876	1.0061176
36	0x3f805139	1.0024787
37	0x3f7f37c5	0.9969447
38	0x3f804211	1.0020162
39	0x3f8130ad	1.009298
40	0x3f80003d	1.0000073
41	0x3f7ccbcd	0.98748475
42	0x3f7fd04b	0.99927205
43	0x3f81206b	1.0088018
44	0x3f842dfb	1.0326532
45	0x3f802634	1.0011659
46	0x3f844e8b	1.033647
47	0x3f8810f0	1.0630169
48	0x3f7e52a6	0.9934486
49	0x3f83e046	1.0302818
50	0x3f7b5672	0.9817878
51	0x3f79b834	0.97546697
52	0x3f7d5275	0.98953944
53	0x3f808fe7	1.0043916
54	0x3f7dd452	0.991521
55	0x3f81fe55	1.0155741
56	0x3f83e024	1.0302777
57	0x3f82eec5	1.0229117
58	0x3f82e62a	1.022649
59	0x3f8127dc	1.0090289
60	0x3f83c04a	1.0293057
61	0x3f7f3f1b	0.99705666
62	0x3f824e1a	1.0180085
63	0x3f80293c	1.0012584
64	0x3f7b3704	0.9813082
65	0x3f84f257	1.0386456
66	0x3f800454	1.0001321
67	0x3f802e3f	1.0014113
68	0x3f80a814	1.0051293
69	0x3f80ebb7	1.0071934
70	0x3f82418d	1.0176255
71	0x3f825c5d	1.0184437
72	0x3f7c58e1	0.9857312
73	0x3f856def	1.0424174
74	0x3f846d1e	1.03458
75	0x3f8216f9	1.0163261
76	0x3f7d84a8	0.9903054
77	0x3f78c6d2	0.97178376
78	0x3f7cb075	0.9870675
79	0x3f8558cb	1.0417722
80	0x3f7f3503	0.99690264
81	0x3f7de604	0.991791
82	0x3f7e5f33	0.9936401
83	0x3f8856b4	1.065146
84	0x3f81dce3	1.0145534
85	0x3f80ac12	1.0052512
86	0x3f8103f1	1.0079328
87	0x3f7ce414	0.9878552
88	0x3f7a7ee6	0.9784988
89	0x3f86142b	1.0474905
90	0x3f7e33cc	0.99297786
91	0x3f83be4e	1.0292451
92	0x3f80a695	1.0050837
93	0x3f7d6e48	0.989964
94	0x3f7ce933	0.98793334
95	0x3f7d8277	0.990272
96	0x3f81b083	1.0131992
97	0x3f8266f1	1.0187665
98	0x3f7e598b	0.9935538
99	0x3f8352ad	1.0259606
100	0x3f7f898a	0.9981924
101	0x3f820f12	1.0160849
102	0x3f811abf	1.0086287
103	0x3f801bed	1.0008522
104	0x3f82f35f	1.0230521
105	0x3f80b3e3	1.0054897
106	0x3f73c20b	0.9521796
107	0x3f837c78	1.027236
108	0x3f8335be	1.0250776
109	0x3f7fd6ac	0.9993694
110	0x3f803c67	1.0018433
111	0x3f80b913	1.005648
112	0x3f8499cf	1.0359439
113	0x3f82d695	1.0221735
114	0x3f839855	1.0280863
115	0x3f7dc659	0.9913078
116	0x3f80c229	1.0059253
117	0x3f843d9d	1.0331303
118	0x3f830e08	1.0238657
119	0x3f81cf1f	1.0141333
120	0x3f7f7b41	0.99797446
121	0x3f81728a	1.011308
122	0x3f811c1d	1.0086704
123	0x3f86a918	1.0520353
124	0x3f7fcac1	0.9991875
125	0x3f837b33	1.0271972
126	0x3f7cbe74	0.9872811
127	0x3f844843	1.0334553
