results/netD.pth (torch_old, 405197 bytes, 21 tensors)

model.0.weight f4 [16, 3, 3, 3]
00000000: 8f7a 083b b145 fdbc 8ec8 6cba 070b 39bd
00000010: d4eb e8bc fd2d b7bc 10f0 c6bc 2bc9 13bd
00000020: af48 4e3b 5e56 4b3d 85ca a73c 3e8d 45bc
00000030: c3cc 5a3d 935f 103b f5ec 673b be8e f03c
00000040: a481 0f3c 06a5 f5bb 6851 18bc b789 92bc
00000050: c4a7 8abc 5f1d 533c b415 19bd 1f40 10bd
00000060: 473f c6bc 93b6 09bd 7c6c 84bc 0e8d bd3a
00000070: 1017 59bc bdd4 28bc b0b6 c7bb 4c12 263b
00000080: b143 07bc 035f 0bbd 56ad 49bd b26a c03b
00000090: 60b2 12bd 4758 4ebc 2809 25bc 7697 1f3c
000000a0: 8f87 36bd ad46 083c 35fe abbc f0a0 21bc
000000b0: 1d83 4c3c 1434 8c3b 7d7c 46bd 267a 143d
000000c0: 13fa 16bd 0c0e e2bc 2525 ecbc 5caa 89bb
000000d0: 3f7f 87bc 7849 bf3b cd74 22bd b1e5 1d3c
000000e0: 756a c83c b875 cdbc 5170 99bc 8d74 c03b
000000f0: d645 56bd 4cb4 063a 5071 58bc 8d97 4abd
00000100: d589 523c e2c7 113d b00a 30bd a32d c1bc
00000110: 833a efbb a81e 50bd 5e09 943c 3acb 833c
00000120: 18e6 16bd 0eb8 6d3c aeaf ae3c 68ee 23bd
00000130: b79f 84bc 867c 07ba 1933 09bd a211 873c
00000140: 3744 9fbc 3e00 123d ef8e 7d3c e8ae 92bb
00000150: 4062 c23c 5370 8abb bf3a 843c 4a42 81bb
00000160: 70b5 1e3c cb70 e7bc 1db8 0ebc 8935 84bc
00000170: 68c7 173d 36c8 c0bc 875e 943c 200c 0cbc
00000180: d983 bdbb 7772 03bd 2361 b9bc 47ac 81bb
00000190: 38ad 1f3d d8c2 fc3c 8a27 4dbc c0e8 ef3c
000001a0: ea3a 2f3d de6b 16bc c62f c9bb 5014 343d
000001b0: 829e 103d af4e b23c 2e17 51bc b689 9abb
000001c0: 1662 bc3c 617f 98bc 5813 91bc fca5 6e3b
000001d0: 54e6 253c 3dff e5bb 329d 033d 6fca f5bb
000001e0: ad84 02bb 81d6 943c 550d aaba 182f 3dbc
000001f0: ea88 b1bc 9366 e7bc bd78 d0bb 658b c03c
00000200: 138b 003c 0d48 163d a2c7 f0bc d6fc 293d
00000210: 7fdc d2ba 0ceb 78bb 2a3d 1c3b b9d1 28bd
00000220: c9d3 e0bc 46b5 77bd a6a1 18bd 8e8e 89bc
00000230: 4ee7 d6bc cd73 bdbc d0f1 1abd cb4a 18bd
00000240: f5fb 8c3a 6ca0 c4bc 5fdf 2cbd d7f7 edbb
00000250: d2f2 4e3c 7905 f3bc 3c45 09bd f82b babb
00000260: 9bca 8ebc 53c9 29bc 89ee c73c a1da 703c
00000270: e4be 4dba 0fb4 57bc f25d 77bc 11dc 27bc
00000280: 6969 be3b 6279 e3bc 1f9f 193d a214 913d
00000290: 05aa 043d 362e 603d d2ca 893d 1930 a63d
000002a0: 2ba8 d43c 5087 16bd b36e e93b c78c ee3b
000002b0: 8f9a 88bc 4a7f 05bc 11e8 5cbc 3190 41bc
000002c0: 0ff8 95bc 2f43 a1bc 686c 55bb 1ada 283d
000002d0: d13e 2ebd 324c ffbc eefb 17bd a55f 05bd
000002e0: 0c19 9cbd 73e4 08bd eb5a 0abd aed9 9f3c
000002f0: d853 2fbd 4111 c4bc a46c 103c 25b3 c5bc
00000300: 8eba 6d3c 5bc0 c2ba d168 873c 95de 903d
00000310: edbd 0b3d cee8 c23c f770 eb3c aac1 ddbb
00000320: 58e6 073d 123b 3abb f9d0 0a3b f8af a03b
00000330: e71d 0a3d db3f 0e3b cfec 113d 0a07 80bc
00000340: da03 403c 1cda 25bd 4eff 0e3c 87f9 2d3d
00000350: 924d 0a3d 314f 7fbb 66bc c73c 77e8 0a3b
00000360: f624 45ba a986 3a3d 1b35 303c ad18 e03c
00000370: 6ce0 003d 8a91 f83c 08e7 833c a1c4 893c
00000380: 5afa d7bc cbb8 1e3d 8c5e 6f3c c23b 283c
00000390: a74e 0e3d a703 fb3a 1c99 9a3b c47d de3c
000003a0: 4734 6e3c afd2 d1bc 7ea5 873d b95c b2bb
000003b0: 9195 7cbc e09c a1bb 9e4e 873b f93c 2dbb
000003c0: e97b e8bc a9ba c7bc 42e8 c8bc 3312 e13b
000003d0: 8e42 c8bb f81e b43c 7919 cb3c 815d e03c
000003e0: d0cc 8d3b 6046 b83c 5c10 d73b 415b 9b3a
000003f0: d371 f2bb 44b6 8fbb 9205 e8b9 bbcc bb3c
0.0020825004 -0.03091702 -0.00090325705 -0.045176532 -0.028432764 -0.022360796 -0.024284393 -0.03608052
0.0031476428 0.049642913 0.020482311 -0.012057601 0.053417932 0.0022029623 0.003538904 0.02936494
0.008758936 -0.007496479 -0.0092967525 -0.017887933 -0.0169257 0.012885421 -0.037374213 -0.0352174
-0.024200095 -0.033621382 -0.01616501 0.0014461593 -0.013250127 -0.010304627 -0.006094776 0.0025340496
-0.008255885 -0.034026157 -0.04923757 0.005872094 -0.035814643 -0.012594289 -0.010072984 0.009740701
-0.044562872 0.008317632 -0.020995239 -0.009865031 0.012482432 0.004278669 -0.048458565 0.036249302
-0.036859583 -0.027594589 -0.028826306 -0.0042012166 -0.016540168 0.0058376156 -0.03966217 0.009637282
0.024464825 -0.025080547 -0.018730314 0.005873269 -0.052312694 0.00051385607 -0.01321061 -0.049460936
0.0128502445 0.035591014 -0.042978942 -0.023581332 -0.0073006763 -0.050810486 0.018070873 0.016088117
-0.03684053 0.014509214 0.021324005 -0.040022284 -0.01618944 -0.0005168397 -0.033495996 0.0164879
-0.019441707 0.035644762 0.015475973 -0.004476417 0.02372849 -0.004224816 0.016141294 -0.00394467
0.009686813 -0.028252026 -0.008710888 -0.016138809 0.037055403 -0.023532968 0.01811148 -0.008547813
-0.0057835397 -0.032091584 -0.022629326 -0.0039573046 0.038983554 0.030854627 -0.012521634 0.029285789
0.042780794 -0.009180991 -0.0061397282 0.043964684 0.035307415 0.021766035 -0.012761874 -0.0047161235
0.02299599 -0.018615426 -0.01770942 0.0036414852 0.010125715 -0.007018952 0.032132335 -0.0075009386
-0.0019915507 0.01816869 -0.0012973944 -0.011546873 -0.021671731 -0.028247153 -0.0063620494 0.023503968
0.007845658 0.036689807 -0.029392067 0.04150089 -0.0016087441 -0.0037981896 0.0023840168 -0.041215632
-0.027444737 -0.06047561 -0.037263535 -0.016791608 -0.026233342 -0.023126507 -0.037828267 -0.037180703
0.0010756241 -0.024002276 -0.04220521 -0.007262211 0.012631135 -0.029665696 -0.033513293 -0.005681511
-0.017430594 -0.010362941 0.024405735 0.014700563 -0.00078485743 -0.013165488 -0.015098082 -0.010245339
0.0058109057 -0.02776784 0.037505265 0.070840135 0.032388706 0.05473157 0.06728138 0.08114643
0.025959095 -0.036750138 0.007123792 0.0072799656 -0.016675262 -0.008148024 -0.013483063 -0.011814163
-0.01830676 -0.019685356 -0.0032565836 0.041223623 -0.042540375 -0.031164262 -0.037105493 -0.032561917
-0.07621965 -0.03342099 -0.033778112 0.019512977 -0.04280457 -0.023934009 0.008814964 -0.024133274
0.01450981 -0.0014858352 0.016529473 0.07073704 0.034116674 0.02379265 0.02874039 -0.0067674713
0.033178657 -0.0028416556 0.0021181686 0.0049037896 0.033719923 0.0021705541 0.03562623 -0.015628356
0.011719668 -0.04049121 0.008727862 0.042474296 0.033765383 -0.0038957114 0.024381828 0.0021195689
-0.0007520461 0.04553858 0.010754849 0.027355516 0.031464025 0.030342836 0.016101375 0.016817393
-0.026364494 0.03875045 0.014609944 0.010268154 0.034742977 0.0019150869 0.004717959 0.02715958
0.014538831 -0.025613157 0.06623362 -0.0054431823 -0.015416519 -0.004932031 0.004129245 -0.0026434048
-0.028379397 -0.024380999 -0.024524812 0.0068686246 -0.0061114496 0.021987423 0.02479242 0.027388336
0.004327394 0.022494495 0.0065632295 0.0011852757 -0.007398823 -0.0043857414 -0.00044254638 0.022924772

model.0.bias f4 [16]
00000000: 2fbc 18bd ac20 48bd d417 3c3d 8f25 f7bd
00000010: 575f b13c c1e7 febd 538a e7bd 82e3 36be
00000020: 4c34 99bd 4ea6 48be cb07 f6bc b10a 8a3d
00000030: fc9f b23d 034a f7bb 0105 eebd 8a00 31be
-0.03728884 -0.048859283 0.04592116 -0.120677106 0.021651907 -0.12446547 -0.1130568 -0.17860225
-0.07480678 -0.1959469 -0.030033013 0.067403205 0.08721921 -0.0075466647 -0.11622048 -0.17285362

model.3.weight f4 [32, 16, 3, 3]
00000000: 875a 643d 8e83 d13b 99b8 133c 794a be3c
00000010: 5ebb a93b 4e9f 83bc 55d7 6c3c b6f1 fd3c
00000020: d676 923c c1e9 003d 6828 1fbc 1925 f2bc
00000030: 55d7 ecbc c127 14bd 491a eebc 04ad c7bc
00000040: a20d 71bc eaa1 0bbd d7f8 69bc c401 dc3b
00000050: 60e5 2dbd ba16 683c b604 663b 2e2e fabc
00000060: a5c2 c6bc ac40 9cbc 0c61 2c3a 2c20 123b
00000070: 85ef ed3c 1c0b e83b 5647 56bd 908b 6cbc
00000080: 1d2d ecbc 4bc4 d4bb 91f1 1cbc a55c cbbb
00000090: 508f 91bc c468 8b3c a5d7 903b 5840 27bc
000000a0: 9e9d 373d dc0a 813c 0617 eebb 1594 0e3d
000000b0: e672 8cb9 e7d1 e83b 269e 633b 02a1 003d
000000c0: f5e9 c33c 2c63 3fbc f3cf 033c 0ce1 053b
000000d0: 94ef bd3c 8db3 be3c 0c24 9bbc 5af4 a0bc
000000e0: a53a 9dbc d642 27bd e527 c0bc 1742 d2bc
000000f0: c55f be3c fbda 733c e891 d937 bbb9 1d3d
00000100: 3975 b4bb 7bef 02bd ab07 febc e242 c03b
00000110: bea8 67bc 3c8b 413d 21f3 0c3d 9bf3 2b3c
00000120: c99a 803b e11b a5bc 8e51 11bd 0d1f 15bd
00000130: bc7d 00bd 5871 45bc 555d dabc cad7 643b
00000140: 5bfe acbb 0bee 133b 9b6d 2ebb 7357 23bd
00000150: a8a4 0fbc ead3 83bc 22e6 8b3b dea0 a6bc
00000160: ec03 7c3c 05dc 63bc ffe6 943a 94fa 18bc
00000170: 14e7 b03c 6fd0 4c3c 083d acbc a3fe 05bd
00000180: 68ea d93c bfca 3e3c b8cd ee3a 94f9 aa3c
00000190: e445 c53c ce9d 5c3c e053 123d 7a66 e53c
000001a0: 3122 b93c f23b 573d 41eb 063d e305 083d
000001b0: 6367 043d 2da3 a73b 5db9 a63b c7fe 563c
000001c0: 0f65 723c ec90 bc3b 036e b5bb a825 41bc
000001d0: 02cf 893c 447d cb3c ddd3 18bc e851 f63c
000001e0: 4380 833c e69f 463d 4a7f 053c 610c 893c
000001f0: 70cd 803d 73f3 793d 91e2 c53b 181c a23c
00000200: 8b70 ff3b bc60 6e3d bae3 513c e05c cdbc
00000210: ac14 6a3d 8a1f 8b3c d934 363c 2056 eb3c
00000220: 8ebc cb3b 780f 77bc 9d06 c23c 4d1b 2ebc
00000230: e684 ebbc 2257 dc3b 1b21 ac3c 8f15 88bb
00000240: e1b3 61bc 4814 dc3c b4c1 753c 6d93 6a3d
00000250: cb45 fa3c e945 5abc d9cf b83c 86a1 0a3d
00000260: 55b2 7d3c 6db9 85bc b3f6 81bb 90fc 713c
00000270: 09b0 31ba 82c2 bebc 500b 773d e7b7 22bd
00000280: d46e 8a3c 40a5 243d 95b1 e93c c83f 193d
00000290: ab55 3f3d 986b 893c 7544 f03c 5605 f33c
000002a0: 15d2 433d 573f 03bb 581e 86bc d736 2fbd
000002b0: 3a12 35bc cde9 71bc 7b8b b8bc d14a e0bc
000002c0: ddf8 f8bc 7d91 18bc 15cd 18bb db44 1ebd
000002d0: 071a fdbc bee0 91bc a94f c9bb c4fc 95bc
000002e0: 49b5 1e3c b8b2 bfbb 5e34 e3bb 78fe 0c3d
000002f0: 91d0 733c b256 64bd d1d7 18bc 77ce f2bc
00000300: eedb c3bb 012d e7bc e4af e8bc 5511 463c
00000310: b1b5 3dbd 73bd 6abd 49e5 dbbb 7c09 72bd
00000320: 4112 8ebc 5a35 f2bc bdf8 44bd 4d07 03bd
00000330: 1440 3abd 1408 f5bc b677 e8bc 4f3c 173d
00000340: 671a 95bc 5078 07bb ff7c 823c 915b 89bb
00000350: 3a46 b2bc 0959 c83c 4aa5 c73c 0b75 253c
00000360: 7c8c 92bc acac 813b 7774 11bc 2adc d1bb
00000370: 3d1b 4a3c e780 f13b fa68 e43b c20c f33c
00000380: 5406 903c c5f4 d7bc 4f3a 41bd f8b7 48bc
00000390: c53c 18bd a8ec a1bc a63b 59bd ac08 1cbd
000003a0: 4975 a9bc 9cf6 753c cf2e 533d 565b 543d
000003b0: 0b29 ed3c 1f15 393d 7544 823d 1893 26bb
000003c0: 2dfb bc3c f0ca 773c fb9e 603b c6fd 19bc
000003d0: 9210 683c a913 893c 6f8d 23bd 5066 193c
000003e0: 4ce1 61bc 156f 37bb 052a 2e3d 9985 0f3d
000003f0: 455c b63c 36f0 6e3c 6f70 f4bb e616 ef3c
0.055750396 0.0063938564 0.0090161795 0.02322887 0.0051798066 -0.016067173 0.014455636 0.030999046
0.017878931 0.031472925 -0.009714223 -0.029558705 -0.028911272 -0.036170725 -0.029065268 -0.024374492
-0.014712723 -0.03408996 -0.014280519 0.0067140777 -0.042455077 0.014165575 0.0035098023 -0.030539598
-0.024262736 -0.019073807 0.00065757404 0.0022297008 0.029044876 0.0070814025 -0.052314125 -0.014437571
-0.028830105 -0.0064931265 -0.009579078 -0.0062061124 -0.017768532 0.01701773 0.004420238 -0.010208212
0.04482805 0.015752248 -0.007265928 0.03480919 -0.00026788487 0.0071051004 0.0034731715 0.03140355
0.02391527 -0.011681359 0.008045184 0.0020428328 0.023185529 0.023278976 -0.018938087 -0.019647766
-0.019193003 -0.040835224 -0.023456523 -0.02566628 0.023239026 0.014883752 2.5936359e-05 0.038507205
-0.005507138 -0.031966668 -0.031009516 0.005867348 -0.014139352 0.047251925 0.034411553 0.010495092
0.003924702 -0.020154895 -0.035478167 -0.036406565 -0.03136991 -0.012050949 -0.026655832 0.003491866
-0.005279345 0.0022572305 -0.0026615623 -0.03987832 -0.008767284 -0.01609226 0.0042693773 -0.02034038
0.015381794 -0.013907437 0.0011360346 -0.009337086 0.021594562 0.012500866 -0.021025196 -0.032713544
0.026601031 0.011645018 0.0018219268 0.020870961 0.024081178 0.013465358 0.03572452 0.028002966
0.022599312 0.052547403 0.0329392 0.03320874 0.03232516 0.0051158876 0.005088015 0.013122267
0.014794602 0.0057545807 -0.005536796 -0.011788763 0.016822342 0.024840005 -0.009327856 0.030068353
0.01605237 0.048492335 0.008148024 0.016729536 0.06289184 0.061023187 0.0060389717 0.019788787
0.0077953986 0.05819772 0.012810642 -0.0250687 0.05714862 0.016982812 0.011120998 0.028727591
0.006217546 -0.015079372 0.023684794 -0.010626626 -0.028749894 0.006724254 0.02101188 -0.0041529606
-0.013775797 0.02686514 0.014999796 0.057269502 0.030550858 -0.013322332 0.022560047 0.033845447
0.015484412 -0.01632377 -0.0039661764 0.014769688 -0.00067782454 -0.023286108 0.060313523 -0.039726164
0.01689855 0.040196657 0.02852706 0.037414342 0.04671256 0.016774938 0.029329518 0.02966563
0.04780777 -0.0020026767 -0.01637189 -0.04277691 -0.011051709 -0.014765215 -0.022527447 -0.027379425
-0.030392105 -0.009312031 -0.0023315598 -0.038639884 -0.0308962 -0.01780736 -0.0061435294 -0.018309005
0.009686776 -0.0058501624 -0.006933733 0.034422368 0.014881269 -0.05574674 -0.009328798 -0.029639466
-0.0059771454 -0.028219702 -0.028404184 0.012089093 -0.046315853 -0.05730958 -0.0067106825 -0.059091076
-0.017342689 -0.029566456 -0.048088778 -0.031989384 -0.045471266 -0.029911079 -0.028377395 0.03692275
-0.018201066 -0.0020671077 0.015928743 -0.004191824 -0.021762002 0.024456518 0.024370808 0.010098706
-0.017889254 0.0039573517 -0.008877865 -0.0064044194 0.012335596 0.0073701027 0.006970522 0.02966917
0.017581142 -0.026361832 -0.047174748 -0.012250893 -0.03716733 -0.019766167 -0.0530354 -0.038094208
-0.020685809 0.01501241 0.051558312 0.051844917 0.028950235 0.04518616 0.063607134 -0.0025417265
0.023068989 0.015124068 0.0034274447 -0.009398883 0.014164107 0.016733008 -0.039929803 0.009362772
-0.013786625 -0.0027989794 0.04252054 0.035039518 0.022260794 0.014583638 -0.007459692 0.029185724

model.3.bias f4 [32]
00000000: cb99 903c 4d71 2bbc 77e0 513d b8b7 a3bb
00000010: f4a3 30bc f284 7abd 07a1 693d 0715 22bd
00000020: fb8c 833c 7171 1c3d f4dd 8abd 34a8 313d
00000030: 75a1 60bd 8acf 063d 00ec 043d faeb 8d3d
00000040: 9994 703d 2971 343d eaab 3fbc f579 69bd
00000050: a343 8ebd 70c8 2fbd fb57 2abd d946 51bd
00000060: ff2e 2abd 19f4 873c b8d9 f3bc 4bf1 3bbd
00000070: 8ffe 96bd 4a39 2dbc 5e1e c43c e7b7 3b3d
0.01765146 -0.010464025 0.051239457 -0.004996266 -0.010781277 -0.061161943 0.057038333 -0.039570834
0.016058436 0.038194124 -0.067806154 0.0433733 -0.054841477 0.03291277 0.03245163 0.069297746
0.058735464 0.04405323 -0.011698702 -0.057001073 -0.069464944 -0.04291576 -0.04158781 -0.051092956
-0.041548725 0.016595887 -0.029766902 -0.04588441 -0.07372772 -0.010572741 0.023940261 0.04582968

model.6.weight f4 [32]
00000000: 570b 853f 9f09 823f 932a 813f 15e3 813f
00000010: 7cd3 823f 0789 823f e33a 813f 18d3 833f
00000020: 15a5 7a3f 11a5 833f 52dd 853f 0121 793f
00000030: 8314 833f b169 833f 0336 843f 60ad 803f
00000040: 59a9 883f e327 813f ec61 863f 1009 853f
00000050: 7548 843f c35b 813f ea00 853f f76e 873f
00000060: 824f 813f b6ad 843f afb5 8a3f 0acd 823f
00000070: 302d 853f 831c 843f ce8d 7f3f 23a1 873f
1.0394086 1.0159186 1.0091118 1.0147425 1.022079 1.0198067 1.0096096 1.0298796
0.97908145 1.0284749 1.0458167 0.97315985 1.0240635 1.026663 1.0328983 1.005291
1.0676681 1.0090297 1.0498633 1.0393391 1.0334612 1.0106128 1.0390904 1.0580739
1.0102389 1.0365512 1.0836695 1.0218823 1.0404415 1.0321201 0.9982575 1.059605

model.6.bias f4 [32]
00000000: 5998 11bc 2c73 bcbb d86c 633a cbee 083b
00000010: 826f 3a3b a59a aa3c a5a7 98ba 9bc5 01bb
00000020: 16ab 283c 89dc 78bc b16f d93b 0d79 56bc
00000030: 2958 1abc 5670 f43c a608 9cbc 98f1 95bb
00000040: 106b 9ebc e29f 29bc b969 143c 2791 4f3c
00000050: e7fb d9bb b727 61bc 028d 11bb 1849 343c
00000060: cfe3 7bbc 87cf b4bc 584a e03b bd75 c9bb
00000070: 392f b1bb 79c9 1b3c bf23 8eba 5d08 623b
-0.00888642 -0.0057510342 0.0008675582 0.0020894285 0.0028447811 0.020825693 -0.0011646642 -0.001980162
0.010294696 -0.015189298 0.006635629 -0.013090384 -0.009420433 0.029838722 -0.019047093 -0.0045759194
-0.01933816 -0.01035306 0.009058409 0.012668884 -0.0066523436 -0.013742379 -0.0022209291 0.011003755
-0.015374138 -0.022071613 0.0068448 -0.0061480687 -0.0054072407 0.009508484 -0.0010844393 0.0034489848

model.6.running_mean f4 [32]
00000000: 3e91 4e3d 83a5 b63c 664e 313d 32eb 223d
00000010: d63b 19b9 932c bfbc be22 6b3d 1fc1 8dbc
00000020: b6b9 e53c f290 183d 000e 6cbc d535 a83c
00000030: 2e5b fa3b 08cf e93c 308d 923c 170c 2c3d
00000040: c85b a63d a897 773c f805 e438 0084 71bb
00000050: 99f1 42bc 292a 23bc 4067 35bb 8b85 c2bb
00000060: 358c 883c 2d26 58bb 3cb3 4d3c 9b0d 73bb
00000070: df99 12bc 2869 0f3c adad d93c 6851 2a3d
0.050431482 0.022295719 0.043287657 0.03977508 -0.00014613508 -0.023336684 0.05740618 -0.017304001
0.028042655 0.037247606 -0.014407635 0.020533482 0.007640264 0.028541103 0.01788959 0.042003717
0.08122975 0.015111841 0.00010872999 -0.003685236 -0.011898422 -0.009958782 -0.002767995 -0.0059363297
0.016668418 -0.003298174 0.01255494 -0.0037086967 -0.008947819 0.008753099 0.026572073 0.04158154

model.6.running_var f4 [32]
00000000: 9292 013b efb1 073b ed92 9e3a b59c 033b
00000010: 2e9b 9939 54b7 453b 745c f23a 226c bf39
00000020: 76ef 803a 18b3 e03a b10b 5539 7613 d43a
00000030: 5c31 ad3a 28bb 073b 5703 b23a 61f0 f33a
00000040: 1d88 8d3b b629 823a dc7c 8f3a c7ed 7739
00000050: d371 6d39 ae59 4139 8c15 7639 7d8e bd39
00000060: 8ee0 813a 654b f539 607e 743a fa15 f939
00000070: eeb4 4b3b d176 603a 3232 053b bf9b 2b3b
0.00197712 0.0020705422 0.0012098231 0.0020082418 0.00029298052 0.0030169087 0.0018490688 0.00036510924
0.000983699 0.0017143218 0.00020317618 0.0016180116 0.0013213563 0.002071092 0.0013581318 0.0018611067
0.0043192045 0.0009930644 0.0010947245 0.00023644335 0.00022644484 0.00018439323 0.00023468415 0.0003615505
0.0009908841 0.00046786215 0.00093266927 0.00047509355 0.0031083184 0.0008562627 0.0020324108 0.0026185361

model.7.weight f4 [64, 32, 3, 3]
00000000: 8155 2b3b f55b f6bb fb66 423c f0a0 f63b
00000010: 6be1 d1bb 8a82 5f3c 7a19 6b3a 0074 9e3c
00000020: 8c21 03bd e204 13bd f4d6 02bd 7d85 3ebd
00000030: 80d5 bfbc 36cf cebc 833a 1c3d d153 64bb
00000040: 5458 8cbc f930 713c 5328 873c 1652 0f3d
00000050: 9b0b dc3c a4ab 6f3c 025c b53b 36ea 1f3c
00000060: d942 913d f8a6 3d3d 54c7 cf3c bcc6 323c
00000070: 4ab1 29bc 399a 993c 0c98 96bc 1575 15bd
00000080: fd49 ee3c cdae 123c 70b3 453c b6fd 543c
00000090: ce10 cd3c 579d 1c3d 34fd a33c 84ce 0b3c
000000a0: 571d babc 8047 fe3c 5b5f 2bbb 3fbe d73c
000000b0: f857 1e3d ddc2 dbbc 40ca 5cbb 5da5 ffbc
000000c0: 0887 9ebc 6588 243d 0e38 de3c 57d7 0fbd
000000d0: 0545 a13c 6ede 81bb 8023 443b 25cc 993c
000000e0: 4497 8a3c 0e4d bcbc 102d d4bc d187 cfbc
000000f0: e45b 92bb 17a6 64bd a380 26bd 5a82 003d
00000100: fa71 9e3c f7f7 883a 9dee e53c ae28 86bc
00000110: 0bee 433c 53da 0c3c 1d1e 88bb 179c ae3c
00000120: 26bc 373c 6300 81bc 3666 07bc 54c8 c0bc
00000130: 96bd a8bb 5324 8c3c a0c0 1c3d dd73 193d
00000140: 88f2 173d 3324 d339 63a2 1abd cfdd 863b
00000150: d9e7 9e3c 5140 523d 9ed1 193d cdef 473c
00000160: a432 96bc 673f 953c c95c 2d3d 90ca 713d
00000170: 59f5 c73c b615 1dbb e405 04bd a4db 8ebd
00000180: 3b29 e53c 9b6f c23c 2661 d83b 9b59 04bc
00000190: 352d 54bc 1e88 39bc ca92 e33c ce4e 903c
000001a0: 200b 323d 9cdf a2bc 75b8 7cbc 5eb0 9cba
000001b0: 3762 fb3b 34b9 0abd c8c9 32bd e91b 05bd
000001c0: 4075 5ebc 0c61 37bd 5168 d73b ee64 a33c
000001d0: 5997 953b a262 1a3c 6659 ac3c 2a85 48bc
000001e0: f5ad 2e3d c153 db39 e45a d73c b0a3 a3bb
000001f0: 0890 f5bb 9208 9a3c 2a0d 90bd 6727 883d
00000200: 5939 c43c 5416 08bc ae0d b43a c024 d6bb
00000210: 4d10 8a3d 88e2 433c 1ee3 173d 6400 3a3c
00000220: c862 a63c 1d27 78bb 9b8d 203c 1b2b 3f3b
00000230: 9e18 f6bc 5fdc a23c c0dc 1bbc 6feb 51bc
00000240: a826 cbba 18b2 b23b 8d76 f43c 1d3c f7bc
00000250: 697f 0e3d 6050 a4b8 720f 023b ae1c 553d
00000260: d937 5c3a 725c 37bc f26a 08bd 350b 0ebc
00000270: 1a3e 8b3c 0cd8 183d 0264 303d 8b4c b83c
00000280: 5cdb 403d de55 363c a96b 093d 2358 5cbc
00000290: 9cec 49bc aa1c b23c 588f 023c e562 813c
000002a0: 4a98 3d3c 1002 71bb fa32 bd3c 6713 c5bc
000002b0: aad2 5e3a 90d7 3f3c 691f 1cbd 9ce4 55bc
000002c0: 93f6 8cbc 189f 55bc dfab a8bc 5ff3 97bc
000002d0: 02a7 133c ea62 3a3d 4242 a53c a586 12bd
000002e0: b3cc fe3a f3c2 b13c dbc8 86bc 359b e1bb
000002f0: 3d63 e5bb 8f59 d7bc ce0c 793b 859c 7f3c
00000300: 9171 fd3b d133 d63c 4fd7 0d3d 69ae 0c3d
00000310: 4255 303d 2245 f93b 4419 26bc c872 193d
00000320: 43bf 1c3d 875b 2f3c 1731 073b 8122 873c
00000330: d244 b33b 2e42 c8bc 3dbf 893c c3b0 37bb
00000340: fef6 f23b 5f9d 4abd 8709 09bd 001f 07bd
00000350: 6c9d babb ee65 a9bc 81d7 53bd 759c 95bc
00000360: f894 7cbd 2d81 45bd 446d 85bd 6980 e7bc
00000370: 943b f7bc 4a10 063c ef0d a4bc 9260 06bd
00000380: 6cc3 d5bc f22a 14bd 23e5 3b39 f65d deb9
00000390: 1da8 09bd fead 55ba 66b4 123d 4079 8bbc
000003a0: c164 dcbb 784b e83c bd10 13bd 79fb 353d
000003b0: 4393 57bc da14 25bd 54e0 0d3c 6b14 953b
000003c0: 3758 06bd ad3d 8bbc 44cc a0bc aca8 6fbc
000003d0: 20df 113c 0de1 2dbc 41bd 93bc 5102 ecbc
000003e0: 124a 393d fce1 253d b691 933b 2d38 043c
000003f0: f139 b9bd a4ce 9dbb 55c3 8fbd 709b 4abd
0.0026143494 -0.0075182864 0.011865373 0.0075265095 -0.0064050457 0.013641963 0.0008968335 0.019342422
-0.032014415 -0.03589333 -0.031943277 -0.046514023 -0.023417234 -0.02524529 0.03814174 -0.0034839998
-0.017131962 0.014721149 0.01649872 0.034990393 0.026861003 0.014628325 0.00553465 0.00976043
0.07092828 0.046301812 0.025363602 0.01091164 -0.01035721 0.018750297 -0.018383048 -0.03648861
0.029088015 0.008952809 0.012066707 0.0129999425 0.025032427 0.03823599 0.020018198 0.008533124
-0.022719068 0.031039953 -0.0026149366 0.026335834 0.038658112 -0.026826316 -0.0033689886 -0.031206781
-0.019351497 0.04016914 0.027126338 -0.035117473 0.019686231 -0.0039632833 0.0029928386 0.018774102
0.016917832 -0.022985961 -0.025900394 -0.025333317 -0.0044665206 -0.055822458 -0.04065002 0.031374313
0.019341458 0.0010449876 0.028067881 -0.01637682 0.011958609 0.008596974 -0.0041539804 0.021314664
0.011214292 -0.015747255 -0.008264115 -0.023533024 -0.0051495535 0.017107164 0.03826964 0.03746401
0.03709653 0.00040272027 -0.03775252 0.004115797 0.019397663 0.05133087 0.037553422 0.012203169
-0.018334694 0.01821871 0.042324815 0.05903107 0.024408983 -0.002396924 -0.03223218 -0.06975487
0.027973762 0.023734858 0.006603378 -0.008078004 -0.012950231 -0.011323957 0.027779955 0.017615702
0.04346764 -0.019882016 -0.015424837 -0.0011954417 0.00767162 -0.03386803 -0.043649465 -0.03249732
-0.013577759 -0.044770285 0.006573715 0.019945588 0.004565161 0.00942293 0.021038722 -0.01223878
0.042646367 0.00041833337 0.026288457 -0.0049938783 -0.0074939765 0.018802915 -0.07033761 0.066481404
0.023953127 -0.008306105 0.0013736987 -0.0065351427 0.067413904 0.011955865 0.03708183 0.011352632
0.020310774 -0.003786511 0.009799386 0.002916998 -0.030041035 0.019880472 -0.00951308 -0.012812479
-0.0015499191 0.0054533593 0.029841686 -0.030180031 0.034789477 -7.8351004e-05 0.0019845632 0.052029304
0.0008400656 -0.011191474 -0.033305116 -0.008669664 0.016997386 0.037315413 0.043064125 0.022497436
0.047084197 0.011128871 0.03354994 -0.013448748 -0.0123244785 0.021742184 0.007968746 0.015794227
0.011571953 -0.003677491 0.023095597 -0.024057103 0.00085000193 0.011709109 -0.038115893 -0.013054993
-0.01720742 -0.013038419 -0.020589767 -0.018548666 0.009011986 0.045504488 0.020173196 -0.03577294
0.0019439667 0.021699404 -0.016453197 -0.006884957 -0.0070003555 -0.026287822 0.0038002017 0.015601282
0.0077344854 0.026147755 0.034629162 0.034346018 0.04305006 0.007607118 -0.01013786 0.03746298
0.03826834 0.010702974 0.0020628625 0.016495945 0.0054708505 -0.02444562 0.016814822 -0.0028028942
0.0074146977 -0.049466487 -0.03345635 -0.03298855 -0.0056950357 -0.020678487 -0.051719192 -0.018263081
-0.061665505 -0.048218895 -0.065149814 -0.028259473 -0.030179776 0.008182595 -0.020026175 -0.03280694
-0.026094161 -0.03617377 0.0001791907 -0.00042413146 -0.03360759 -0.0008151232 0.035816573 -0.01702559
-0.006725878 0.028356299 -0.035904635 0.044429276 -0.0131576685 -0.04030309 0.008659441 0.004549553
-0.032798972 -0.016997183 -0.019628651 -0.014627617 0.008903295 -0.010612738 -0.01803458 -0.028809698
0.045236655 0.04049872 0.004503454 0.008070034 -0.090442546 -0.0048158932 -0.070196785 -0.049464643

model.7.bias f4 [64]
00000000: 5f2e 26bd 6bd9 12bc e2b1 e83a f225 1ebd
00000010: 14ef cc3b 71d6 03bb 0ec4 d13c aba9 17bc
00000020: ea6e c03c c3f4 863b 883e 0dbd 0e4a ccbc
00000030: 88f2 1fbd cb3f 19bc f48a 8f39 e059 173d
00000040: 323e 0abd fd0a a63c 667e 16bb 749a ebbb
00000050: d5b1 75bc 6b20 833c 0e0d 30bd aa02 213d
00000060: 9d91 96bc 4573 c4bc d838 3a3d 632c fe3c
00000070: 6748 bdbc 2fbc ad3c f136 3e3d 7c1e 173d
00000080: 342d 423d 3867 8bbc 9e87 a03c ea8a cdbc
00000090: c974 d53c 2c89 04bd 36d3 8ebc d719 213d
000000a0: 0f66 3ebd b843 fc39 ae25 f33a 6fac fe3c
000000b0: e44d 25bc 5c98 aabc 179a 00bd 2d24 9b3b
000000c0: b621 9a3c 35fd 3e3c 2cb3 23bd 2b15 413b
000000d0: fa21 2abd bca0 cd3c 9d14 443c b236 813c
000000e0: 4736 acbc 17b5 913c 8a57 c63b 8d04 0bbd
000000f0: af1f ed3a 2e63 96bc dfa3 d13c a630 e2b8
-0.040571567 -0.008962969 0.0017753209 -0.038610406 0.0062540863 -0.002011683 0.025606181 -0.009256761
0.023490388 0.0041185333 -0.034483463 -0.024937656 -0.039049655 -0.009353588 0.00027378614 0.036950946
-0.03375072 0.020268911 -0.0022963523 -0.007190043 -0.014996012 0.016006669 -0.0429812 0.03930918
-0.01837998 -0.023980746 0.045464367 0.031027025 -0.023105813 0.021207897 0.046439115 0.036894307
0.04740639 -0.017016992 0.019595917 -0.025090653 0.026056664 -0.03235738 -0.017434698 0.039331283
-0.04648405 0.0004811564 0.0018550658 0.031088082 -0.010089371 -0.020824604 -0.03139695 0.004734537
0.018814903 0.011657049 -0.039965793 0.002946208 -0.04153631 0.025101058 0.011967805 0.015773151
-0.021021975 0.017786546 0.006052916 -0.033939887 0.0018091107 -0.01835784 0.025590835 -0.00010785581

model.10.weight f4 [64]
00000000: 4ea8 7d3f e98e 883f a977 7e3f 8232 833f
00000010: 2c67 883f 7d42 833f 5b1f 843f 32c1 843f
00000020: 07a9 843f 9e1a 833f 6361 853f 741c 883f
00000030: 1eca 813f 2129 863f 648f 823f d987 833f
00000040: f15e 813f 51de 823f 7132 803f b334 7e3f
00000050: 0fc0 803f 4a6b 7f3f a541 833f a834 753f
00000060: 8a97 813f 7150 803f 102e 823f 5135 7f3f
00000070: cf07 833f 31fc 7e3f 3fb6 803f 9a23 783f
00000080: e432 833f 463e 7f3f be58 813f 797d 823f
00000090: 0061 7c3f 9597 7f3f 4321 833f 3779 803f
000000a0: 2ac5 803f 2655 813f 6bb3 843f 0c4f 833f
000000b0: 38fc 853f 0806 853f 6522 853f 05b8 823f
000000c0: 59c7 823f 5ad2 813f df4e 833f c0ba 823f
000000d0: 4f90 873f d2f0 7f3f 0057 803f 50ef 7c3f
000000e0: 2933 873f 9e86 843f 9f1e 843f e296 833f
000000f0: 92ea 803f 47c8 803f b61d 823f 55b9 7d3f
0.9908494 1.0668613 0.99401337 1.0249789 1.0656486 1.0254666 1.0322069 1.0371459
1.0364083 1.0242498 1.0420345 1.0633683 1.0139806 1.0481302 1.0200009 1.0275832
1.0107099 1.0224096 1.0015393 0.9929916 1.0058612 0.99773085 1.0254408 0.9578347
1.0124371 1.0024549 1.0170307 0.9969073 1.0236758 0.99603564 1.0055617 0.96929324
1.0249906 0.99704397 1.0105207 1.0194541 0.9858551 0.9984067 1.0244526 1.0036992
1.006017 1.010411 1.0367254 1.0258498 1.0467596 1.0392466 1.0401121 1.0212408
1.0217086 1.0142319 1.0258445 1.0213242 1.0590914 0.9997684 1.002655 0.9880266
1.0562488 1.0353582 1.0321845 1.0280421 1.0071585 1.006112 1.0165317 0.9911092

model.10.bias f4 [64]
00000000: b6df 603a ae50 05ba 2e03 98bc 6b18 40bb
00000010: b6a9 d7bc 6cba 23ba c89c a13b ad03 41bc
00000020: 1ad0 7c3c 3e6a ddbc e774 053d 34b5 cd3b
00000030: be9e 57bc d89b 19bc 0730 0c3c 9eb6 a2bc
00000040: 69ce d3bc 1c3d 993c 1b0e ee3a c438 bbbc
00000050: 9223 03bd a51e 283c 304a 22bb d0d1 9cba
00000060: 467c ddbc 8164 a73b deb0 9abc dfb6 883c
00000070: 6486 723c f83a 92bc fbfc 13bc 2d62 53bb
00000080: 1bc5 4dbc 50e4 7bbb 32e9 d63c dacb 4cbc
00000090: b873 693c 303f a8bc 5d7b 8c3b 840b f4ba
000000a0: 568c 2cbc 9ed4 f6b9 649d 6f3c 89e9 e53c
000000b0: b087 883b 7fc0 37bc f919 5fbb 534d fa3c
000000c0: 1059 13b9 a963 aaba 9a89 67bc 00bd 8fbb
000000d0: 76ee dfbb 64a9 8b3c 392b bdbc 67c9 343b
000000e0: 8a41 aebc d9cc fc3b 7c9e e73c a7ee c93b
000000f0: c1ca 86bb 0b27 633b 63a0 983c 395a 893b
0.00085782574 -0.00050855696 -0.018556204 -0.002931143 -0.026326042 -0.00062457356 0.00493202 -0.0117806615
0.015430475 -0.0270282 0.03258219 0.0062777046 -0.013160406 -0.009375535 0.0085563725 -0.01986247
-0.02585526 0.018705897 0.0018162163 -0.022854216 -0.032016344 0.0102612125 -0.0024763457 -0.0011964384
-0.027036797 0.0051084165 -0.018883165 0.016688762 0.014802549 -0.017850384 -0.009032483 -0.0032254562
-0.012559201 -0.0038435645 0.026234243 -0.012499774 0.014248781 -0.020537943 0.004287167 -0.0018619155
-0.010531506 -0.00047079189 0.014624927 0.02806546 0.004166566 -0.011215328 -0.003404258 0.03055445
-0.00014052191 -0.0012999672 -0.014131928 -0.004386544 -0.0068338467 0.017048545 -0.0230919 0.0027585865
-0.021271486 0.0077148494 0.028273813 0.006162483 -0.0041135256 0.0034660723 0.018631166 0.0041916636

model.10.running_mean f4 [64]
00000000: 5996 f4bb 0ffb 0f3b 1082 263c 5512 ebbb
00000010: c34d 3f3c 9076 fb3a bb82 263d cc9d 6a3b
00000020: 3952 d33c 560f 883c d0db a3bb fe6f e6bb
00000030: 6f25 e0bb d22c d63a b106 4d3c b63a 143d
00000040: c3d5 b8bb 0d40 883c 9a15 c73a df7d 80bb
00000050: bc92 97bb 8125 a43c baf4 1bbc f693 133d
00000060: 7ec0 80bb 046d 9dbb dbf4 223d caf9 d93c
00000070: ec61 17bb eca9 9a3c be72 073d 70c5 083d
00000080: cca7 4d3d 5f16 80bb 407d 6e3c 83e9 dfbb
00000090: 3244 073d 03f1 96bb 4173 08bb 4410 153d
000000a0: af24 28bc 8b3f 3e3b 4c05 3c3c 38fe d03c
000000b0: 5aed 96ba 306f 503a 441c 1ebb d9ef dc3a
000000c0: ec28 c33c 00bf 3a3c 9c59 96bb 5f37 e43b
000000d0: d676 d9bb 0f45 de3c b1f0 273c 62f5 e23b
000000e0: fa63 19ba f444 573c 0b9b 773c d719 15bc
000000f0: 1f80 b63b 6b2d ad3a 311e de3c 5854 133c
-0.007464212 0.002196971 0.010162845 -0.007173816 0.011676255 0.0019185115 0.040652018 0.003579962
0.025796043 0.016608875 -0.005000569 -0.0070323935 -0.0068404 0.0016340262 0.012513802 0.036188804
-0.0056407168 0.016632104 0.0015188933 -0.003921255 -0.0046256464 0.020037415 -0.009518797 0.03602978
-0.003929197 -0.0048042554 0.039784294 0.026608367 -0.0023099137 0.018879853 0.03306841 0.033391416
0.05020885 -0.003908917 0.014556229 -0.0068332567 0.03302402 -0.0046063676 -0.002082065 0.036392465
-0.010262652 0.0029029574 0.011475872 0.025511846 -0.0011514828 0.00079511385 -0.0024125734 0.0016856148
0.023823224 0.011398077 -0.004588319 0.0069646086 -0.006636481 0.02713254 0.010250256 0.0069262246
-0.00058513845 0.013138998 0.015112649 -0.009100399 0.0055694724 0.0013212388 0.027114006 0.008992277

model.10.running_var f4 [64]
00000000: 309b bb38 7284 c039 7d71 883a 0b05 6e39
00000010: 515b ca39 c2b5 eb38 3205 993a 4041 ad39
00000020: 23c4 983a 6c75 a33a 112e 1139 cf3e 1739
00000030: f676 bb38 3faf 783a ab45 2a3a cf44 963a
00000040: 8dbd 6039 d7c9 623a 91cc 0f39 646d 2639
00000050: 5bf2 7e38 8521 0d3a 5b73 8c38 67db 7b3a
00000060: 5167 be38 8340 9f38 0487 a63a 3d9a 4a3a
00000070: 9b0d c039 c34c 503a 7469 7f3a ef32 003b
00000080: c86b c53a e19e 8439 b153 323a 5d0e a938
00000090: 03c5 8d3a c276 d238 6299 8f39 06ba 9d3a
000000a0: 8f81 c039 0d43 9639 1bef db3a 6ce9 5e3a
000000b0: 8de5 1039 b7b8 5139 c619 0939 1577 8039
000000c0: f27b 2a3a 0983 b539 eb10 9d39 fc96 d439
000000d0: 1249 3f39 9656 1b3b d1ac 093a 42ce cb39
000000e0: 783b 1b3a 2e6a fd39 c128 3e3a 6138 fa38
000000f0: 133b 9339 3792 9939 7419 5c3a c0cb df39
8.945761e-05 0.00036719773 0.0010409799 0.00022699327 0.00038596478 0.00011239528 0.0011674522 0.00033045746
0.0011655133 0.0012470908 0.00013845439 0.0001442388 8.939013e-05 0.0009486563 0.00064953667 0.0011464598
0.00021432918 0.00086512923 0.0001371375 0.00015871745 6.078403e-05 0.0005383718 6.697207e-05 0.00096075836
9.07915e-05 7.593727e-05 0.0012705033 0.0007728672 0.0003663123 0.00079460087 0.0009743192 0.0019561609
0.0015062029 0.00025295376 0.0006802632 8.061223e-05 0.001081616 0.00010035701 0.00027389365 0.0012033589
0.00036717622 0.00028660186 0.0016779633 0.00085034105 0.00013818424 0.00020000605 0.0001307494 0.00024502786
0.00065034546 0.0003462064 0.00029957978 0.00040548283 0.000182424 0.0023702732 0.0005251887 0.0003887285
0.00059216423 0.0004833503 0.00072539976 0.0001193143 0.0002808204 0.00029291373 0.0008396127 0.0004268568

model.11.weight f4 [128, 64, 3, 3]
00000000: 3676 1b3c bd38 523d 0661 aa3b af3d 89bc
00000010: 182f bf3c a401 7e3c 3d33 9e3b 2f0e aabc
00000020: ee9f e0bc ada6 1e3d fc49 153d edcf 2b3c
00000030: 5521 483d d58b 243d 87fb 65bc a8cc 02bb
00000040: 1b0b afbc 6dab eebc 5999 aeba c341 47bd
00000050: ff8b a9ba ec1a d13c 6a25 00bd 045c 153c
00000060: 8f7d a2bc 1f4d c33a 8ee5 f63a 12c4 233c
00000070: f0d6 4dbb ec0c 4a3c eb45 1fbc 9564 e4bc
00000080: 1963 6abc 51f6 23bd 6a69 bebc 352f cbbc
00000090: f0ce b63b f4a7 91bc 11b6 4bbc 1c17 fa3b
000000a0: 4c00 323c b3f3 483c ebde 003d ae3c 68bb
000000b0: fc44 943c ba76 f9bc 04e3 253a 5fc4 2e3c
000000c0: bd00 bf3b fca2 1abd eb41 333c 6395 bfbb
000000d0: 401e 463c 8e0f cebb 4d9f 3bbc d7b8 f9bc
000000e0: e819 85bc cf2f 0abc fa0f 22bd d2aa e1bb
000000f0: dbf2 393c a2a4 4dbd fa6c 55bc b707 afbc
00000100: 9487 c53c c695 6239 0d8c 4ebb 7d64 803b
00000110: f2bc 9a3c 6e15 4ebd 941c 0a3b 8ffb ee3a
00000120: 842a cdbc c99e 5dba 1bbe 28bc db0a c6bb
00000130: 8626 f53c 4ef3 cfbc cd07 013d efc8 0c3a
00000140: d89a 0dbc aab5 2bbc ceeb 56bc 3bb0 e4bc
00000150: a19d 9b3c ce29 f33c fb37 a7bb 1b99 53bb
00000160: c441 903c c4b3 44bc b040 0cbd 8ca5 0f3d
00000170: c0c3 09bc 17eb 69bd 215f b93c dbd7 1cbd
00000180: 157c b3bb 7167 843c 1cae e5bb 62b3 bfb9
00000190: a29a 243d 481a 8f3c 1207 05bd 3d35 2d3c
000001a0: 17aa cb3b a86a 813a a567 46bc 4223 e6bc
000001b0: ed28 01bd 68e5 cf3c 4ae5 bdb9 0920 24ba
000001c0: af20 ad3c 290f 89bc b4c6 413c d112 a9bc
000001d0: 79f4 d23c c0fe 0b3c 9d2a 41bc 04e7 e83b
000001e0: a56a 663a 4065 9dbb 523b 833c dede 08bd
000001f0: c01d 27bc 80d0 803d bce9 92bc 7d9f 00bb
00000200: d9eb cebc 376e 17bc f021 873c a641 39bd
00000210: bc67 00bd 4198 243d 2b1d 1d3c 81b0 2fbd
00000220: 7b5b 6a3c 5187 96bc 160e 223c 0ae2 bebb
00000230: 62ee eabc c9c8 e63c 1102 303d 5c86 023d
00000240: 3c9e e1bb a2b3 1d3d 491d 67bc 8734 bf3a
00000250: 9c72 273d 0553 e53c f693 d7bb 5051 1d3c
00000260: b991 c6bb 796f dabc 1ea9 c3bc 8a2a afbc
00000270: 7b9c 003d 7511 d6bc ebc2 94bd 3bbc 9dbb
00000280: 4214 65bd 4f95 7abc 1935 973c 75c2 1a3d
00000290: e7bf fdbc 7f1c debb cb9a 493c 1be7 a9bc
000002a0: 4669 3c3c 1672 183c c5e5 07bd 688e 98bc
000002b0: 17ce a6bc d26c 813b 0105 0cbd 8fd8 2e3d
000002c0: 9311 b53c 31bd 55bc fb4c 313d 81b5 863c
000002d0: 54fd 1b3c a388 053c 0d1a a33c 64c9 903c
000002e0: 33b9 1a3d 27cd 823d 8276 29bd f88a 773c
000002f0: 0bb3 383d 4f40 803c 1398 31bd aed6 d43c
00000300: c102 aabb b38d 9d3b 3481 a53a 96a3 7bbc
00000310: 2540 61bb bbf1 6dbc 47c7 a23c 6611 003d
00000320: 7f6d 0bbd 5674 6d3c 9a89 473b a1d9 c33a
00000330: e7f5 e73c ca04 663d 9ce4 cebc 3cbc 8f3c
00000340: 466e 6dba 2781 d7bc 45f1 ce3b afeb 883c
00000350: 60b0 2a3b 2e9c 543d d06f d1bc 5559 fa3c
00000360: e194 313c 9835 ff3b e2f2 ba3c ede4 8e3c
00000370: 2ca6 fe3c af19 c93c 5f20 36bc 7018 d33c
00000380: ed65 163c a83a e4bc 6fc7 dd3c c8b7 643c
00000390: b390 31bb 581f 1f3d 6257 c03c 7985 283c
000003a0: 8f6d 79bc 6ecb 24bd 8823 aa3c f893 f6bb
000003b0: 402f a33c e850 bdbc 2139 93bb ef24 763c
000003c0: b899 3fbc 88c9 923c 9a03 a73c 7b26 143d
000003d0: c3d1 c7bc e298 02bd 8307 d8bb 6507 17bb
000003e0: f450 67bb b58b aa3b 8403 72bc f952 febc
000003f0: 6625 04bd 5a94 8bbc 9ce7 0ebc e44b 43bc
0.009488633 0.05132364 0.0051995544 -0.016753046 0.023337886 0.015503321 0.0048278854 -0.020758716
-0.02742001 0.038733173 0.03644751 0.010486585 0.048859913 0.040172417 -0.01403702 -0.001995841
-0.0213676 -0.029134477 -0.0013320848 -0.0486467 -0.0012935399 0.025525533 -0.03128568 0.0091161765
-0.019835262 0.0014900303 0.0018836723 0.009995477 -0.003140863 0.012332182 -0.00972126 -0.027879992
-0.014305853 -0.040029828 -0.023243625 -0.024802784 0.005578868 -0.017780282 -0.012433545 0.0076321494
0.010864329 0.012265134 0.03146259 -0.0035436559 0.0180993 -0.030452121 0.00063280785 0.010666936
0.0058289454 -0.03775309 0.010941009 -0.0058466657 0.012092173 -0.0062884754 -0.0114515545 -0.030483646
-0.016247705 -0.00843425 -0.039566018 -0.0068868184 0.011349405 -0.050205834 -0.01302647 -0.021365983
0.0241125 0.00021608835 -0.0031516582 0.003918229 0.018888924 -0.050313406 0.0021074163 0.0018232929
-0.025044687 -0.0008454142 -0.010299231 -0.0060437745 0.029925596 -0.025384571 0.03150158 0.00053705176
-0.008642875 -0.010480324 -0.013117744 -0.027916064 0.018996062 0.02968302 -0.005103109 -0.0032287303
0.017609484 -0.01200575 -0.03424138 0.035069987 -0.008408487 -0.057108965 0.022628369 -0.038291793
-0.005477438 0.016162606 -0.007009281 -0.0003656401 0.04018653 0.017468587 -0.032477446 0.010571775
0.0062153446 0.0009873705 -0.012109672 -0.028092984 -0.03153317 0.025377944 -0.00036219723 -0.0006260877
0.021133749 -0.016730862 0.01182716 -0.020638855 0.02575134 0.008544624 -0.011789945 0.0071076173
0.0008789695 -0.0048033297 0.016019497 -0.033415668 -0.010199964 0.06289768 -0.017933719 -0.0019626312
-0.025258945 -0.009242586 0.016495675 -0.045228623 -0.03134893 0.040184263 0.009589474 -0.042892937
0.014304037 -0.01837507 0.009891054 -0.005825286 -0.028678123 0.028171914 0.04297072 0.031866416
-0.006885318 0.03850139 -0.014106103 0.0014587798 0.040880784 0.027993688 -0.0065789176 0.009601906
-0.006059852 -0.026664482 -0.023884352 -0.021382589 0.03139923 -0.026131371 -0.0726374 -0.0048136986
-0.055927522 -0.015294387 0.018457936 0.037783105 -0.030975295 -0.0067782993 0.012304972 -0.020740082
0.0114997085 0.009304544 -0.03317811 -0.018622592 -0.020361943 0.00394974 -0.03418446 0.042686995
0.022103107 -0.013045595 0.043286305 0.01644397 0.009520847 0.0081502525 0.019909883 0.017674156
0.037774276 0.06386786 -0.041372783 0.015108816 0.045092624 0.015655665 -0.04335792 0.025981274
-0.0051883166 0.0048081516 0.0012627007 -0.015358826 -0.0034370509 -0.014522965 0.019870413 0.031266592
-0.03403997 0.014493069 0.0030447007 0.0014942178 0.028315498 0.05615691 -0.025255494 0.017545812
-0.00090572645 -0.026306702 0.0063153827 0.016713945 0.002604507 0.051906757 -0.025566012 0.030560175
0.010838718 0.0077883713 0.022820894 0.017443145 0.031085096 0.02454838 -0.011116116 0.025768489
0.009179574 -0.02786 0.027072636 0.0139598325 -0.0027094304 0.03884825 0.023479167 0.010285729
-0.015223875 -0.04023307 0.020768896 -0.0075249635 0.019919991 -0.023109868 -0.0044928943 0.015023454
-0.011694364 0.017918363 0.02038746 0.03616951 -0.024392014 -0.03188408 -0.0065926923 -0.002304518
-0.0035296055 0.0052046427 -0.014771346 -0.031045424 -0.03226223 -0.017038513 -0.008722212 -0.011919949

model.11.bias f4 [128]
00000000: 1ace 43bb 53c0 9bbc 9bbe 2f3c 2f39 ef3b
00000010: 2acc edbc b52d 38bc d1d7 0d3b a9e5 923c
00000020: 64fd c2bc 943c 133d 0a42 57bc 8bc8 15bd
00000030: ea9c 90bb 4a22 cfbc 69bb 0f3c 27d6 18bd
00000040: 57f4 acbb af93 8fbc fd16 1ebc 4372 783c
00000050: 47fa 8c3c 6ab1 41bc c98e bebb 098d a53c
00000060: 6295 243b eb34 8a3c a1db b93c b4a6 e4bc
00000070: 3e98 1cbd 12a2 153c b70d 4d3a 8a13 e8bb
00000080: 3557 afbc 3d5c c33b 5f15 513c c3ae 12bd
00000090: 6187 2cbc 2955 9f3c 9836 36bc 65a3 043c
000000a0: 7427 9dbc 24e2 fa3b 86e7 f0ba 9622 253c
000000b0: 2869 1f3a 1150 8bbc 04f0 3fbc ce2f f3b8
000000c0: 5ead 19bc 3eeb 66bb 1df4 343c a1c2 1dbc
000000d0: 5064 38bd b305 b03c f37d e83a be61 80bc
000000e0: 7d07 aabc 70cc f1bc 5107 eebb 25f8 17bc
000000f0: 87b1 b13b eb8a cabb 9e36 97bb 48dc 423c
00000100: 2316 ac3a 9cb5 c63b 7d68 fcbb b572 32bb
00000110: 333b 15bd 6d03 18bd 7cfb bc3b e402 6fbc
00000120: 16c9 b0bc 994e 3a3c 99cb 20bb 625a b239
00000130: 1d12 fcbb 6fdb a0bc 4583 fe3b 779b 4f3b
00000140: 096f 56bc 34ef 5f3b 6fc3 5bbd 60de 2339
00000150: cdc0 5ebb 4ca4 00bd e462 b6bc 9d64 43bb
00000160: 3e5e 2ebd 8e94 bfbb 527b 573d 482d f0bc
00000170: 5f90 27bc 188c 77bb 0ebe 8dbb b898 043d
00000180: 58ae 21bc 9698 bebc 9074 38bc ceb5 493c
00000190: d8dd 5abc 828c 0ebc 163c e6bb a9b7 cebc
000001a0: 52e1 acbc a258 013c a6f8 663c 361c 96bc
000001b0: 1557 3ebb 48e4 90bc 1d40 2fbb ed6f dabb
000001c0: 0278 903c 5267 0d3c 205c a93b e87e 353b
000001d0: c385 38bd 8b14 163c e55d e3bc 2961 c5bc
000001e0: 1480 70bc cd3c 1bbd d8e1 0bba 2586 9bbc
000001f0: 51d7 99bc dda9 eabc 94ec cebc e35c 0bbc
-0.0029877485 -0.019012606 0.010726596 0.007300518 -0.029028017 -0.011241366 0.002164353 0.017931776
-0.023802467 0.035946444 -0.0131383035 -0.036568206 -0.004413237 -0.025284905 0.008772709 -0.037313607
-0.005278151 -0.017526476 -0.0096490355 0.015163961 0.017209185 -0.011822084 -0.005815361 0.020208852
0.0025113453 0.016870936 0.022687735 -0.027911521 -0.038231127 0.009132879 0.0007822173 -0.0070824074
-0.021403888 0.0059619234 0.012761443 -0.035811197 -0.010530324 0.019449787 -0.011121415 0.008095597
-0.019183852 0.0076563526 -0.0018379546 0.010079047 0.0006081038 -0.017005952 -0.011714939 -0.00011596047
-0.009379713 -0.003523543 0.011044529 -0.009628923 -0.04501754 0.021487093 0.0017737731 -0.015671607
-0.020755524 -0.029516429 -0.007264056 -0.009275471 0.0054227742 -0.006181111 -0.004614665 0.011893339
0.0013129156 0.00606413 -0.0077028857 -0.0027229015 -0.03643341 -0.037112642 0.005767284 -0.0145880915
-0.02158026 0.011371278 -0.0024535416 0.00034018146 -0.007692589 -0.019635884 0.0077671134 0.0031678358
-0.013087996 0.0034169676 -0.053653177 0.00015627733 -0.003398943 -0.031406686 -0.022263952 -0.002981461
-0.042570345 -0.0058465665 0.05260784 -0.029318467 -0.010227292 -0.0037772711 -0.004325635 0.032372206
-0.009868227 -0.023266118 -0.011258259 0.012311412 -0.013358556 -0.008700492 -0.007026206 -0.02523406
-0.021103535 0.007894667 0.014097368 -0.018323999 -0.0029043604 -0.017686978 -0.0026741095 -0.0066661746
0.01763535 0.0086305905 0.005168453 0.002769405 -0.04504944 0.009160171 -0.027754733 -0.024094181
-0.014678974 -0.03789978 -0.00053360825 -0.018984864 -0.018779429 -0.02864545 -0.025259294 -0.008506033

model.14.weight f4 [128]
00000000: 40e2 773f 0b5a 7d3f 606e 823f cfd8 773f
00000010: 7436 803f c87a 833f 41b9 863f c183 7b3f
00000020: 8f7b 7a3f 4839 823f a226 7d3f a1e3 7b3f
00000030: 1037 813f 1431 793f df06 803f fc2e 813f
00000040: d4aa 863f 3c57 813f 6876 813f 65aa 7c3f
00000050: cad5 813f c4d8 7f3f c0d1 793f f1eb 7c3f
00000060: aed2 833f c154 7b3f 9037 823f 4486 7d3f
00000070: 3a62 833f ae75 843f b2fd 823f b804 823f
00000080: d851 843f 9506 823f eb6e 873f f5d5 7e3f
00000090: b3df 783f f4d9 813f a16c 783f d254 793f
000000a0: 6c27 843f 9c4c 7e3f 2ed9 743f 1c95 793f
000000b0: 6ef2 833f 4075 823f 33d0 833f a3e8 863f
000000c0: 95ef 7c3f 6c9c 853f a311 803f d5fb 793f
000000d0: 4eeb 783f 423b 793f 5c7f 843f e61a 803f
000000e0: 4526 813f f016 833f 7a2f 813f 19af 833f
000000f0: a743 873f 2133 843f 6401 803f 9f0d 873f
00000100: 36bf 843f 7194 7f3f cc27 813f 2318 7d3f
00000110: 215c 7d3f 018c 783f 2865 7f3f 7748 8a3f
00000120: c660 833f 017e 7c3f aec1 7d3f 9918 7e3f
00000130: 06a3 7f3f 601a 803f 78bc 7a3f ee0c 7d3f
00000140: f21f 7e3f 2238 843f 4a62 7b3f 5205 823f
00000150: b2bc 823f 1938 7a3f cd3c 7d3f 75a4 703f
00000160: eee7 823f 8400 863f 2e28 7a3f 2b9d 843f
00000170: 67e1 843f 3121 803f e904 813f 967b 833f
00000180: b493 7e3f f100 763f b441 7f3f fe07 833f
00000190: b6d0 813f dbf6 803f 319d 7b3f 4b29 833f
000001a0: c6ed 793f ac53 843f b969 7a3f fe6b 7f3f
000001b0: 6cd7 7d3f 1b0e 863f 624c 853f ced7 853f
000001c0: 5480 813f 53b6 813f 98d9 7d3f ef66 7e3f
000001d0: 7d2f 823f f073 853f 7a30 843f 9e04 873f
000001e0: 13fb 793f 3cb0 823f a669 793f eb12 803f
000001f0: ebb5 823f 6304 803f 61dd 813f 8633 7f3f
0.96829605 0.9896552 1.0189934 0.968152 1.0016618 1.0271845 1.0525285 0.98247916
0.97844785 1.0173731 0.98887074 0.9839421 1.0094929 0.9734051 1.0002097 1.0092463
1.0520883 1.0104747 1.011426 0.986975 1.0143368 0.99940133 0.9758568 0.9879752
1.0298669 0.981762 1.0173206 0.99033 1.0264351 1.0348413 1.0233672 1.015769
1.0337477 1.0158259 1.0580724 0.9954522 0.9721634 1.0144639 0.97040755 0.9739505
1.0324531 0.99335647 0.9564389 0.9749315 1.0308359 1.0192032 1.0297912 1.0539745
0.98803073 1.0438361 1.0005382 0.9764989 0.97234046 0.97356045 1.0351367 1.0008209
1.0089804 1.0241375 1.0092614 1.028781 1.0567521 1.0328103 1.0000424 1.0551032
1.0370853 0.9983588 1.009027 0.98864955 0.989687 0.9708863 0.9976373 1.0803365
1.0263908 0.98629767 0.99123657 0.99256283 0.9985813 1.0008049 0.9794383 0.98847854
0.99267495 1.032963 0.9819685 1.0157874 1.0213835 0.9774185 0.989209 0.9400094
1.0227029 1.0468907 0.9771756 1.0360464 1.0381287 1.0010129 1.0079623 1.027209
0.9944413 0.96095186 0.9970963 1.0236814 1.0141819 1.0075334 0.9828673 1.0246977
0.9762844 1.0338035 0.9781757 0.9977416 0.9915683 1.0473055 1.0413935 1.0456483
1.0117288 1.0133766 0.99160147 0.99375814 1.0170742 1.0426006 1.0327294 1.0548284
0.97648734 1.0210032 0.9742683 1.0005773 1.0211767 1.0001339 1.0145684 0.99687994

model.14.bias f4 [128]
00000000: 02b6 8fbb 44e8 923c f46e 873c eac2 3b3c
00000010: 4a26 1f3c f20f 233c 8e4f 083c c05b a336
00000020: 5c49 2bba 276d 943b 81a1 95bb cf22 e63b
00000030: 2410 8dba 597e 55bb c81c 79bb 09c0 5f3c
00000040: 993f b0bb 065a 44bb b83b 353b 3f8e d63c
00000050: 5a47 de3b c672 fa3b 883c 8fb9 2047 31bb
00000060: efdf 96bb 18b9 e3ba 01b7 2b3c 2f61 cb3b
00000070: a3dd 3dbb 8487 b83a 7938 ef3c b5ea a6bb
00000080: 2eec 80bb d2ef c43b 67b7 9f3c 2e10 7abb
00000090: 2664 a3b9 0707 993b 1561 913b 468e 3ebb
000000a0: 6f58 88bb 889a 583c 7f3b be3a c1cc 72bb
000000b0: 223f a23c 72c9 8bbb 08d4 a9b9 e6c2 863a
000000c0: 9d35 813c 6192 f03b 4f4a ea3b d23c 0cbb
000000d0: 0062 843c 9b5b 72bb 84a1 0f3c 5775 9abb
000000e0: 9f17 51ba 9e4d 363a bc0f e23b a1bb 86bb
000000f0: ebe9 053d 44e2 e33b 430b d0bb 8896 dc3b
00000100: 7a39 85bb ad26 7ebb b219 ddb9 3515 a4bb
00000110: e66f 893b 1b3e 6ebb a7a8 103c d0b6 8dbb
00000120: b8df e93b eaa0 8abb de4a 8bbb dcf9 8ebb
00000130: 064d 3dbb 0d78 f7bb 2f20 183b 8e28 043c
00000140: a82d 8ebb cf67 073d aea7 dfba 024d f6b9
00000150: 7978 72bb c595 8d3a e4d9 acbb 767e 023c
00000160: f1fc e53b b0b7 f23c 0480 a5bb e859 d63b
00000170: fd7d a33c df61 33bb fba9 eeba 70f9 0f3c
00000180: 4e85 35bb a817 7dbb d8ae 4ebb 2630 a2bb
00000190: c593 3abb fca0 b7bb 2b99 b83b 9ec2 fe3b
000001a0: 0f10 54bb 67fa 2ebb fb34 15bc 74a0 c23b
000001b0: 00dd f03b 0bc1 963c da3e 48bb 2f7a 2abb
000001c0: 0ce5 af3b 59a2 9e3c ce0f 003b 486e 623b
000001d0: c8f2 a8ba 5e49 0b3c d199 393c f82e 55bb
000001e0: 591c e83b 8cf4 6f3b 80ae 313c 298d c7ba
000001f0: ab3d e63b 9580 66bb 7696 8abb a109 18ba
-0.0043857107 0.017933019 0.016532399 0.011460045 0.009713719 0.009952532 0.008319749 4.8684597e-06
-0.0006534064 0.0045296135 -0.004566372 0.0070231925 -0.0010762257 -0.003257653 -0.003801154 0.013656625
-0.005378675 -0.0029960885 0.0027654003 0.026190875 0.006783408 0.0076430766 -0.00027320185 -0.002705045
-0.0046043317 -0.0017373888 0.010480643 0.0062066535 -0.0028971217 0.0014078473 0.029201733 -0.005093897
-0.003934405 0.006010034 0.019496633 -0.0038156617 -0.000311644 0.004670027 0.004436622 -0.00290765
-0.0041609327 0.013220437 0.0014513581 -0.0037048312 0.019805495 -0.0042659575 -0.00032392167 0.0010281473
0.015772635 0.0073416685 0.0071499716 -0.0021398556 0.016160011 -0.003698087 0.008766536 -0.004713695
-0.0007976237 0.0006954315 0.0068988483 -0.0041117226 0.032693785 0.006954463 -0.0063489988 0.006731812
-0.0040656896 -0.0038780377 -0.0004217155 -0.005007411 0.0041942475 -0.0036352936 0.008829272 -0.0043247715
0.007137265 -0.004230608 -0.004250868 -0.0043632817 -0.002888502 -0.007552153 0.0023212542 0.00806631
-0.0043389387 0.033057984 -0.0017063522 -0.00046978152 -0.0036998077 0.0010802081 -0.005274998 0.007964721
0.0070186784 0.029628605 -0.005050661 0.0065414794 0.019957537 -0.0027371568 -0.0018208617 0.008787498
-0.0027697864 -0.0038618837 -0.003153732 -0.0049495874 -0.0028469425 -0.0056039076 0.0056334934 0.007774665
-0.0032358204 -0.0026699544 -0.00910687 0.0059395377 0.007350564 0.018402597 -0.003055504 -0.0026012769
0.0053678807 0.019364523 0.001954067 0.0034550596 -0.0012889737 0.008501379 0.011328177 -0.0032529216
0.0070834574 0.0036614267 0.010844827 -0.0015224564 0.0070263944 -0.0035171856 -0.004229362 -0.00057997747
