results/netD2.pth (torch_old, 405197 bytes, 21 tensors)

model.0.weight f4 [16, 3, 3, 3]
000000 fb c5 67 bc 05 07 a0 bb 03 63 4f bd 0c da 33 3b
       -0.014146323 -0.0048836493 -0.050631534 0.0027443198
000010 a5 a4 0c bd 98 df 01 bc e6 ca 44 bd 68 15 92 bc
       -0.034336705 -0.007926844 -0.04804506 -0.017832473
000020 fc e4 1c 3c 27 7b e5 bb 68 e6 97 bc 2e 04 5a bd
       0.0095760785 -0.0070032063 -0.018542483 -0.053226642
000030 d9 05 27 bd 1c dd fa bc bd bd 18 bd a6 21 c0 3c
       -0.04077706 -0.030623011 -0.037290324 0.023453545
000040 2e 73 24 3c 06 1c 55 bc 3a 47 ea bc be 6e 85 bb
       0.010037227 -0.01300717 -0.028598417 -0.0040720394
000050 b9 fc 17 3c c0 86 47 bc 01 5a 3d 3b 26 ef f0 bc
       0.009276562 -0.012178123 0.0028892758 -0.02941091
000060 62 fa 0a bd b2 f5 03 bd ab e3 d0 bc 3d d2 b6 3c
       -0.03393019 -0.032216735 -0.025499186 0.022317046
000070 78 d3 ea bb 75 28 bd 3b a4 29 5d 3c ff 71 d3 3c
       -0.0071663223 0.005772645 0.013498697 0.025811194
000080 9c d3 5a 3c e6 a6 cd 3c 8c fd fa 3c 80 09 fb 3c
       0.013356116 0.025103997 0.030638479 0.030644178
000090 20 f4 a5 3b 9c 25 75 3c 74 c6 20 3d 51 41 b8 3c
       0.0050645024 0.01496258 0.03925176 0.022492083
0000a0 be 11 41 3b c7 d5 16 bc eb 68 e2 3c 0a 79 c8 3b
       0.0029460038 -0.009206242 0.02763792 0.0061179446
0000b0 5e 66 70 bb 41 09 4d bc db eb 2d bc da 11 9d 3c
       -0.003668211 -0.012514413 -0.010615314 0.019173551
0000c0 00 ac a5 39 66 9f 03 3d cc 98 fd 3c 66 d0 26 3c
       0.00031599402 0.032134436 0.030956648 0.010181522
0000d0 f8 50 65 bc e8 6e 74 bc e7 86 0d 3c ad 20 e5 3a
       -0.013996355 -0.01491902 0.00863812 0.0017481052
0000e0 ab 59 b6 bc 28 31 33 bd 70 23 d0 bb 1a 0e 85 bc
       -0.022259554 -0.04374805 -0.0063518807 -0.016242076
0000f0 70 74 31 3c fd 12 da 3c 44 55 21 3b 3e 37 4e bc
       0.0108309835 0.026620382 0.0024617473 -0.012586413
000100 d1 e7 47 3a fd c5 8d 3c 77 67 4e bc 8b fb 96 3c
       0.0007625791 0.017306322 -0.01259791 0.018430492
000110 68 7c 20 bd 6e b1 f8 bc 70 8a 5f 3c ca 38 c9 3c
       -0.039181143 -0.030358043 0.013643846 0.024563212
000120 8b c4 29 3c b8 ea 2f bc 5a 4c f2 bb b3 53 a1 bc
       0.010361801 -0.010737114 -0.0073943557 -0.019693231
000130 f3 02 8c bc 90 8e 72 bb c5 11 14 bc 6a bb 77 bc
       -0.01709125 -0.0037011243 -0.00903744 -0.015120367
000140 c6 78 b5 bc 7d 1a a5 3c 77 04 db 3c c9 c6 d6 bc
       -0.022152316 0.020154232 0.026735527 -0.026217835
000150 48 0e 09 3d 58 62 77 bc 41 11 a0 bc 90 b1 cf 3b
       0.033460885 -0.015099131 -0.019539477 0.006338306
000160 20 6b df 3c 2c fd e9 3c e7 12 bb bb 00 b7 a5 3c
       0.02727276 0.028563105 -0.0057090404 0.020228863
000170 03 8a 12 3c a7 f5 95 3a 11 55 a5 bc 02 6f fb bc
       0.008944037 0.0011441008 -0.020182164 -0.030692581
000180 e5 d7 06 bd bf 55 90 3b bc c0 33 bc 07 96 85 3b
       -0.032920737 0.004404753 -0.010971244 0.0040767225
000190 8b da 9b bc d4 83 15 3c 29 0d fc 3c f3 a5 c2 3c
       -0.019025108 0.009125669 0.030767994 0.023760771
0001a0 0f eb 34 3c 09 38 f5 bb d0 47 c0 bc 18 80 c1 bc
       0.01104237 -0.0074834866 -0.023471743 -0.02362065
0001b0 fb 96 f2 bc f6 11 50 bc 2d e4 0c 3c 3c 89 0c bd
       -0.029613009 -0.012699595 0.008599323 -0.034310564
0001c0 32 37 01 bd f8 ad c9 bc fc ea 40 bd 4e ef da 3c
       -0.03154678 -0.024619088 -0.0470991 0.026725437
0001d0 21 06 e4 bb 50 57 86 bb 74 b0 9c bc ac aa f2 bc
       -0.0069587384 -0.004099764 -0.019127108 -0.029622398
0001e0 81 a4 ee 3b d9 22 00 bd bb dc 2a bd 30 78 84 3c
       0.007282794 -0.031283233 -0.04171441 0.016170591
0001f0 30 28 e3 3b b6 51 6b bc 58 1e 6d ba ec a1 94 bc
       0.006932281 -0.014362743 -0.0009045354 -0.018143617
000200 94 89 0e bc 54 4d 27 ba 22 d7 8a bc 14 ee de bc
       -0.008699793 -0.0006382067 -0.016948286 -0.027213134
000210 d9 9f 0c bd f0 94 11 bd 20 8b ea 3a 66 0a 9d 3b
       -0.03433213 -0.03554243 0.0017894246 0.0047924994
000220 b1 b6 22 bd 86 99 4f bb 40 35 79 bc da e4 f3 ba
       -0.03972501 -0.00316772 -0.01521045 -0.0018607632
000230 23 68 ca bb af a1 69 bd 3c e1 a2 3c 1b 1f bd bc
       -0.006176965 -0.05703896 0.01988279 -0.023086121
000240 94 d4 67 bd 14 98 f5 bc 12 3f 6e bc 4d b6 07 bd
       -0.056599215 -0.029979743 -0.014541404 -0.03313284
000250 27 75 24 3c 90 e1 5d bc 31 b1 00 bd f9 ff b7 bb
       0.010037697 -0.013542548 -0.031418983 -0.005615231
000260 d7 70 4d bc 6a 46 be bb d2 dc 59 bc ac ca 2d 3a
       -0.01253911 -0.005806734 -0.013297277 0.0006629627
000270 27 aa 42 bc 23 83 06 bd a1 8d 31 bd f8 42 fe bc
       -0.011881388 -0.032839905 -0.04334796 -0.031037793
000280 d9 8b c1 bb 32 a5 b3 bb e1 0a 41 3c 89 7a 2b bd
       -0.0059065637 -0.0054823393 0.011782379 -0.041864906
000290 f3 48 de bc ad c4 1e 3d f1 ed 84 39 4c bd 9b 3c
       -0.027134394 0.038761783 0.00025354282 0.019011162
0002a0 4d e3 a5 3c 38 68 ff ba 99 a8 41 3c 1a 50 7a 3c
       0.020249987 -0.0019486016 0.011819982 0.015277887
0002b0 d6 ba cf 3c 6b 5d 66 3a 50 2a 60 bb 6f 71 c3 bc
       0.025357645 0.0008787724 -0.0034204908 -0.0238578
0002c0 73 da 80 bc 6d 3b e0 3c c5 7b d7 bc 0c 29 3b 3d
       -0.015729165 0.027372086 -0.026304135 0.045693442
0002d0 50 bf 8e bc 59 22 3e bc a0 30 16 3c e5 b8 b4 bb
       -0.01742521 -0.011604869 0.009166867 -0.005515205
0002e0 a5 e1 5f 3c b8 fb 0c bc 5d b8 a4 bc 67 b9 2d bc
       0.013664638 -0.008604936 -0.020107443 -0.010603285
0002f0 0e fc 7d bc cb 4a 77 3c 3a 79 e7 ba 49 63 43 bb
       -0.015501989 0.015093516 -0.001766003 -0.0029813817
000300 1e 02 5d bc d7 4f 4e 3c 59 ee 17 3c ed 6a 4f bc
       -0.013489274 0.0125922775 0.009273135 -0.01265977
000310 e4 a7 93 3c 5c 54 9b bb 20 b9 12 bd d6 d5 14 bd
       0.018024392 -0.004740281 -0.03582108 -0.036336742
000320 fa 4b cd ba fd b2 3a bb 88 4e ec bc 67 bb 48 bd
       -0.0015662902 -0.0028488033 -0.02884604 -0.049006846
000330 e2 ed b6 3b bb 0f d6 bb c1 48 ea 3b fc c3 76 bc
       0.005582557 -0.006532637 0.007149786 -0.015061375
000340 d8 67 d7 bb 43 f9 34 3c eb 34 bb bc 42 39 3a ba
       -0.0065736584 0.011045757 -0.022852382 -0.0007103869
000350 eb b9 b8 bc 19 da d7 3a ff 86 03 bc df 71 77 bc
       -0.02254959 0.0016468196 -0.008027791 -0.015102833
000360 53 cf 1a 3c 6c eb 9e 3c 0a d7 05 bd 24 fd d9 3c
       0.009448844 0.019399367 -0.03267578 0.026609965
000370 a0 42 f7 3b 0f f7 0e 3c 21 0a e6 3b 37 74 81 bb
       0.007545784 0.008725896 0.0070202504 -0.0039506215
000380 d0 ee f3 3c 87 0a 83 3c 95 3e 2d 3d af ed 4f 3d
       0.02977696 0.01599623 0.04229601 0.050763782
000390 70 98 23 3c ca 21 94 3c 45 37 62 3c d2 50 1d 3d
       0.009985074 0.018082518 0.013807123 0.038407154
0003a0 be 09 1b 3c b3 ea bc 3b fe 5d e9 3b 4d 2a d0 3c
       0.009462772 0.005765283 0.0071218004 0.025410796
0003b0 90 8a e8 3c 23 87 3b bc 06 cb 21 3d 90 66 93 3c
       0.028386384 -0.011445793 0.03950026 0.017993242
0003c0 69 16 68 bc ef ac 96 3c 8e f1 96 3c 59 8a f4 3b
       -0.014165499 0.018393008 0.01842573 0.0074627814
0003d0 82 1b 09 bc 42 5b d5 3a b1 0e e9 3b 0d 1b be bb
       -0.008368375 0.0016277807 0.007112347 -0.0058015645
0003e0 d0 b9 ac 39 06 bb 5e 3c c3 4e 1d bb 7f c0 09 bc
       0.00032944838 0.013594395 -0.0024003244 -0.008407711
0003f0 20 ee 1e ba a6 80 23 3c 6a 8d a1 3d d9 17 c8 3c
       -0.0006062705 0.009979403 0.07888301 0.024425434

model.0.bias f4 [16]
000000 d3 c7 84 bd 93 fc 36 3e 31 4a 40 be 31 4c 90 bd
       -0.06483426 0.17869787 -0.18778302 -0.07045782
000010 56 94 8b 3d 1c d6 70 bd ba c9 1b 3e 2a 34 bd bd
       0.06815402 -0.05879794 0.15213671 -0.09238465
000020 70 d6 29 be d5 71 8f bd d8 88 91 bd c7 fd 34 be
       -0.16585708 -0.070041336 -0.07106179 -0.17674933
000030 57 31 cc 3d 0a 09 12 bd 96 82 26 be 26 e9 79 3d
       0.09970348 -0.03565315 -0.16260752 0.061013363

model.3.weight f4 [32, 16, 3, 3]
000000 d3 b3 ef 3b fe 50 90 3b be ab c7 bb 78 42 97 bc
       0.007315138 0.0044041863 -0.0060934713 -0.018464312
000010 0a b5 53 3d 7c cc 1f 3c ce e3 50 3d 45 0d a8 3c
       0.051686324 0.009753343 0.0509985 0.02051414
000020 67 9d e0 3c 6c ba 91 bc e6 14 8f bc e5 70 a7 3b
       0.027418805 -0.017789088 -0.01746602 0.0051098936
000030 4e 18 d7 3c e8 54 ea bc 82 83 73 3b 05 69 c6 3c
       0.026256707 -0.02860494 0.0037157242 0.02422
000040 de d8 28 3c bb 2d 05 3d 84 fe 07 3c 79 56 37 3a
       0.010305611 0.032514315 0.008300427 0.00069937814
000050 24 c1 a9 bc d3 b5 84 3c 83 15 c7 3b 5e 6e 8a bc
       -0.02072198 0.016199982 0.0060755624 -0.01689833
000060 c0 ce c2 bc 44 61 6c bc 90 31 0f 3d aa c2 51 3b
       -0.023780227 -0.014427487 0.034959376 0.0032006898
000070 95 0b 3d bd 92 4d 7f bc a5 8e a6 bc b2 5d 22 bd
       -0.046153624 -0.015582459 -0.02033169 -0.039640136
000080 54 e9 54 3c 29 b5 2d bd d1 73 f1 bc 8d 42 07 bb
       0.012995083 -0.042409096 -0.02947417 -0.0020639033
000090 40 a7 2d 3c 55 42 db 3c 62 9d 5e 3d 2d e4 c9 3c
       0.010598958 0.026765028 0.05434931 0.024644936
0000a0 bc ce 35 bb 27 8d d6 3c 5a cb c3 3c 49 14 ce bb
       -0.0027741631 0.026190354 0.023900677 -0.0062890393
0000b0 0f a9 52 3c 7d 04 2e bc 97 9e 0d 3d de 32 ee 3c
       0.0128576895 -0.010621187 0.03457507 0.02907699
0000c0 06 44 1f 3d 72 7f 12 3d 7c 10 a0 3c 98 ab 0d 3c
       0.03888323 0.035766073 0.01953911 0.008646868
0000d0 3d 7e d3 3c ee 84 60 bb 13 18 49 bc 6d e3 88 bc
       0.025817031 -0.003425892 -0.012273806 -0.016710008
0000e0 a0 0f a9 3c fb ae 9b 3c 5b ce 29 ba 73 0a fe bc
       0.020637333 0.019004336 -0.0006477588 -0.031010842
0000f0 9a 61 28 3d 8a 12 97 bc 99 9e 06 3b 9d 54 59 3c
       0.041108705 -0.018441457 0.002054131 0.013264802
000100 58 fa 17 3d 12 50 2c 3c f7 83 7d 3c 7c 91 29 3c
       0.03710398 0.010517137 0.015473357 0.010349628
000110 af 67 07 bd 89 61 4b 3d c8 c6 ad 3c a3 e5 c7 b9
       -0.033057865 0.049653564 0.02121295 -0.0003812733
000120 a5 db 5b bd 91 95 6a bc e4 0d 43 bc f8 54 5e bd
       -0.053676266 -0.014317886 -0.011905167 -0.05428025
000130 9c dd 3c 3c c0 fc 18 bd bf 70 4e 3b 6c 55 6c b7
       0.011527445 -0.037350416 0.0031500307 -1.4086585e-05
000140 75 26 91 bd 61 40 9c bc 60 09 76 b9 c0 6a 39 bc
       -0.07087413 -0.019073667 -0.0002346388 -0.011316955
000150 6d c6 38 3b 84 fd 45 3c 67 d0 93 bc 7c 27 ed bc
       0.0028194443 0.012084369 -0.01804371 -0.028949492
000160 9c 41 12 3c ee be 34 3d a0 cc f7 bc 5b d9 36 3c
       0.008926775 0.044127397 -0.03024894 0.01116022
000170 6b 56 16 3d 26 98 2e bd 4a 3a 1e bc f9 c1 41 bd
       0.03670351 -0.04262557 -0.009657452 -0.047304127
000180 2a 4b 54 bd a1 c5 3f bd 2c 26 de 3a 2f 36 40 bc
       -0.051829495 -0.046819333 0.0016948632 -0.011731668
000190 21 ff f9 bc 4a fe 0e 3c 89 fc 0d b9 ea 70 37 bd
       -0.030517163 0.008727619 -0.00013540885 -0.044785418
0001a0 4c 1d 7f bc 5f 8c 71 bc fc 8b 07 bc ba 1b 8b bc
       -0.01557095 -0.01474294 -0.008273121 -0.016980994
0001b0 45 e4 b0 bc 45 7c 2c bd 10 1e 05 bd ff b5 10 3b
       -0.021593222 -0.0421107 -0.032499373 0.0022081134
0001c0 20 78 12 bc 4c c0 9d bc 70 18 83 3c c3 78 e7 ba
       -0.008939773 -0.019256733 0.016002864 -0.0017659891
0001d0 5f 47 69 3c 06 1a 28 3d 58 3e cb bb f4 c1 8f 3c
       0.014238208 0.041040443 -0.0062025003 0.017548539
0001e0 37 d7 8d bc 10 b2 48 bc 12 90 c9 bc 5d 99 88 bb
       -0.017314536 -0.012249485 -0.02460483 -0.004168673
0001f0 1f 20 9b bc d7 a8 3a bb ed 36 9d bc 8b 4a f6 bc
       -0.018936215 -0.0028481984 -0.01919123 -0.030064842
000200 65 18 32 bc d8 60 00 3b 92 dc de bb 6e 32 94 3c
       -0.010870074 0.0019588973 -0.0068011964 0.018090453
000210 e0 91 53 3c e9 55 0b bd dc 85 b7 bb 10 e1 2b 3c
       0.012913197 -0.034017477 -0.005600674 0.010490671
000220 d0 1c d2 ba 2e 06 bf 3c 94 a8 e6 3b 3f 0f 5a 3a
       -0.0016030315 0.023318376 0.007039139 0.0008318312
000230 74 06 33 bd 67 95 2b 3d c2 3e be bc e1 10 aa ba
       -0.043707326 0.041890528 -0.023223285 -0.0012975001
000240 1c 29 35 3c 04 a4 f3 bc 8c 70 9f bc 6e 7b c0 3c
       0.0110571645 -0.029741295 -0.019462846 0.023496356
000250 bc 86 07 3c 28 a4 93 3c 14 d1 2b 38 56 16 c3 ba
       0.008271869 0.018022612 4.0964296e-05 -0.0014883976
000260 7f 1a db 3b d8 8f ec b8 8e 5e cd 3c d2 17 1e bb
       0.006686508 -0.0001128015 0.025069501 -0.0024123085
000270 f6 d9 eb 3b 22 6b 1c 3d 32 2a 8e 3b 25 36 e4 bb
       0.007197614 0.038188107 0.004338526 -0.0069644623
000280 6c 76 b1 bc 9a 7e 70 bc f3 05 ef 3c 6e 7b f2 3b
       -0.021662913 -0.014678622 0.029177641 0.007399968
000290 73 d9 0b bd 34 07 6c 3b a2 44 d6 b7 1d ef 16 bc
       -0.034142923 0.0036015036 -2.5542748e-05 -0.0092122825
0002a0 90 96 90 bc 69 3b 34 3b 92 38 a8 bb 1f 60 d2 3c
       -0.017649919 0.0027501232 -0.005133697 0.0256806
0002b0 0d 86 0c 3d b0 de 3a bc 69 2c 2e 3c 55 6a 91 bb
       0.03430753 -0.011405632 0.010630705 -0.0044377246
0002c0 86 63 ff bc 91 66 96 3c 35 2a 8e bc c0 8e 7c 3b
       -0.031175386 0.018359454 -0.01735411 0.0038537234
0002d0 6d 5f 47 bc 72 4d 6c bb 53 5c 97 bc 79 b5 91 ba
       -0.012168747 -0.0036056903 -0.01847664 -0.0011116705
0002e0 a6 fa af 3c 27 50 ca 3c e2 93 e9 3a 44 17 34 bd
       0.021481823 0.024696423 0.0017820562 -0.0439675
0002f0 67 2c 89 bc d3 c5 65 3c 0c 2b b7 ba ac aa 01 3c
       -0.016744805 0.014024216 -0.0013974621 0.0079142265
000300 2b 75 d7 bc 06 39 57 3c 2b 65 56 bd a0 9a 93 3c
       -0.026300987 0.013136154 -0.052342575 0.018018067
000310 e8 9b f4 3c 05 e1 31 bc 3f 77 83 3c 4b fa fe bb
       0.029859498 -0.0108568715 0.016048072 -0.007781302
000320 2b 0b b9 3b 7d 0c 58 bc 96 b6 22 3d f2 63 11 b9
       0.0056470833 -0.013186571 0.03972491 -0.0001386551
000330 d9 d9 50 bb fe 18 43 3c ae a1 19 3d c0 c1 c8 3b
       -0.0031868129 0.011907814 0.037507705 0.0061266124
000340 0d 6a 27 bc f5 c5 e9 bc 9d 9a cd 3c a4 eb 95 3c
       -0.010218156 -0.028536776 0.02509814 0.018300839
000350 7c 78 1f bd 70 18 96 bb f3 be 22 3c 7c 8b 55 3c
       -0.038933262 -0.00458055 0.009933221 0.013033744
000360 f7 be 16 bc 85 a6 a7 3c d1 a2 b7 3c 80 f4 0f 3d
       -0.009200803 0.020465145 0.022416504 0.035145283
000370 39 77 57 3c ed 64 3e bc c0 7d 8d 3a 33 d6 a8 3c
       0.0131509835 -0.011620742 0.0010794923 0.02060995
000380 e6 00 bb 3c 22 90 8c 3c 29 88 68 3d 2f bc 82 3c
       0.022827577 0.017158572 0.056770477 0.015958874
000390 52 32 69 bc 49 f9 8c 3c a9 8f a6 3b a4 64 3d bc
       -0.014233189 0.017208712 0.0050830436 -0.011559639
0003a0 e9 c3 d1 3b 85 9e 71 ba 3a 9f 09 bc f8 dd 79 3b
       0.006401528 -0.00092170417 -0.008399779 0.0038126688
0003b0 56 41 72 3b 90 43 9e 3c 26 69 01 bc 9c ed b9 3c
       0.0036965213 0.019319326 -0.0078986045 0.022696309
0003c0 32 54 07 3c cf 8c 9a bc 7e 76 8b 3b e8 b6 67 3c
       0.00825982 -0.01886597 0.0042560687 0.014142729
0003d0 0b 80 42 bc 09 84 d6 3c e6 40 a9 3c 0f ae d7 bc
       -0.011871348 0.026186006 0.020660829 -0.026328115
0003e0 66 b1 1c 3c de cf 01 bd 97 24 ce bc 29 b6 58 bb
       0.009563779 -0.03169238 -0.025163932 -0.003306756
0003f0 17 78 7f bb a8 9f a9 3b f7 7e 94 3c f8 ef 2c bc
       -0.0038981491 0.005176503 0.018126948 -0.01055526

model.3.bias f4 [32]
000000 b5 78 8b bc da 06 6d bd e0 d9 1c bd 98 5f 37 3d
       -0.017025331 -0.057867862 -0.03829372 0.0447689
000010 80 d5 1b bd 39 6f 9a bd d0 8a 2f 3c 4f e6 98 3d
       -0.038045406 -0.07540745 0.010714248 0.07465803
000020 6c 0b b6 bb 5e 8d e9 3c a3 8e 9a 3d f5 02 83 bd
       -0.005555561 0.028509792 0.07546737 -0.063970484
000030 a6 86 a7 3c 27 01 7e bc 9d e4 71 bd 49 56 db bb
       0.020449948 -0.015503204 -0.059055913 -0.0066936356
000040 ef 1f 7b 3d c1 d4 8a bd ed 3a a7 3d c2 9d e8 ba
       0.06130975 -0.06778861 0.08165536 -0.0017747211
000050 25 a4 ed bc ef 64 f1 3c ef d4 6b 3c 9d c3 5f bd
       -0.029008934 0.029467074 0.014394029 -0.05462991
000060 10 77 62 3c 01 53 95 3d e6 f2 68 3d 31 d1 d8 3c
       0.013822332 0.07291222 0.05687227 0.026466938
000070 59 1f 7c bd b0 fd 31 3c 9f bc 4c bd 3f 41 63 bd
       -0.061553333 0.0108637065 -0.04998457 -0.055482145

model.6.weight f4 [32]
000000 2f e8 7d 3f 75 17 7d 3f cb 61 7d 3f fe 98 80 3f
       0.9918241 0.9886392 0.98977345 1.004669
000010 b8 e2 83 3f ca 0c 81 3f 7a d0 83 3f 97 76 80 3f
       1.0303564 1.0082028 1.0297997 1.0036191
000020 c9 33 82 3f de ba 78 3f 73 02 7f 3f b9 1d 7a 3f
       1.0172054 0.97160137 0.9961311 0.97701603
000030 26 2d 7d 3f 27 36 82 3f f6 cd 81 3f ae 69 7d 3f
       0.98897016 1.0172776 1.0140979 0.9898938
000040 b5 fd 80 3f c0 60 82 3f 2f ed 81 3f 61 36 80 3f
       1.0077425 1.0185776 1.0150508 1.0016595
000050 9e 7a 80 3f 85 7b 81 3f f8 f3 83 3f f9 68 7e 3f
       1.003742 1.011582 1.0308828 0.99378926
000060 d3 ae 80 3f b4 63 74 3f aa f8 7c 3f 29 f1 7e 3f
       1.0053352 0.95464635 0.9881693 0.9958673
000070 68 12 82 3f 29 e7 81 3f 9a 17 81 3f 0c 65 7d 3f
       1.0161867 1.014867 1.0085328 0.9898231

model.6.bias f4 [32]
000000 80 ac 9c bb eb d5 30 bb f7 65 e6 bb 0d 6b 7c 3b
       -0.004781306 -0.0026982974 -0.007031198 0.0038515956
000010 0a 17 62 ba 7f d1 0f bb 8d d2 fa 3b 14 27 ea 3b
       -0.0008624649 -0.0021944938 0.007654494 0.0071457718
000020 f4 d1 22 bb 16 5e db 3a 4e da ec ba e9 ad 4a 3a
       -0.002484438 0.0016736414 -0.0018070431 0.0007731603
000030 2b b7 93 b9 89 cf db bb d2 19 07 3a a4 7d 3f 3b
       -0.00028174496 -0.0067080897 0.0005153689 0.0029219175
000040 cf 28 f1 3b d9 35 93 bb 4c 38 08 3c f4 2f 90 ba
       0.007359601 -0.004492503 0.0083142035 -0.0011000619
000050 c3 20 57 bb d9 0e 69 3b d2 87 ac ba 34 6e 2e bb
       -0.0032825924 0.0035561828 -0.0013163036 -0.002661598
000060 3a bb f5 bb 16 4c 50 bb f8 35 10 bc 81 aa 0d bc
       -0.007499126 -0.0031783632 -0.00880193 -0.008646608
000070 97 d4 11 3c c8 56 64 3b 06 1b 54 bb 5e 2d 94 ba
       0.008900783 0.0034841765 -0.003236474 -0.0011305024

model.6.running_mean f4 [32]
000000 ad 47 d4 3a d8 d5 7f bb e8 cb 33 3c 2e 91 cb 3d
       0.0016195677 -0.0039037373 0.010973908 0.099398
000010 29 e9 a5 bb 8c 73 c3 bc 60 a5 03 3e b4 f7 1b 3e
       -0.0050631952 -0.023858808 0.12856054 0.1523121
000020 e4 eb 42 3d fc 6c b8 3d 0d 4e b8 3d 41 73 c2 bc
       0.047588244 0.09005162 0.08999262 -0.023736598
000030 a0 a0 bf 3c 43 3a 94 3c e3 30 62 3c 83 51 4e 3d
       0.023392022 0.018094188 0.013805601 0.050370704
000040 f2 03 3b 3d 14 3e ff bc 7b 4d 01 3e b0 5c a3 3c
       0.04565806 -0.03115753 0.12627213 0.019941658
000050 b5 23 dd bb e4 2b b5 3d b0 5a e7 3d be e5 8a bc
       -0.0067486414 0.08846262 0.11296594 -0.016955253
000060 66 74 fc 3c 06 27 8f 3d 5b 2a cd 3c bb 64 a3 3b
       0.030817222 0.06989865 0.02504461 0.0049863732
000070 9e a6 fd ba c0 11 96 3d 79 59 85 bc d3 f2 d7 3b
       -0.0019352024 0.07327604 -0.016278015 0.006590226

model.6.running_var f4 [32]
000000 de dd c4 3a 11 f5 33 39 fd 4b 88 3a 44 f3 b9 3b
       0.0015019735 0.00017162065 0.0010398623 0.0056747515
000010 3a d9 11 39 51 73 96 39 f9 1d 3b 3c 1d 87 62 3c
       0.00013909201 0.00028696147 0.01142072 0.013826159
000020 94 80 4d 3b 73 2e a8 3b 64 12 75 3b 21 a7 12 3a
       0.0031357156 0.0051324903 0.0037394995 0.0005594362
000030 80 07 bf 3a ea e3 83 3a 79 e0 a5 3a a3 7b 70 3b
       0.0014574379 0.001006243 0.0012655399 0.0036694787
000040 37 cf f7 3a 5f 5e 35 3a 35 25 e4 3b 51 34 87 3a
       0.0018906359 0.00069186644 0.0069624432 0.0010315274
000050 81 a6 1c 38 f4 67 d3 3b d5 17 0a 3c 02 fa 42 39
       3.7348367e-05 0.006451601 0.008428534 0.00018594417
000060 aa c2 19 3b e4 43 06 3b 71 61 42 3a 2e 6a dd 39
       0.0023461976 0.0020487243 0.00074150326 0.00042231515
000070 22 97 79 39 43 e2 7a 3b 8c d2 a2 39 89 90 26 3a
       0.00023802792 0.0038281835 0.00031055917 0.0006353935

model.7.weight f4 [64, 32, 3, 3]
000000 98 8a 93 ba 84 28 02 bc 98 1b 4a 3d 42 4e 3b bb
       -0.0011256514 -0.00794423 0.04934272 -0.002858058
000010 fc 8a 4d bc 16 c5 48 3d 4c e2 2b 3b 75 5c 0c bd
       -0.0125453435 0.04901608 0.0026227413 -0.03426786
000020 fb b6 f9 3c cf cd ca 3a b8 1b 74 bc b8 9e 2b 3c
       0.03048276 0.0015472713 -0.014899187 0.010474853
000030 20 bd df 3c f5 0f c1 bc ac 20 1a bd 90 0f c0 3c
       0.027311862 -0.02356718 -0.037628815 0.02344492
000040 77 04 99 3b 6c 9b d5 3b 75 0b de bc f3 05 9e 3c
       0.0046697217 0.006518772 -0.027105073 0.019289946
000050 0a 69 8c bb 74 27 4f 3d b8 28 a6 3c 72 72 83 bc
       -0.0042849826 0.050574735 0.020283088 -0.016045783
000060 82 a5 22 3d 41 f3 94 3c c4 e8 47 bd e3 76 a4 3c
       0.03970862 0.018182399 -0.048805967 0.02007622
000070 51 e9 7a bc 57 61 d4 bc 65 4f ee bc 98 3b 00 bd
       -0.015314416 -0.025925322 -0.029090593 -0.031306833
000080 9a fc 83 bc 15 72 ca bc ab be ce bc 0e ed 38 bd
       -0.01611166 -0.024712602 -0.025237402 -0.045147948
000090 cf 11 85 bc 0b 45 48 bc 2d 4c 48 3b 4a 94 18 3c
       -0.016243843 -0.012223492 0.0030562982 0.009312699
0000a0 1e 67 82 3b 56 9a 56 3c 4f cb 5c 3c 22 68 8c bc
       0.0039795777 0.01309832 0.013476207 -0.017139498
0000b0 67 ed 04 bd e1 28 0b 3c ec e5 14 3d a1 90 c4 bb
       -0.032452967 0.008493633 0.036352083 -0.0059986864
0000c0 d9 ec 76 3c a0 86 cf bc 76 f3 9b bc f4 66 0f bb
       0.015071117 -0.025332749 -0.01903699 -0.0021881433
0000d0 cb d3 1b bb 17 1b 9e 3c a8 26 19 3c c4 67 f4 3c
       -0.0023777361 0.019300027 0.009347595 0.029834636
0000e0 c9 da ab 3b c7 4a 66 3c d9 f5 22 3d 92 27 a2 3c
       0.005244587 0.014055914 0.03978524 0.01979426
0000f0 44 01 0e bd 8b ca 65 bb 04 ed c5 bc d2 83 5d bb
       -0.034669176 -0.0035063352 -0.02416087 -0.0033800495
000100 aa 70 ac bb 52 af 37 3b 8d 43 24 3d bc 9c a7 3c
       -0.005262454 0.0028028083 0.040103484 0.020460479
000110 d9 5e 01 bc 1c 06 5c bb 25 c3 57 3c b6 23 73 3c
       -0.007896149 -0.0033572977 0.013169085 0.014840057
000120 0a 24 08 3c 07 56 73 bc a8 82 dd bc f2 3c b3 3c
       0.008309374 -0.0148520535 -0.02703984 0.021879647
000130 a5 66 32 bc 7a 63 9b 3c 3c 1a c0 ba c5 79 80 3c
       -0.01088873 0.018968333 -0.0014656256 0.015683064
000140 c8 d3 df 3b 9b 20 20 3d 6a ba 34 3d db 2f ad bc
       0.006830666 0.039093595 0.04412309 -0.021140983
000150 b4 24 6d 3a 09 e1 8d 3c 8e e8 60 3a 1a d0 3a 3c
       0.0009046302 0.01731922 0.0008579575 0.011402154
000160 2e 7a 4b bc 4a a3 cf bc 57 c8 b0 bb 52 e2 27 3d
       -0.012419267 -0.025346417 -0.005394976 0.04098732
000170 06 40 fb 3c c3 49 c1 bc f1 cb 1c 3d 1e 3c bc bb
       0.030670177 -0.023594743 0.03828043 -0.005744471
000180 1f 4c 44 bb a2 1d cf 3c f0 f3 a6 bc 05 35 df 3b
       -0.0029952598 0.025282685 -0.02037999 0.0068117403
000190 1c 72 07 bc 39 d0 f5 bc 51 cf 93 3c 2c 47 90 bb
       -0.008266952 -0.030006515 0.018043192 -0.0044030156
0001a0 52 c5 28 bc fa 8a 03 3c 2e 18 35 bc 79 e7 9b bc
       -0.010300951 0.00802874 -0.011053128 -0.019031273
0001b0 4f 09 e1 3c 1f eb b5 3b b1 ba a5 3c 02 70 1b bd
       0.027470259 0.0055517103 0.020230623 -0.037948616
0001c0 be 17 b9 ba 75 3f cb 3b bd ae 4f bc a3 51 ac bc
       -0.0014121456 0.006202633 -0.012675938 -0.021035021
0001d0 ec 16 c7 bc cf dd 05 bd b4 c4 08 3d 8a c3 08 bd
       -0.024302922 -0.032682236 0.033390716 -0.033389606
0001e0 bf fd d7 3c db 98 ab bb d0 42 5c 3c 6c f7 bc 3c
       0.026366113 -0.0052367277 0.013443664 0.023067199
0001f0 fa 07 0a 3d b6 1a 28 3c 78 ad b7 bc 89 f8 cc bc
       0.033699013 0.010260275 -0.022421584 -0.025020855
000200 6c 80 f4 bb e9 bd eb 3a e3 65 b1 3c 5f 37 3d bc
       -0.007461598 0.0017985675 0.021655029 -0.011548846
000210 0f 71 cf bc d7 41 3f 3d d7 cb 47 3c 64 0d f0 3c
       -0.025322465 0.04669365 0.012194595 0.02930326
000220 62 9e 5f 3c e3 af b1 bc b9 0b eb 3b a1 e7 2e bd
       0.013648601 -0.021690315 0.0071730283 -0.042701367
000230 a4 0f 14 bc e0 95 13 3d eb 97 50 3b 42 05 4c 3c
       -0.009036932 0.036031604 0.0031828831 0.012452425
000240 ec ba b2 3c a0 c5 2f 3b ac da cd 3c 37 3b 4a 3c
       0.021817647 0.0026820675 0.025128685 0.0123432195
000250 a7 95 01 3c 03 fe 12 3c ef c6 e7 bc c5 a7 46 3c
       0.007909215 0.008971694 -0.028293101 0.01212496
000260 43 f8 76 3b 40 36 a0 b6 aa 5f cd bb 3c 90 eb 3b
       0.0037684597 -4.774687e-06 -0.0062675076 0.007188825
000270 c9 8b 1e bc 85 0e 55 3c fa ab 40 bc 76 a5 32 3d
       -0.009676882 0.01300395 -0.011759752 0.043614827
000280 b0 82 fe 3b b8 e3 87 bb de ee 1e 3c c8 48 58 bd
       0.007767044 -0.0041470192 0.009700505 -0.052803785
000290 9a 24 ac 3c b1 ca 11 bc ca 88 a6 bc 4f b4 82 3b
       0.021013547 -0.008898423 -0.020328898 0.0039887796
0002a0 75 10 0c bd cc 76 2b bc d6 c0 3e 3b 68 79 42 3c
       -0.034195382 -0.010465335 0.0029106638 0.011869766
0002b0 4f 56 0c 3d 56 eb 02 bd 3a d1 2f 3c 04 b9 34 bc
       0.034261998 -0.031962715 0.010731036 -0.011030439
0002c0 b3 5d a0 3c ca 03 a5 38 f9 db 29 3d 95 bf 1c bc
       0.01957593 7.868519e-05 0.041469548 -0.009567161
0002d0 25 75 2a 3d 02 48 b9 ba d7 16 09 bc 74 5e 44 bc
       0.041615624 -0.001413584 -0.008367262 -0.01198541
0002e0 96 61 fb 3c 84 32 99 bb 83 fe 93 bc c4 4a 2a 3c
       0.030686181 -0.0046752114 -0.018065697 0.010393802
0002f0 16 9f b8 3b 38 41 2a 3c ac a9 af 39 6e a0 02 bc
       0.005634199 0.010391526 0.00033505016 -0.00797282
000300 24 97 2e bb 73 3e ca bc a1 f2 58 3c 4e 96 8e 3c
       -0.002664038 -0.024687981 0.013241441 0.017405655
000310 28 67 fd bb 3c 21 fd bc 23 3c 1c b9 e3 96 1a 3d
       -0.0077332444 -0.030899636 -0.00014899722 0.037741553
000320 cb b4 c2 3c 63 60 8b 3c 6d 46 3e 3d 0e 4d 00 3c
       0.02376785 0.017013734 0.046453882 0.007830871
000330 cd 90 0a bd 33 c4 0e 3c b3 80 9a 3b 85 90 34 bc
       -0.0338295 0.00871377 0.004715049 -0.011020784
000340 3f 9b 87 bc 3c ee 87 3c 5c b8 1f 3c 6e b0 b3 3c
       -0.01655352 0.016593091 0.009748545 0.021934714
000350 ab 4f fc 3c 22 46 67 bc e2 f5 42 3c 89 d2 ab bc
       0.030799707 -0.014115842 0.011899443 -0.020974414
000360 3d b5 14 3c 77 2f 90 3c df 46 84 3c a0 26 28 bc
       0.009076414 0.017600758 0.016147075 -0.010263115
000370 e4 6f 99 3c 30 66 03 3c 7a 02 62 bc 13 23 b7 3c
       0.018730111 0.008019969 -0.013794536 0.022355592
000380 c9 f1 13 bd ec 90 c5 3c 73 61 e8 bb 19 62 04 3c
       -0.036119256 0.024116956 -0.007091695 0.008080029
000390 ed b5 4d bc b4 7f a4 3b 46 95 72 bc 46 14 62 bc
       -0.0125555815 0.005020106 -0.014806097 -0.013798779
0003a0 ff 22 5a bd 70 89 f7 3c fc 19 1e 3c 8b ec be 3b
       -0.05325603 0.030216902 0.00964975 0.005826538
0003b0 94 db 3b bc 38 b5 4a 3c 8d 38 c2 bc 59 e4 d6 3b
       -0.011465926 0.0123723075 -0.023708606 0.006557983
0003c0 89 b7 86 3c f7 71 f4 bb ff f7 c8 bb 15 56 5c bd
       0.016444938 -0.0074598747 -0.006133079 -0.05379303
0003d0 7a 52 58 bc ee 53 9c 3c 42 29 56 bc a1 bd 29 3c
       -0.013203258 0.01908299 -0.01307136 0.010360152
0003e0 81 19 90 bc ad f7 8e 3b 8a 55 9e bc 59 6b a8 3c
       -0.017590286 0.0043630213 -0.019327898 0.020559
0003f0 0b 03 e4 3c 81 7d 46 3c 26 9f b3 bc 1f 77 c7 bc
       0.027833482 0.012114883 -0.021926474 -0.024348794

model.7.bias f4 [64]
000000 1b 51 44 bd dc bf 2a 3c 7d d4 23 bd ac 38 da bc
       -0.04792891 0.010421719 -0.039997566 -0.026638351
000010 cc a2 01 3d 0b 7e 42 3d b1 65 2c bc e5 9d 37 bd
       0.031649396 0.047483485 -0.010522292 -0.044828314
000020 e8 12 34 bd e4 03 ba 3c 70 c6 58 bd b9 b8 3d bd
       -0.043963343 0.022706933 -0.05292362 -0.046318743
000030 6e a6 d9 3c b8 a8 10 bd 4d 5b b8 bc 06 bd 58 3b
       0.026568618 -0.035317153 -0.022504473 0.003307165
000040 46 9d 4f 3d 82 9e 6b bd d3 d7 85 3b b9 f4 42 3a
       0.050687097 -0.05752421 0.004084566 0.0007436979
000050 5d aa 43 3d 8d 52 1a bd 41 57 18 bb 25 24 3f 3b
       0.047769893 -0.037676383 -0.0023245367 0.002916583
000060 a1 19 d9 bc 00 f4 36 bb 18 b3 d4 bb c6 18 8b 3c
       -0.026501479 -0.0027916431 -0.006491076 0.016979586
000070 b6 8f 33 3c 85 88 36 3d 80 69 11 3d ac 6e fe bc
       0.010959556 0.04456379 0.035501003 -0.031058632
000080 cb 5f 31 3c 82 f9 32 3c 05 53 27 3d 93 fe 1b 3c
       0.0108260615 0.010923745 0.040850658 0.009521144
000090 b7 57 e9 3c 1a a4 a0 bc 4c ff 0f 3d c0 b1 26 bc
       0.028484209 -0.0196095 0.03515558 -0.010174215
0000a0 74 46 b7 3c 3a 39 16 3d 47 ae 43 3d 17 2a b9 bc
       0.022372462 0.03667567 0.047773626 -0.022603078
0000b0 44 93 fb bc ff 90 4f 3d 02 c7 50 3d e9 90 1c bc
       -0.03070987 0.05067539 0.05097104 -0.009556034
0000c0 51 1b ce bc af f9 c4 3c 63 09 26 bd 2b 10 26 bd
       -0.02515951 0.02404484 -0.040536296 -0.040542763
0000d0 34 5d 23 3d 83 2e 08 bb 3f 28 85 bc 8e a3 9d 3c
       0.039883807 -0.0020779676 -0.016254542 0.019243028
0000e0 6d 11 1f 3d f3 38 4d 3d 3d d6 6f 3d b9 01 a3 bc
       0.038834978 0.05010314 0.058553923 -0.019898282
0000f0 32 c7 77 bc b7 2b 84 bc 63 76 1a 3d dd 76 c5 bb
       -0.015123175 -0.016134126 0.03771056 -0.0060261325

model.10.weight f4 [64]
000000 92 14 79 3f 7b 1c 7e 3f 72 36 7b 3f 5e de 7f 3f
       0.9729701 0.9926221 0.9812995 0.9994868
000010 56 26 7d 3f 09 4a 7e 3f ed 3b 7c 3f 7b 96 81 3f
       0.9888662 0.9933172 0.9852894 1.0124048
000020 09 9f 83 3f 54 11 80 3f 1b 13 81 3f 2f 90 7f 3f
       1.0282909 1.0005288 1.0083956 0.9982938
000030 6a 34 83 3f 85 82 7f 3f 97 bd 85 3f 55 6f 7a 3f
       1.025037 0.9980853 1.0448483 0.9782613
000040 59 73 7c 3f 00 33 80 3f aa 2e 76 3f cb b7 7a 3f
       0.98613507 1.0015564 0.96164954 0.97936696
000050 1d b7 80 3f a2 22 7d 3f 6f 7c 83 3f 18 20 84 3f
       1.0055882 0.9888097 1.0272349 1.0322294
000060 1b 08 83 3f 82 17 7e 3f 0d 71 7b 3f 7b 60 77 3f
       1.0236849 0.9925462 0.98219377 0.9663159
000070 62 a0 7f 3f 70 26 80 3f 9f 68 7f 3f 61 73 80 3f
       0.998541 1.001173 0.99769014 1.0035211
000080 4b 2b 79 3f a7 ca 81 3f b4 3f 7e 3f b2 6e 7d 3f
       0.97331685 1.013997 0.99315953 0.9899703
000090 a4 83 72 3f 7b 28 7a 3f 2d 25 7d 3f d2 e5 81 3f
       0.9473212 0.9771802 0.9888485 1.014826
0000a0 a8 2d 87 3f 36 7f 81 3f 36 d3 80 3f 80 fb 81 3f
       1.0560808 1.0116947 1.0064456 1.0154877
0000b0 ca 29 7d 3f 71 bd 7d 3f f6 7c 7b 3f a4 d4 81 3f
       0.9889189 0.9911719 0.9823755 1.0143018
0000c0 6c 8c 82 3f eb 1d 84 3f 6a 0b 83 3f c8 43 7d 3f
       1.0199103 1.032163 1.0237858 0.9893155
0000d0 5b 3f 7f 3f a8 d0 7c 3f b3 2f 81 3f 06 58 7a 3f
       0.9970605 0.98755884 1.0092682 0.97790563
0000e0 c6 01 7e 3f 64 e0 80 3f 2b 95 7d 3f 4a 25 81 3f
       0.99221456 1.0068479 0.9905574 1.0089505
0000f0 cb 89 81 3f 16 26 7c 3f 1d f7 7c 3f d5 8b 83 3f
       1.0120176 0.98495615 0.98814565 1.0277048

model.10.bias f4 [64]
000000 d0 7c 0a b9 fa 71 90 39 a8 37 0c ba bd 6f 8f ba
       -0.00013207202 0.0002755074 -0.00053488696 -0.0010943335
000010 75 e1 5a bb 06 56 ee 3a a3 7c 9e ba 72 d5 05 bb
       -0.0033398543 0.0018183596 -0.0012091588 -0.0020421413
000020 fd bb 14 bb 08 67 65 ba fe 08 fa ba 06 62 da 3b
       -0.0022695058 -0.00087510096 -0.0019076166 0.0066645173
000030 1a ae 6b 39 60 4a 4b bb 2e 41 61 bb 89 84 b4 bb
       0.00022476204 -0.0031019673 -0.0034371126 -0.0055089635
000040 ab 01 5b 3b 1b 5e ae 3b d7 a5 a6 3a de 34 5f bb
       0.0033417742 0.005321277 0.0012714219 -0.003405861
000050 8e 5b a0 3a b8 3c 8f bb 63 dd af 3a 5a 4b ca bb
       0.0012234317 -0.004371252 0.0013417419 -0.0061735334
000060 e3 51 f1 b8 ea 46 8e bb d3 9b 35 ba cc d6 97 39
       -0.00011507028 -0.0043419497 -0.00069278217 0.00028961
000070 d9 9b 32 3a 47 de 7e bb e8 c6 c5 ba a2 a3 48 3a
       0.0006813384 -0.0038889812 -0.0015089186 0.0007653778
000080 a8 03 c7 3b b0 67 22 3b 8e db 2b 3b 36 b6 03 bc
       0.006073434 0.002478104 0.0026223394 -0.008039048
000090 8f fa b5 3a a8 17 3f 3a 76 83 d0 ba 60 27 92 ba
       0.0013883876 0.0007289597 -0.0015908319 -0.0011150651
0000a0 3d 74 3d bb 53 5d 11 3a 0a fc 9b 3b f6 35 8b 3a
       -0.0028908395 0.00055452174 0.00476027 0.001062094
0000b0 9d cb 31 bb 4a 8c fe 3a e0 22 ce 3a ee 32 a7 39
       -0.002712942 0.0019420472 0.0015726946 0.00031890668
0000c0 82 1a 24 3b bb 68 bb ba e1 99 16 bb 35 fc 14 bb
       0.0025040214 -0.001429818 -0.0022979903 -0.0022733335
0000d0 68 e1 a3 3a 5f 11 08 bb d2 e3 02 bb 9f 73 27 ba
       0.0012503089 -0.0020762307 -0.0019972217 -0.00063877733
0000e0 29 f0 a5 ba c0 2f f1 b8 dc 46 f3 3a e3 0b 37 3b
       -0.0012660074 -0.0001150067 0.0018560546 0.002793067
0000f0 c4 43 ca 3a ea 7e 40 ba 96 0f a1 3b 6e 67 2a 3b
       0.0015431573 -0.00073431304 0.004915188 0.002600159

model.10.running_mean f4 [64]
000000 d9 40 1a bc c9 4b 83 3c 96 5e e2 bb 94 ee be b9
       -0.009414875 0.016027348 -0.006908248 -0.0003641738
000010 ef 70 06 3d 79 a3 2d 3d b5 b0 96 b9 0c ef 00 bc
       0.032822546 0.042392228 -0.00028741886 -0.007869493
000020 5e 99 a8 ba 03 54 d5 3c 31 e2 44 bc 7d 7f ab bb
       -0.001286309 0.026041036 -0.012016819 -0.0052337036
000030 05 14 12 3d a0 f1 84 bb 71 97 1b bb e2 dd 63 3c
       0.035663623 -0.0040571243 -0.002374139 0.013907881
000040 15 f1 67 3d ae bf 44 bc 5e 29 49 3c 9c 38 b9 3b
       0.056626398 -0.012008591 0.012277929 0.0056525003
000050 a2 ae 57 3d 8f 96 00 bb a3 ca 21 3c f3 22 1b 3c
       0.052656777 -0.001962099 0.0098749725 0.009468782
000060 ae 64 86 bb ea 10 48 3c 44 ec 5a 3b 04 72 73 3c
       -0.0041013574 0.012211064 0.0033404985 0.014858726
000070 0d ec 93 3c 8b 75 39 3d 76 5a 27 3d 6c 3f cc bb
       0.018056894 0.045278113 0.040857755 -0.0062331464
000080 78 46 ab 3c 3e bb 3f 3c 22 22 31 3d 62 76 9c 3c
       0.020907626 0.011702357 0.043245442 0.019099418
000090 41 3c fc 3c 50 ac 13 3a 2b a3 0b 3d 04 4f 9a 3b
       0.03079045 0.00056332815 0.034091156 0.0047091264
0000a0 5c a4 b1 3c f4 7c 1e 3d 69 7b 59 3d fa 2c 5a bb
       0.021684818 0.038693383 0.05309621 -0.0033290968
0000b0 07 fa 8e bb ee 9c 5c 3d 91 66 51 3d ef d8 f5 b9
       -0.0043633017 0.053860597 0.051123206 -0.0004689167
0000c0 2b 14 e1 3b 9b a7 dc 3c 5d 68 ef bb 90 72 fb bb
       0.0068688593 0.02693539 -0.0073061422 -0.007673569
0000d0 7b 63 20 3d b7 a5 19 3b 41 3f d3 ba 6c 81 ae 3c
       0.039157372 0.002344472 -0.0016116874 0.021301948
0000e0 ee 9a 1e 3d 7b 44 31 3d c6 96 73 3d 64 34 2b bb
       0.03872197 0.0432782 0.05946996 -0.0026123757
0000f0 f2 2c 11 3b 69 b3 d9 3b 84 68 25 3d b0 79 82 3b
       0.0022152034 0.006643702 0.040382877 0.0039817914

model.10.running_var f4 [64]
000000 d4 03 fd 38 46 96 44 3a b2 5c 1f 39 8e 82 09 3a
       0.00012064693 0.0007499199 0.00015197953 0.00052455894
000010 82 7c a4 3a 35 40 a9 3a 6c e6 fe 38 ad 49 4c 38
       0.0012549313 0.0012912812 0.00012154583 4.8706006e-05
000020 ef 66 78 3a 38 59 ae 3a c6 94 86 38 c3 e4 59 3a
       0.00094757875 0.0013301736 6.417329e-05 0.0008311981
000030 f1 fc e2 3a 88 de a5 39 75 25 ee 38 15 d8 97 3a
       0.0017317814 0.0003163705 0.00011355701 0.0011584783
000040 5b 73 05 3b 9a 73 75 38 ca eb 07 3a 2b e1 4a 39
       0.0020362947 5.8520214e-05 0.00051849766 0.00019348103
000050 8f 95 d7 3a a3 d0 62 3a c0 70 19 3a 5d 5f dd 39
       0.001644777 0.0008652305 0.0005853288 0.00042223456
000060 af 61 03 39 3c 22 92 3a 84 27 5e 39 49 84 09 3a
       0.00012529524 0.0011149119 0.0002118629 0.0005245847
000070 4e c8 8a 3a 90 27 d8 3a 66 9f 06 3b 5f bf 51 38
       0.001058826 0.0016491283 0.0020541786 5.000771e-05
000080 91 be 8c 3a 2b 13 73 39 c7 fe 95 3a 1b 64 85 3a
       0.0010737946 0.00023181427 0.0011443727 0.0010176928
000090 04 8e 98 3a ab 32 6a 39 63 18 ad 3a ae 81 a9 39
       0.0011639004 0.00022334854 0.001320612 0.0003233081
0000a0 36 57 50 3a bf df ef 3a 65 08 6d 3b dc 2a 0b 39
       0.0007947566 0.0018300934 0.0036168334 0.0001327204
0000b0 b0 d4 1c 39 4c f7 10 3b 9d f2 a9 3a da 1a c7 38
       0.00014956552 0.0022120057 0.0012965981 9.494061e-05
0000c0 0e 67 cc 3a 7c 51 a5 3a 76 8d d9 38 73 e1 f5 38
       0.0015594678 0.0012612785 0.000103737155 0.000117245036
0000d0 d1 c4 83 3a 1b a7 ec 38 8e 29 29 39 cf a8 05 3a
       0.0010053163 0.00011284483 0.00016132576 0.0005098702
0000e0 ee be 9c 3a b5 82 c0 3a cf 3a f5 3a 82 d8 37 39
       0.0011958757 0.0014687391 0.0018709543 0.00017532895
0000f0 c9 a8 5d 39 cc 43 9a 3a 0e ee e6 3a b1 b7 54 39
       0.0002113908 0.0011769473 0.0017618553 0.00020286326

model.11.weight f4 [128, 64, 3, 3]
000000 45 41 12 3d 38 67 0d bc 35 80 7d bc 7b a5 49 3c
       0.035706777 -0.008630566 -0.0154724615 0.01230752
000010 06 77 89 3a 3e e6 f9 bc dd e7 9c bc d2 9a e3 3c
       0.0010487742 -0.030505296 -0.01915353 0.027783785
000020 38 f1 c0 3c ce b0 23 bd 38 76 bc bc 61 a7 0d bd
       0.023552522 -0.039963536 -0.02300559 -0.034583453
000030 1f d9 20 3d 0c 3f 96 3c c4 06 6f 3b a0 8f b8 bb
       0.039269563 0.01834061 0.0036472538 -0.005632356
000040 5e ec 49 bc e5 9d bf bc 8e bb 0e bd 8b 6b ab bc
       -0.012324421 -0.02339072 -0.034846835 -0.020925304
000050 62 c0 17 3d d3 de cb 3c ab 85 a8 3b 0b 3f 12 bc
       0.037048705 0.024886524 0.0051428876 -0.008926163
000060 68 56 91 3c 43 b4 ed 3c 0f 9d 25 39 1c b2 99 bc
       0.017741397 0.02901662 0.00015794135 -0.018761687
000070 14 42 9d bc 89 bb db bc f1 b4 05 bd 68 86 81 bc
       -0.019196548 -0.026822822 -0.032643262 -0.01581116
000080 95 52 f8 3c 5f 68 52 3c 90 fb f9 3c 9b 0d 00 bd
       0.030312816 0.012842267 0.030515462 -0.031262975
000090 54 36 4b bb 8b 0c 55 3b 07 07 e1 bc 0e 41 87 3c
       -0.0031007724 0.0032508697 -0.027469171 0.016510513
0000a0 e3 07 d8 3b 88 0c 8d bc 50 8b d9 bb 30 26 79 3c
       0.006592737 -0.01721789 -0.006638922 0.0152068585
0000b0 12 45 1b 3c a0 8a 26 3c 38 c4 7a 3c 40 79 95 3a
       0.009476917 0.010164887 0.015305571 0.0011403933
0000c0 ae 65 c9 3c 6a d5 01 3d d5 7d 2d 3c 88 08 53 3c
       0.024584617 0.031697668 0.010589083 0.012880452
0000d0 e6 53 bd 3c 90 b3 c0 bb 41 aa 18 3d 4b 50 91 bc
       0.023111295 -0.0058807805 0.03727174 -0.017738482
0000e0 08 a7 08 3c da 4e 28 3c 32 9a 1d 3c 73 cb 04 bc
       0.008340605 0.010272706 0.009619283 -0.008105147
0000f0 cf c1 3e 3a d2 de 85 3c c5 08 11 3c 2d f7 bc ba
       0.00072768045 0.0163416 0.0088521885 -0.0014416926
000100 76 39 13 3b e1 9f 18 3c 02 57 47 bb 13 dc 01 bc
       0.002246467 0.009315462 -0.003041685 -0.007926005
000110 2e 08 05 3d 53 49 46 bb 04 27 c6 bc 55 5b 30 3d
       0.032478504 -0.0030256107 -0.024188526 0.04305585
000120 87 e6 33 3c f9 75 98 bb 55 2e 6a 3c e7 82 1b bd
       0.010980255 -0.0046527353 0.014293273 -0.037966635
000130 82 07 08 bc c6 80 4a 3b 0c c2 41 bb 6b 07 e2 3c
       -0.008302571 0.003089951 -0.0029565124 0.027591428
000140 f6 a8 33 bd 53 3a 81 bc da 3d 02 3d 13 33 99 3c
       -0.043862306 -0.015774881 0.031797267 0.018701112
000150 05 90 e3 bb bd d8 03 bd c1 9f d5 3c f5 1d 4d 3c
       -0.0069446587 -0.03218912 0.026077153 0.012519349
000160 23 b5 c7 3b 36 80 ca bc 08 f7 c9 3c e4 79 01 3d
       0.006094591 -0.024719339 0.024653926 0.031610385
000170 0b 36 66 3c 98 63 bb 3b 48 82 22 3c 62 1c 95 3c
       0.014050971 0.0057186596 0.009918757 0.01820201
000180 95 ad 6d 3c 7b 14 62 3c 2d e7 0e 3d 29 d8 96 3c
       0.014506717 0.013798828 0.034888435 0.01841362
000190 e1 f5 d6 bc 07 74 ae 3c a5 49 0e 3d 3a 31 7f 3c
       -0.026240291 0.02129556 0.0347382 0.015575701
0001a0 ca 19 6e bb be 8d ae 3b 70 ae 0e bc 26 34 98 bc
       -0.003633129 0.0053269556 -0.008708581 -0.018579554
0001b0 eb 87 c3 bc 02 bd 80 3c 18 ba 67 3c 3e ba b0 3c
       -0.023868522 0.015715126 0.014143489 0.021573182
0001c0 2b a0 22 bd 55 f7 20 3d f3 cb be bc 8c 05 68 3b
       -0.03970353 0.039298374 -0.02329061 0.0035403697
0001d0 46 a4 f2 3c 0b de 17 bd 04 0c 04 3d 06 1a 8d 3b
       0.029619347 -0.03707699 0.03223802 0.0043060808
0001e0 f1 14 85 3c 03 07 16 3d 4b 6b f3 bc 33 1f 8d 3b
       0.016245337 0.03662778 -0.029714247 0.0043066978
0001f0 9c 00 08 bc 4c f6 51 bc 5c 66 ce 3c 23 fe bf 3c
       -0.008300927 -0.012815069 0.025195293 0.023436612
000200 b1 7a 21 3d 10 35 db 3c d2 af 47 bc e8 5f 80 bc
       0.03942365 0.0267587 -0.012187915 -0.015670732
000210 10 8a e3 bb 50 b2 8c 3c 7f 2a d8 3c 66 d0 36 bc
       -0.0069439486 0.01717487 0.026387451 -0.0111580845
000220 7a 3f 6b bc 74 f3 a9 bb e4 42 00 3c 5d a4 c7 3c
       -0.014358396 -0.0051864926 0.007828448 0.024370367
000230 e7 20 15 bc bf bb ac 3c 0c 86 28 bd ee f9 6a bc
       -0.009102083 0.021085618 -0.041143462 -0.014341814
000240 1d 07 92 bc 11 63 1d bc 18 b3 26 bc 0b 78 29 3c
       -0.017825658 -0.009606139 -0.010174535 0.010343562
000250 b7 06 f2 b9 2f 97 38 3b 5f b5 86 3c ed 8a 13 3c
       -0.0004616284 0.0028166284 0.016443906 0.00900529
000260 f4 81 37 3b c0 ea 27 b9 28 3e 53 bb 73 7d 7a 3c
       0.0028001042 -0.00016013812 -0.0032233093 0.0152886985
000270 1b 7c 87 3c 40 13 b3 bb 62 33 b7 bc 12 b3 b5 3b
       0.01653867 -0.0054649413 -0.022363368 0.0055450285
000280 7b 1b 8b 3b b9 91 a4 bc 80 ba 23 b8 db 9b c8 3c
       0.0042452193 -0.020089017 -3.903592e-05 0.02448838
000290 29 d4 dd bc 74 2c 24 bd c7 07 7d bc 36 90 45 3c
       -0.027078705 -0.040081456 -0.015443749 0.012058308
0002a0 c0 d7 ff 3c 25 6f 7a bc 0d f4 ac 3c cf bf d2 3b
       0.031230807 -0.015285288 0.021112466 0.006431557
0002b0 5d 1c de 3b d0 97 29 bc f9 e1 2a 3b 8a cb d8 bc
       0.0067782835 -0.010351136 0.0026074632 -0.026464242
0002c0 94 84 29 3d 55 43 9d bc af 85 04 bd b0 07 4f bb
       0.041386202 -0.019197145 -0.032354053 -0.0031590275
0002d0 6f 7d 86 bc cf 60 a0 3c 8d d0 46 bb f4 8a 78 bc
       -0.016417233 0.019577412 -0.0030336708 -0.015169848
0002e0 a6 6e 23 bc e9 03 5d 3c 8d f6 67 3c ce c7 33 bc
       -0.009975111 0.013489702 0.014157903 -0.01097293
0002f0 9c 57 88 3c b7 f6 2a bc e1 7e 2b bc cc fc 16 3c
       0.016643338 -0.010434798 -0.010467262 0.009215545
000300 e7 9b 7c 3c c8 d0 8c ba 38 a0 69 3c 90 30 96 bc
       0.015418029 -0.0010743374 0.0142593905 -0.018333703
000310 c6 af b2 bc f6 a0 20 3c 89 74 fe bc 1c 53 8a bc
       -0.021812331 0.009804001 -0.031061428 -0.016885333
000320 c7 d1 b3 bc 6d 07 ad bc 5f 66 df bb 22 cd 81 3c
       -0.021950616 -0.021121705 -0.0068176235 0.015844885
000330 78 1b 17 3c 59 e2 8c 3c 09 9e 9f 3b bf dd 9f 3b
       0.009222858 0.017197775 0.004871134 0.004878729
000340 52 27 e4 bc 92 f5 2a 3c 36 78 26 3d a0 c8 bc bc
       -0.02785078 0.010434525 0.040641986 -0.023044884
000350 b3 23 4d 3d 52 8e 38 3c d0 48 d1 3c d3 12 5c bc
       0.050082874 0.011264401 0.025547415 -0.013432222
000360 93 59 d7 bc a6 29 a9 3c c2 f5 a8 3c 0e 85 c5 3a
       -0.02628783 0.020649742 0.020624999 0.0015069561
000370 58 da 42 bd c7 4f d3 3c 01 82 34 3b 5d 7b 06 bd
       -0.04757151 0.025794877 0.0027543309 -0.032832492
000380 75 82 69 bc 59 f7 ea 3c aa c6 2c 3a a3 02 6d 3c
       -0.014252295 0.028682398 0.00065908825 0.014465961
000390 fe 41 d2 bc b8 cc 67 bd 66 f8 fc 3c cc 1b ab bc
       -0.025666233 -0.05659172 0.030880164 -0.020887278
0003a0 74 37 93 bc 94 15 bf bc 85 81 3a bc 2f 59 95 bb
       -0.017970778 -0.023325719 -0.011383419 -0.0045577507
0003b0 57 a1 eb ba 2d 39 3e bc 0f bc f4 3b 89 cc 9b 3c
       -0.001797716 -0.011610311 0.0074687074 0.019018428
0003c0 7f a8 ef 3a eb ee 75 3c 54 12 8e bc af d4 ae bc
       0.0018284469 0.015010576 -0.017342724 -0.02134165
0003d0 d4 d1 91 bc 95 9e 3b bd 68 e9 af bc 11 64 9a 3c
       -0.01780025 -0.045805532 -0.021473601 0.018846544
0003e0 26 a0 94 3c 53 c9 90 bc 32 79 14 3c 7e c9 a9 3c
       0.018142771 -0.017674124 0.009062098 0.020725962
0003f0 08 9d 0d ba fd 75 8c bb 47 bc 08 3c 4e a9 01 3d
       -0.00054021226 -0.0042865262 0.00834567 0.031655602

model.11.bias f4 [128]
000000 99 87 ce 3c 8a 64 ed bb 49 8b 06 3c f7 88 1b 3d
       0.025211142 -0.007244651 0.008211919 0.037972417
000010 64 96 09 3d d8 b2 05 bd b1 ae 9f 3c cb 70 e5 bc
       0.03359069 -0.03264126 0.019492479 -0.028007885
000020 3b 12 ee bc 6d ba c3 3c a0 b1 a4 39 de 1e 5f 3c
       -0.029061427 0.023892606 0.00031412859 0.013618199
000030 cd 29 fe 3c ec 49 86 bc 76 96 96 3b 8c 80 89 bc
       0.031025792 -0.01639267 0.004595573 -0.016784929
000040 c4 37 f1 ba 96 a5 bc 3b 64 1e 00 3d 30 b4 bb bc
       -0.001840346 0.005757044 0.031278983 -0.022913069
000050 8a 24 f7 3b 85 a8 95 bc 28 f3 c1 bc 42 59 ac 3c
       0.0075421976 -0.018268833 -0.023675516 0.021038655
000060 80 1b 50 39 9f 14 ca 3b 56 15 23 bd a2 ea 18 bd
       0.0001984667 0.006167009 -0.03981527 -0.03733314
000070 37 6b b7 3b 48 ed 35 bd a9 22 0e 3d 85 c4 0e 3d
       0.005597498 -0.044415742 0.034701023 0.034855384
000080 4a 50 36 3d 64 01 38 bc 59 8e e9 bc fa 76 da bb
       0.044510163 -0.0112308 -0.02851026 -0.006667015
000090 99 05 1f 3d 8b 02 2f 3c 5c 96 8f 3c 2a 39 15 3d
       0.038823698 0.010681759 0.017527752 0.03643147
0000a0 eb cd a3 3c 1d 8d ca 3c ee c6 f2 3c 4d 3f 43 bd
       0.01999565 0.024725491 0.029635873 -0.04766779
0000b0 86 49 96 bc 21 f6 f7 3c b3 97 af 3b 79 59 38 bc
       -0.018345606 0.03026873 0.00535866 -0.011251801
0000c0 d0 e6 d4 3b 6e 56 83 3c 8b 48 da 3c cf 56 10 bd
       0.0064972416 0.016032424 0.02664592 -0.035239037
0000d0 98 09 7b 3c 31 df 27 3c fc 41 de 3c 3c a5 70 3b
       0.015322112 0.010246084 0.027131073 0.003671958
0000e0 db 2c 8f 3c 56 99 24 bd df f4 20 bd 30 fd 8b 3c
       0.017477443 -0.040185295 -0.039296027 0.017088503
0000f0 59 ac 5f 3c 2a 0f 13 bd 29 24 bb 3b e2 3b fb 3b
       0.013651931 -0.035903133 0.0057110977 0.0076670507
000100 75 28 5f bc 87 6a af bc 1b 92 45 3a a1 e4 9d bb
       -0.013620486 -0.0214131 0.0007536725 -0.0048185145
000110 4b af 0b 3c ab 48 2d bd 29 15 18 3d ab 2d 04 3d
       0.00852568 -0.04230563 0.037129555 0.032270115
000120 85 4f 19 bc fd 14 25 3d 23 cd 05 bb 33 1d bd bc
       -0.009357338 0.04030322 -0.002041646 -0.023085212
000130 4c 17 3e 3c 07 6d ca 3b 45 4a 6b bc ab 6d 3e bb
       0.011602234 0.006177548 -0.014360969 -0.0029057066
000140 14 69 92 3c aa 7c 9e bb 0e 27 eb 3c c7 ab 4c bc
       0.01787237 -0.0048366385 0.028705146 -0.012492127
000150 fa 47 de 3c 35 c7 28 3c eb e2 b1 bc 2e d4 9c bc
       0.02713393 0.010301401 -0.021714648 -0.019144144
000160 3a aa dd 3c c6 19 8b bc 77 27 16 bd d7 06 77 bc
       0.02705871 -0.016980063 -0.03665873 -0.015077314
000170 f7 af 0b 3c 24 5d 99 bc 24 bc 65 bc be 29 d1 bb
       0.00852584 -0.01872117 -0.014021907 -0.00638315
000180 6d 93 71 bc 4e e1 65 ba bb c5 21 bd 37 bd ab 3c
       -0.014744622 -0.000876923 -0.03949521 0.020964248
000190 43 d1 91 bc e8 e7 4c 3a d9 46 1b bd 68 aa 80 bc
       -0.01779998 0.0007816539 -0.037909362 -0.015706256
0001a0 df ab 15 bc e3 2e 0b bc 63 e8 7b 3b f7 e3 d8 bc
       -0.009135216 -0.008495065 0.0038438074 -0.02647589
0001b0 2e be be bb dc 07 2f bc bf 7d cf 3c 72 8f 07 3d
       -0.005821011 -0.010683026 0.025328515 0.033095784
0001c0 8f 7e 31 3c 94 10 11 3d 58 f2 cc 3c 02 1f 1f 3c
       0.010833397 0.0354162 0.025017902 0.009711983
0001d0 46 ea 0c 3c fb ff 88 3c 09 22 18 bd af 60 4a 3c
       0.008600777 0.016723623 -0.037141833 0.012352153
0001e0 92 cd cf 3c 2d 55 8b 3c 49 21 86 3c 55 04 dd bc
       0.025366578 0.017008388 0.016373293 -0.026979605
0001f0 19 9e b1 3c 68 7e 9e 3c 53 60 94 3c e2 07 1e bd
       0.021681832 0.019347385 0.018112337 -0.038581736

model.14.weight f4 [128]
000000 8c 2c 7b 3f 02 78 7f 3f 2f a9 80 3f bf 52 82 3f
       0.9811485 0.9979249 1.0051631 1.0181502
000010 15 a6 7d 3f 61 6b 7f 3f 9f c3 84 3f 4d d4 79 3f
       0.99081546 0.9977322 1.0372199 0.9758957
000020 48 3d 80 3f e7 b7 79 3f 23 6e 80 3f 52 44 83 3f
       1.0018702 0.9754624 1.0033611 1.0255225
000030 fc 1d 84 3f 2e 6e 80 3f f9 30 79 3f 30 45 7f 3f
       1.032165 1.0033624 0.9734035 0.99714947
000040 49 73 82 3f 20 85 7c 3f 82 ec 7b 3f 9c a2 81 3f
       1.0191432 0.9864063 0.9840776 1.012775
000050 ae 3b 7b 3f 85 8c 82 3f 2a 23 7b 3f 4a aa 79 3f
       0.9813794 1.0199133 0.9810053 0.97525465
000060 9d 25 86 3f 56 f5 80 3f e5 84 81 3f 18 c8 7c 3f
       1.0480229 1.007487 1.0118681 0.9874282
000070 5e 2d 81 3f dc 65 82 3f 64 69 80 3f f2 f8 7f 3f
       1.009197 1.0187335 1.0032163 0.99989235
000080 dc 4f 84 3f 0c c1 7c 3f b4 e3 7c 3f 45 f9 80 3f
       1.0336871 0.98732066 0.9878495 1.0076071
000090 f4 e0 7f 3f 07 37 7e 3f 62 75 80 3f 8b c2 81 3f
       0.99952626 0.99302715 1.0035822 1.0137495
0000a0 b0 66 7f 3f 3e 68 7d 3f 08 0f 80 3f 83 22 80 3f
       0.99766064 0.98987186 1.0004587 1.0010532
0000b0 35 7e 83 3f 96 5e 80 3f 01 74 83 3f 60 72 87 3f
       1.027289 1.0028865 1.0269777 1.058178
0000c0 16 ee 7c 3f 10 f3 82 3f ac d1 7a 3f 56 a7 78 3f
       0.9880079 1.0230427 0.97976184 0.97130334
0000d0 9c d6 7b 3f c5 57 80 3f f4 a7 7d 3f 58 bb 80 3f
       0.9837434 1.0026785 0.990844 1.0057173
0000e0 39 d8 83 3f e5 ac 81 3f 83 b6 82 3f 02 8e 80 3f
       1.0300361 1.0130888 1.0211948 1.0043337
0000f0 dc 9a 84 3f ca d3 7e 3f b3 98 81 3f 79 33 81 3f
       1.0359759 0.99541914 1.0124725 1.0093833
000100 3d a3 7a 3f 14 45 84 3f 7e 4a 80 3f aa e7 7e 3f
       0.9790533 1.0333581 1.0022733 0.9957224
000110 8a 93 80 3f 6b 7f 81 3f a1 af 82 3f 9b 5a 81 3f
       1.0045025 1.011701 1.0209848 1.0105776
000120 b8 6f 7c 3f 57 de 84 3f 73 57 83 3f 90 98 80 3f
       0.9860797 1.0380353 1.0261062 1.0046558
000130 93 14 7e 3f 87 68 78 3f 12 da 7b 3f b7 34 85 3f
       0.99250144 0.97034496 0.98379624 1.0406712
000140 c3 30 80 3f c7 34 7b 3f 64 5b 7d 3f 66 50 86 3f
       1.0014881 0.98127407 0.98967576 1.0493286
000150 3c a5 81 3f 9e ca 7f 3f 45 7e 80 3f 5e 2a 7b 3f
       1.012855 0.99918544 1.0038534 0.9811152
000160 9a ad 7a 3f 20 5d 85 3f b4 1d 7e 3f a8 4f 84 3f
       0.97921145 1.0419044 0.99264073 1.0336809
000170 6f 30 81 3f 79 51 7d 3f 22 eb 7b 3f d9 14 7d 3f
       1.0092906 0.9895244 0.9840566 0.98859936
000180 de ce 80 3f 3c de 81 3f e3 44 7d 3f 58 6c 82 3f
       1.0063131 1.0145946 0.9893324 1.0189314
000190 7a 35 80 3f f3 e6 81 3f 40 93 80 3f 2b c8 7f 3f
       1.001632 1.0148605 1.0044937 0.9991481
0001a0 36 fc 82 3f 85 cf 80 3f b6 86 74 3f 86 b3 83 3f
       1.0233219 1.006333 0.9551805 1.0289161
0001b0 28 ea 82 3f 8a b5 7f 3f 8a d1 7f 3f 10 15 81 3f
       1.0227709 0.9988638 0.99929106 1.0084553
0001c0 ad 55 85 3f 64 73 82 3f 5c 25 83 3f 6a 01 80 3f
       1.0416771 1.0191464 1.0245776 1.0000432
0001d0 37 c7 7e 3f ba f9 83 3f 31 80 83 3f 20 09 81 3f
       0.9952273 1.0310585 1.0273496 1.008091
0001e0 ea 8f 7f 3f 7a f7 80 3f 60 57 80 3f 48 90 86 3f
       0.9982897 1.0075524 1.0026665 1.0512781
0001f0 44 b6 7f 3f 6d 03 84 3f 98 a4 7c 3f bd 60 84 3f
       0.9988749 1.0313545 0.9868865 1.0342022
