results/netD5.pth (torch_old, 405364 bytes, 21 tensors)

model.0.weight f4 [16, 3, 3, 3]
0	0xbd43bba4	-0.04778637
1	0xbd7c5ef0	-0.061613977
2	0xbd84cdc6	-0.06484561
3	0xbd61d593	-0.05513532
4	0xbdbb8b97	-0.09157484
5	0xbd988956	-0.0744807
6	0xbd2ccbd9	-0.04218659
7	0xbda4dce5	-0.08049945
8	0xbd76480a	-0.060127296
9	0xbb39523c	-0.0028277775
10	0xb9867ca3	-0.00025651333
11	0x3cb96609	0.022631662
12	0xbcb1de67	-0.021712495
13	0x3c808b6c	0.015691482
14	0xbc32476f	-0.010881289
15	0xbcac1bbb	-0.021009317
16	0x3c027e64	0.007964704
17	0xbbd58b66	-0.0065168617
18	0x3d55b3dd	0.052173484
19	0x3d82d7ca	0.06388815
20	0x3d317143	0.043320905
21	0x3da183df	0.078864805
22	0x3d9ec6e4	0.07752779
23	0x3db47f20	0.0881331
24	0x3d8619d3	0.06547894
25	0x3d98d758	0.074629486
26	0x3d8c7fb1	0.06860293
27	0xbd8946ec	-0.067029804
28	0xbd8368eb	-0.06416496
29	0xbd64ac0d	-0.055828143
30	0xbd952820	-0.07283044
31	0xbd8fdf43	-0.07025006
32	0xbd686512	-0.056737013
33	0xbcf646af	-0.030063001
34	0xbd880096	-0.06640737
35	0xbd3f5c79	-0.04671905
36	0x3b375617	0.0027974898
37	0xbd1d9d34	-0.03848
38	0x3ca920e1	0.02064556
39	0xbb98767a	-0.0046527954
40	0x3c373ac7	0.011183447
41	0x3c88dcc6	0.016706835
42	0x3d249560	0.040181518
43	0xbbb19848	-0.0054197647
44	0x3c354f0a	0.011066208
45	0x3d8daba4	0.069175035
46	0x3ce61384	0.028085478
47	0x3d5d75e2	0.0540675
48	0x3cc1a498	0.023638055
49	0x3d50a0a2	0.05093444
50	0x3d334940	0.04377103
51	0x3d3316ed	0.043723036
52	0x3d7d2019	0.06179819
53	0x3d4042e2	0.046938784
54	0x3c9469cc	0.018116854
55	0x3c673c1f	0.014113455
56	0xbd98781a	-0.074447826
57	0x3d7124a4	0.058872834
58	0x3c941ba3	0.018079584
59	0xbd1f7380	-0.03892851
60	0x3adee290	0.0017004777
61	0xbc05e6b0	-0.008172676
62	0xbc5e9d3b	-0.013587291
63	0x3c774a21	0.015093357
64	0x3bb3fd65	0.0054928535
65	0xbdb4fd9a	-0.08837433
66	0x3d46707e	0.048447125
67	0x3d06cae2	0.032908328
68	0xbd4d63a1	-0.05014384
69	0xbb596f4e	-0.0033177915
70	0xbc9c27d2	-0.019061957
71	0xbd1b9825	-0.037986893
72	0x3c48b575	0.012250294
73	0xbc06ac89	-0.0082198465
74	0xbe000ba9	-0.12504448
75	0x3ca7267b	0.020404091
76	0xbc072fc4	-0.008251134
77	0xbd370967	-0.0446867
78	0xbbfa2f7d	-0.0076350556
79	0xbc8394b5	-0.01606212
80	0xbdb36dce	-0.08761178
81	0x3d759965	0.05996074
82	0x3da9e759	0.08296079
83	0x3b3d8a3e	0.002892151
84	0x3d658eb4	0.056044295
85	0xbc3725a8	-0.011178412
86	0xbcf25330	-0.029580683
87	0xbcd26f54	-0.025687851
88	0xbd68652a	-0.056737103
89	0xbd5aa880	-0.05338335
90	0x3dc4d5c4	0.09611085
91	0x3d837abd	0.06419895
92	0xbc15e1d9	-0.009148085
93	0x3cd73fb4	0.026275493
94	0x395aab83	0.00020853993
95	0xbcc520e9	-0.024063544
96	0x3cc92105	0.024551878
97	0xbd58bd39	-0.05291483
98	0xbdd720a3	-0.10504272
99	0x3e1a2d08	0.1505624
100	0x3d35bb54	0.044368103
101	0xbd251fcb	-0.040313523
102	0x3d8d7189	0.06906421
103	0x3cb55fff	0.022140501
104	0xbd8b53a9	-0.06803066
105	0x3d3656cd	0.044516373
106	0xbd733268	-0.059374243
107	0xbdfe9736	-0.12431185
108	0xbd539b81	-0.051661972
109	0xbd969319	-0.073522754
110	0xbdab8da4	-0.08376625
111	0xbd6cba79	-0.05779502
112	0xbd9ee653	-0.077587746
113	0xbd4c24e6	-0.049839877
114	0xbdd1de40	-0.10247469
115	0xbd2e1458	-0.04249987
116	0xbcf6838c	-0.030092023
117	0x3cbacf87	0.022804035
118	0x3d22cb8e	0.039744906
119	0x3d0a46ca	0.033758916
120	0x3cfc9d59	0.030836748
121	0x3d10845c	0.035282478
122	0x3c1334a9	0.008984723
123	0x3d8fa99e	0.07014774
124	0x3c057116	0.008144638
125	0xbbb65d7b	-0.005565343
126	0x3cf5698c	0.029957555
127	0x3d099f1a	0.033598997
128	0x3d544c23	0.051830422
129	0x3cc7da28	0.024396017
130	0x3d342155	0.0439771
131	0x3d21b18d	0.039475966
132	0x3d0f89d7	0.035043564
133	0x3d07f8a8	0.03319612
134	0x3d0c59ec	0.034265444
135	0xbd2a4af8	-0.041575402
136	0xbd41651c	-0.047215566
137	0xbcf9a980	-0.030476332
138	0xbd37ebd3	-0.044902634
139	0xbdaf5b2e	-0.08562313
140	0xbd8f8982	-0.070086494
141	0xbd871312	-0.06595434
142	0xbda3a818	-0.07991046
143	0xbd58d30a	-0.052935638
144	0xbc8beed6	-0.01708166
145	0x3c8fb9b9	0.017544614
146	0xbc8cc98d	-0.01718595
147	0xbcb59c65	-0.022169301
148	0x3cff29b0	0.031147808
149	0x3d1b72a1	0.037951116
150	0x3c511f16	0.012763759
151	0x3cb92bd2	0.022603903
152	0x3d070db9	0.03297207
153	0x3d6ce693	0.05783708
154	0x3ce67ceb	0.028135737
155	0x3d3e1ef4	0.046416238
156	0x3d8609ed	0.06544862
157	0x3d63100b	0.05543522
158	0x3d02596f	0.03182357
159	0x3d5b00e0	0.05346763
160	0x3d65c274	0.056093648
161	0x3ca09b8a	0.019605417
162	0x3db9e483	0.09076788
163	0x3dadd456	0.084877655
164	0x3dac1f8b	0.08404454
165	0x3da32aa8	0.079671204
166	0x3ddc873b	0.10767981
167	0x3daa7bdd	0.08324406
168	0x3dcbdd03	0.09954264
169	0x3dca0256	0.09863727
170	0x3dadc628	0.08485061
171	0xbba0301d	-0.004888548
172	0xbc9eff15	-0.019408742
173	0xbc979c4d	-0.018507147
174	0xbc87cb34	-0.016576387
175	0xbc9306f2	-0.017947648
176	0x3a783de2	0.00094696705
177	0xbbc60259	-0.0060427603
178	0xbc6ddbc4	-0.014517728
179	0xbcb9e145	-0.022690425
180	0xbd915d62	-0.070978895
181	0xbd887175	-0.06662265
182	0xbd7366b0	-0.059424102
183	0xbd777359	-0.06041274
184	0xbdbddb0c	-0.092702955
185	0xbdae614b	-0.08514651
186	0xbda17dcb	-0.07885321
187	0xbdb22575	-0.086985506
188	0xbd699b84	-0.057033077
189	0xbd7be8e7	-0.06150141
190	0xbdc3d4b7	-0.095620565
191	0xbca1e30c	-0.019761585
192	0xbdca2cf9	-0.09871859
193	0xbd1658b7	-0.0367057
194	0x3d2fb4b1	0.04289693
195	0x3bc242d2	0.0059283758
196	0x3d6391fe	0.05555915
197	0x3df1b533	0.11802139
198	0xbd8dafbb	-0.069182836
199	0xbce0545a	-0.027383972
200	0xbc87981c	-0.016552024
201	0xbd90f9c0	-0.07078886
202	0x3b9b757f	0.0047442312
203	0x3d5cd014	0.053909376
204	0x3d666908	0.05625251
205	0x3d33def7	0.043913808
206	0x3d8f91b0	0.070102096
207	0xbd1bb411	-0.03801352
208	0xbc7d54a1	-0.015462072
209	0xbc17a660	-0.0092559755
210	0xbda7c346	-0.08191542
211	0xbc897b90	-0.016782552
212	0x3dd71d96	0.1050369
213	0x3c9951ae	0.018715706
214	0x3d81d824	0.06340054
215	0x3de592da	0.1120965
216	0xbb52d625	-0.0032171097
217	0xbb88f3f8	-0.004179474
218	0x3d9cc5e8	0.07654935
219	0xbd1b4d11	-0.037915293
220	0xbd6b1b9c	-0.057399377
221	0x3cbca5ff	0.023028372
222	0x3d2bf34f	0.041980084
223	0xbd5d7f1a	-0.05407629
224	0xbd9aa054	-0.075501114
225	0xbd08272f	-0.033240493
226	0x3c7f458e	0.015580548
227	0x3db34548	0.08753449
228	0xbd4e8f0d	-0.050429393
229	0xbb9babf4	-0.004750723
230	0x3d8f7961	0.07005573
231	0x3da0905c	0.07840034
232	0xbd46183e	-0.048362963
233	0xbd63e1ef	-0.05563539
234	0xbd204fce	-0.039138608
235	0x3bace97e	0.005276858
236	0x3d923368	0.07138711
237	0xbd40c3db	-0.047061782
238	0xbcb23ade	-0.021756586
239	0x3d893374	0.06699267
240	0x3d6738d2	0.056450672
241	0xbd42bb76	-0.047542058
242	0xbd2d811f	-0.042359468
243	0xbd034d27	-0.032056
244	0x3c7b9b48	0.015356846
245	0xbc25c36b	-0.010117392
246	0xbc4b1601	-0.012395383
247	0x3d059aac	0.03261821
248	0xbcdfe448	-0.027330533
249	0xbde110ee	-0.10989557
250	0xbd913ae7	-0.07091313
251	0xbd948040	-0.07251024
252	0xbcf300ec	-0.029663526
253	0x3c861506	0.016367447
254	0x3ba9851b	0.005173338
255	0xba17a627	-0.00057849515

model.0.bias f4 [16]
0	0x397ac172	0.00023913922
1	0x3db9c5c9	0.09070928
2	0x3d867a87	0.06566339
3	0xbda14bcb	-0.078757845
4	0xba3a3878	-0.00071037514
5	0xbae4f9ec	-0.0017469502
6	0xbc46bbdf	-0.012129753
7	0xbe261515	-0.1621898
8	0xbd21919f	-0.039445516
9	0x3d3603a7	0.044437077
10	0xbe1dcbd9	-0.15409793
11	0xbdef8b65	-0.11696509
12	0xbe023353	-0.12714891
13	0xbd2b9b6c	-0.04189627
14	0xba87d3ed	-0.0010362841
15	0xb9fcb965	-0.00048203315

model.3.weight f4 [32, 16, 3, 3]
0	0xbc83efda	-0.016105581
1	0xbd52a65a	-0.051428176
2	0xbd178213	-0.036989283
3	0xbcab2647	-0.020892275
4	0xbd9c8005	-0.07641605
5	0xbd275994	-0.040856913
6	0xbb56ed25	-0.0032795158
7	0xbd6c07da	-0.057624675
8	0xbcd8eee6	-0.026481103
9	0x3d01e9e7	0.031717207
10	0xbcee0f5b	-0.029060056
11	0xbdb94cb3	-0.09047832
12	0x3d63027c	0.05542229
13	0xbcd0b2ae	-0.025475826
14	0xbd72e519	-0.059300516
15	0x3d034fc3	0.03205849
16	0xbce78a78	-0.02826427
17	0xbc84b019	-0.016197251
18	0xbd6093c2	-0.054828413
19	0xbdd5ad68	-0.10433465
20	0xbd3ad9c8	-0.04561785
21	0x3c5d3ad4	0.013502795
22	0xbd4ea5ae	-0.050450973
23	0xbca15412	-0.019693408
24	0x3d217184	0.039414898
25	0x3a7af024	0.0009572527
26	0xbcfa0302	-0.030519012
27	0x3d445424	0.047931805
28	0xbca6c1d5	-0.020356098
29	0x3ccc185a	0.024913955
30	0xbd02d9d2	-0.03194601
31	0xbdb4eb8d	-0.0883399
32	0xbd49ae9b	-0.049238782
33	0xbc931315	-0.017953435
34	0xbdb210e7	-0.0869463
35	0xbdd4745b	-0.103737555
36	0x3b59f598	0.0033257958
37	0xbd82e2ae	-0.06390892
38	0xbd12e98a	-0.03586725
39	0xbc1a774e	-0.0094278585
40	0xbd639f58	-0.055571884
41	0xbc92de4f	-0.01792827
42	0x3c3a5b57	0.011374316
43	0xbd4b733e	-0.04967045
44	0xbd2d1c42	-0.042263277
45	0xbc87b61d	-0.01656633
46	0xbd8b5558	-0.068033874
47	0xbbf44695	-0.007454703
48	0xbcc2430e	-0.023713615
49	0xbda7b3a0	-0.081885576
50	0xbc7f019e	-0.01556435
51	0x3d20080f	0.039070185
52	0xbcc56c60	-0.024099529
53	0x3ca474e3	0.020075267
54	0xbd6a56a5	-0.057211537
55	0x3ce59535	0.028025249
56	0x3d7e49c0	0.062082052
57	0xbd5253cb	-0.051349442
58	0x3c6ca699	0.014444017
59	0x3d4a08ef	0.049324926
60	0xbd11f0cf	-0.035630044
61	0x3d0e4d7a	0.034741856
62	0xbba961c1	-0.005169124
63	0x3db31ec5	0.08746103
64	0x3da21055	0.07913271
65	0x3bed81e7	0.0072481516
66	0x3b94f17a	0.004545388
67	0x3d149dc0	0.036283255
68	0xbd34178c	-0.04396777
69	0x3bcd1740	0.006258875
70	0x3cdc1774	0.026866652
71	0x3d04c314	0.032412603
72	0x3e27a17e	0.16370198
73	0x3daea426	0.085274026
74	0xbc8af9a9	-0.01696475
75	0x3e22e069	0.15905918
76	0x3dc1af6d	0.09457288
77	0x3d6a3cbf	0.05718684
78	0x3dab0fbe	0.08352612
79	0x3e15f1dc	0.14643043
80	0x3db4667d	0.088086106
81	0x3d86ac15	0.06575791
82	0x3dab9d67	0.083796315
83	0x3d634512	0.055485792
84	0x3d029e58	0.03188929
85	0x3d8fdbfe	0.07024382
86	0x3cf9ea29	0.030507164
87	0x3cd49e89	0.025954502
88	0x3d5aa129	0.05337635
89	0x3d26c4c5	0.040714998
90	0x3db77e96	0.08959691
91	0x3d0bd797	0.03414115
92	0xbbb2a1d4	-0.0054514203
93	0x3ccd207d	0.025039906
94	0xbc2a373b	-0.0103891445
95	0xbd58c7be	-0.052924864
96	0xbc9af4aa	-0.018915493
97	0xbd21cabf	-0.039499994
98	0xbd568513	-0.052373003
99	0xbd5710a8	-0.05250612
100	0xbd618c3e	-0.055065386
101	0x3d57c9bb	0.05268262
102	0x3cd9278b	0.026508113
103	0xbbbad52f	-0.005701683
104	0x3d9db532	0.07700576
105	0x3d50cefd	0.05097865
106	0xbc777dda	-0.015105689
107	0x3cded6d4	0.027202047
108	0x3d90b104	0.07065013
109	0x3ce63525	0.028101513
110	0xbd727e55	-0.05920251
111	0x3c8cbcd1	0.017179878
112	0x3c8e3401	0.017358782
113	0xbda0581a	-0.07829304
114	0x3d16f5fe	0.03685569
115	0xbc37bb03	-0.011214021
116	0xbd41f0db	-0.04734884
117	0x3d0c02b8	0.03418228
118	0x3cab4d2e	0.020910826
119	0xbd3f85f1	-0.046758596
120	0xbc5f75a6	-0.013638889
121	0xbb7d0d2f	-0.0038612594
122	0xbcd58e3b	-0.026068797
123	0xbd6be5f2	-0.05759234
124	0xbc5a2807	-0.013315207
125	0xbd401d2e	-0.046902828
126	0xbd8aac72	-0.067711726
127	0xbd8b6c8f	-0.06807815
128	0xbd1bf7dc	-0.038078174
129	0xbd07cc6b	-0.033153933
130	0xbd31f3f9	-0.04344556
131	0xbb45fe91	-0.0030211548
132	0xbd4541cd	-0.048158456
133	0xbd64490d	-0.05573373
134	0xbc05f852	-0.00817688
135	0x3c50db93	0.012747663
136	0xbdc1279b	-0.09431382
137	0xbcf82887	-0.030292762
138	0x3b2da249	0.0026494435
139	0xbd6179b1	-0.055047695
140	0xbce51888	-0.027965799
141	0x3d0fef37	0.035140242
142	0xbd011913	-0.031518053
143	0xbc6cbaf2	-0.014448868
144	0x3dcbca01	0.099506386
145	0x3daae448	0.083443224
146	0x3d2c6a19	0.04209337
147	0x3ddb31dd	0.1070287
148	0x3d4d7443	0.050159704
149	0x3cb3d219	0.021950768
150	0x3dd8113c	0.10550162
151	0x3d3a3815	0.04546364
152	0x3b5615f5	0.0032666896
153	0x3dbf0431	0.09326971
154	0x3d2c5134	0.04206963
155	0xbbac8c93	-0.005265781
156	0x3d9281a2	0.07153632
157	0x3ca61228	0.02027233
158	0xbcd31af6	-0.025769692
159	0x3d655c89	0.05599645
160	0x3c4d6549	0.012536355
161	0xbc3ddc26	-0.011588132
162	0x3cf82d42	0.030295018
163	0xbb91da40	-0.0044510663
164	0x3c9e3314	0.019311465
165	0x39668f91	0.00021987992
166	0xbb185859	-0.0023246019
167	0x3a982a1f	0.0011609233
168	0xbb588311	-0.0033037106
169	0xbbea3e0a	-0.007148509
170	0xbb86467e	-0.004097759
171	0x3c926385	0.01786972
172	0x3c898851	0.016788634
173	0xbcb48f05	-0.022040853
174	0x3ca0e6c0	0.01964128
175	0x3cd155b2	0.025553558
176	0xbc9bad14	-0.019003429
177	0xbb56f48b	-0.0032799568
178	0x3a5a874b	0.00083362
179	0xbcb96eb5	-0.022635797
180	0x3e1d9748	0.1538974
181	0x3dfd3f84	0.1236563
182	0x3d200a33	0.039072227
183	0x3dc6a2ed	0.096990444
184	0x3d806cdf	0.062707655
185	0xbd8c2b1d	-0.06844161
186	0x3dc5ab8a	0.09651859
187	0x3c34f9a2	0.011045845
188	0xbcd655c4	-0.026163943
189	0x3dc15f6f	0.09442031
190	0x3d5ce4e3	0.05392922
191	0x3bab1f9d	0.0052222745
192	0x3ddcd82f	0.10783421
193	0x3cc39a9e	0.023877438
194	0x3c2072a5	0.009792958
195	0x3dcd4f2b	0.10024866
196	0x3cf5d610	0.0300093
197	0x3c459f03	0.012061837
198	0x3c200453	0.009766656
199	0xbc92cabc	-0.017918937
200	0x3ce47d31	0.027891727
201	0xbd57553d	-0.052571524
202	0xbc9e92ca	-0.019357104
203	0x3d2ff9a7	0.042962696
204	0xbd0dc351	-0.034610096
205	0x3d0e35b8	0.0347192
206	0x3df8c214	0.121463925
207	0x3c363a0d	0.011122239
208	0xbb9a6600	-0.0047118664
209	0x3d016e77	0.031599488
210	0xbcbaba94	-0.022794046
211	0xbc4f3ffa	-0.012649531
212	0x3bed8cd4	0.007249454
213	0x3b5c27fd	0.003359317
214	0xba12e525	-0.0005603603
215	0xbba23a32	-0.004950785
216	0x3c3e96df	0.01163265
217	0x3a17d14f	0.0005791382
218	0xbb1862d0	-0.0023252256
219	0xbc9b44d4	-0.018953718
220	0xbbcd30ac	-0.0062619057
221	0xbb0a52a6	-0.0021106391
222	0xbd65a614	-0.056066588
223	0xbcb46253	-0.02201954
224	0x3c4183f5	0.011811246
225	0x3d768779	0.06018779
226	0x3c0ba399	0.008522891
227	0x3c44ca5d	0.012011138
228	0x3d0f38c2	0.034966238
229	0x3c7d4985	0.015459423
230	0xbc06868f	-0.008210792
231	0x3d1a5ad1	0.037684266
232	0x3c8fa43a	0.017534364
233	0xbcc42360	-0.02394265
234	0xbcd46c1d	-0.025930459
235	0xbd1db257	-0.038500156
236	0x3b83995a	0.0040160837
237	0xbd82e947	-0.0639215
238	0xbd1edbcf	-0.038783845
239	0x3c35ff83	0.011108282
240	0xbd3d5b6b	-0.04622976
241	0xbcd574b6	-0.026056629
242	0xbc4dd86e	-0.012563808
243	0x3c9f308b	0.019432327
244	0x3b9e0224	0.0048220325
245	0xbc84d380	-0.016214132
246	0x3be7c736	0.0070733083
247	0xbbc887fb	-0.0061197258
248	0xbc7e3592	-0.015515702
249	0x3c051e62	0.00812492
250	0xbc5833ce	-0.013195945
251	0xbc293a73	-0.010328877
252	0x3c80b907	0.015713228
253	0x3b8f519c	0.0043737423
254	0x39a42092	0.00031304784
255	0x3ca92ef5	0.020652274

model.3.bias f4 [32]
0	0xbc859114	-0.01630453
1	0xbd3caf5f	-0.046065684
2	0xbd128bfd	-0.035778034
3	0xbcc59ea6	-0.024123501
4	0xbc00e6c1	-0.007867516
5	0xbce146c1	-0.027499558
6	0xbda427dc	-0.08015415
7	0xbdcf6cc1	-0.10128165
8	0xbd16c7f4	-0.036811784
9	0xbd08059c	-0.033208475
10	0xbd967300	-0.07346153
11	0xbd648886	-0.05579426
12	0xbc491b62	-0.012274595
13	0x3cf4e1cc	0.029892825
14	0xba726b13	-0.00092475227
15	0xbdc13df4	-0.09435645
16	0x3c0c0965	0.008547162
17	0x3d025e66	0.031828307
18	0x3dbb2b41	0.091391094
19	0xbab9d956	-0.0014179151
20	0xbcc6d8b1	-0.024273248
21	0xbd3b4bcf	-0.045726594
22	0xbda32b06	-0.079671904
23	0xbd53a0d3	-0.051667046
24	0xbd43bd5a	-0.047788
25	0xbdbdaab3	-0.09261074
26	0x3d781d19	0.060574625
27	0xbb9e8e51	-0.004838743
28	0xbdbdb36c	-0.09262738
29	0xbd8876a0	-0.06663251
30	0x3d00af2b	0.031417053
31	0x3c74b70d	0.014936221

model.6.weight f4 [32]
0	0x3f8927e7	1.0715302
1	0x3f820ce2	1.0160182
2	0x3f84b93f	1.0369033
3	0x3f83d7a1	1.030018
4	0x3f83aad2	1.0286505
5	0x3f8627e5	1.0480925
6	0x3f8df6ad	1.1090904
7	0x3f8169ab	1.0110372
8	0x3f8275a7	1.0192155
9	0x3f87694f	1.0579013
10	0x3f8a59fc	1.0808711
11	0x3f8a27f9	1.0793449
12	0x3f84f92f	1.0388545
13	0x3f89a016	1.0751979
14	0x3f83f0b4	1.0307832
15	0x3f8bce80	1.0922394
16	0x3f8750ad	1.0571495
17	0x3f842497	1.0323666
18	0x3f8b0c6f	1.086317
19	0x3f8568b0	1.0422573
20	0x3f92c452	1.1466162
21	0x3f843930	1.0329952
22	0x3f84ac2f	1.0365046
23	0x3f883fb6	1.0644443
24	0x3f88ae5f	1.0678214
25	0x3f8937ba	1.0720131
26	0x3f89fe58	1.0780745
27	0x3f89a4a1	1.0753366
28	0x3f824aff	1.0179137
29	0x3f956baf	1.1673487
30	0x3f852f5b	1.0405077
31	0x3f7f5900	0.9974518

model.6.bias f4 [32]
0	0xb98d08d6	-0.000269002
1	0xbbca9513	-0.006182322
2	0x3d08ab53	0.033366513
3	0x3cf7a2b3	0.030228948
4	0x3cf66c36	0.030080896
5	0x3d0b8c78	0.03406951
6	0xbc594079	-0.01326
7	0x3d4f583f	0.050621267
8	0x393fba77	0.00018284643
9	0xbd04de4e	-0.03243857
10	0xbd033bc0	-0.032039404
11	0xbca7dc1a	-0.020490695
12	0xbd60c376	-0.054873906
13	0xbc8aa3df	-0.016923843
14	0xbc83ce2c	-0.016089521
15	0xbcbce0b7	-0.023056371
16	0x3c855327	0.016275002
17	0x3a27f226	0.00064066274
18	0xbd4b78f4	-0.049675897
19	0x3cf7ad7b	0.03023409
20	0x3b5053d2	0.0031788242
21	0xbc94ed4b	-0.018179556
22	0xbc8ba15b	-0.017044714
23	0x3cd93969	0.026516633
24	0x3d1c7b0d	0.038203288
25	0xbd49cb94	-0.049266413
26	0x3cacc069	0.021087842
27	0x39085157	0.00013000272
28	0xbd1ae6f0	-0.037817895
29	0x3b68acd2	0.00355034
30	0x3b22dccd	0.0024850846
31	0xbccd937f	-0.025094746

model.6.running_mean f4 [32]
0	0xba91fef4	-0.0011138604
1	0x3cd495da	0.025950361
2	0x3d291636	0.041280948
3	0x3ca45970	0.020062178
4	0x3cb3b4c7	0.021936787
5	0x3d0262e5	0.031832594
6	0xbc07bd5a	-0.008284891
7	0x3d725c3a	0.059169985
8	0x3c28cf60	0.010303348
9	0xbc7ee9e2	-0.015558692
10	0x3c2e040b	0.010621081
11	0xbc407a76	-0.011747947
12	0xbb8a1246	-0.004213604
13	0x3b409b91	0.00293896
14	0x39e6b788	0.0004400576
15	0xbcc8a25c	-0.024491481
16	0x3c4d850b	0.012543927
17	0x3d4f75bd	0.050649393
18	0xbc7602e8	-0.015015341
19	0x3d1b3e8f	0.037901457
20	0x3c397e7b	0.011321659
21	0x3cf5dbb7	0.030011995
22	0xbb662622	-0.0035117944
23	0x3c09c197	0.008407972
24	0x3cdfe497	0.02733068
25	0xbca38369	-0.019960122
26	0x3d47f669	0.04881898
27	0xbcbeb889	-0.023281353
28	0x3c0f7151	0.008755044
29	0xbc977be8	-0.0184917
30	0x3c1ddbc9	0.00963492
31	0x3d01de56	0.031706177

model.6.running_var f4 [32]
0	0x3b04b977	0.0020252147
1	0x3cdc2b4b	0.026876112
2	0x3c45292f	0.012033745
3	0x3c33652a	0.010949412
4	0x3ba25364	0.0049537886
5	0x3cce0d69	0.025152879
6	0x3b802634	0.003910804
7	0x3d1b0dcf	0.037854966
8	0x3c002e1c	0.007823493
9	0x3af2a35f	0.0018511823
10	0x3bd013a8	0.0063499995
11	0x3ad8122f	0.0016484911
12	0x3ab4a055	0.0013780693
13	0x3b387381	0.0028145018
14	0x3b7a6faa	0.003821353
15	0x3ac81771	0.0015265775
16	0x3b2517e6	0.0025191247
17	0x3c8f07fc	0.017459862
18	0x3c8f8e5e	0.01752394
19	0x3bf04f36	0.0073336614
20	0x3b4a6a80	0.0030886233
21	0x3b90c841	0.0044184034
22	0x3b8eda9a	0.0043595554
23	0x3be3886f	0.0069437544
24	0x3be24df8	0.0069062673
25	0x3acc833a	0.0015603073
26	0x3c9c1009	0.019050615
27	0x3b006888	0.0019593555
28	0x3bbb699a	0.005719376
29	0x3b05ee4f	0.0020436232
30	0x3b5bcc37	0.003353847
31	0x3bafecce	0.0053688055

model.7.weight f4 [64, 32, 3, 3]
0	0xbc84e086	-0.016220342
1	0xbd30dfeb	-0.043182295
2	0x3c9c0708	0.019046322
3	0x3bedc691	0.007256337
4	0xbc8ac36b	-0.016938886
5	0x3ccf58cb	0.025310894
6	0x3cfbd35a	0.030740429
7	0x3b198b28	0.002342889
8	0xbcbba147	-0.022904051
9	0x3d1a3441	0.03764749
10	0xbba402ac	-0.0050052013
11	0x3d64264a	0.055700578
12	0xbd1e6b58	-0.03867659
13	0xbcb17d44	-0.021666177
14	0xbd0f96a5	-0.035055775
15	0xbd0045dc	-0.031316623
16	0x3c5533bf	0.0130128255
17	0xbc264a5b	-0.010149564
18	0x3d873788	0.066023886
19	0x3d2c72c3	0.042101633
20	0x3d5ba6ef	0.053625997
21	0xbceba541	-0.028765323
22	0xbd8d69c5	-0.069049396
23	0xbdb779f5	-0.08958808
24	0x3cf45d85	0.02982975
25	0x3c30e2b8	0.010796241
26	0x3c11714f	0.0088771125
27	0x3ce6b90d	0.028164411
28	0xbd195036	-0.03743001
29	0x3c51c67b	0.012803669
30	0xba933e28	-0.0011233734
31	0xbd1def5f	-0.03855836
32	0xbca23e1c	-0.019805007
33	0x3c06d078	0.008228414
34	0xbcaca28d	-0.021073604
35	0xbb90942a	-0.004412194
36	0x3c840450	0.016115338
37	0x3c36feca	0.011169145
38	0x3d445dca	0.047941007
39	0xbc26f59f	-0.010190397
40	0xbc719dfb	-0.014747138
41	0xbcebbe2b	-0.028777203
42	0x3b9d6c3d	0.004804163
43	0xbd0421d1	-0.032258812
44	0x3bdec864	0.006798791
45	0x3bd4ccde	0.0064941486
46	0x3cff47a9	0.0311621
47	0xbc305c79	-0.010764235
48	0xbd138f08	-0.036025077
49	0x3c95e3ba	0.018297065
50	0xbd1bc2f0	-0.038027704
51	0x3d1a46da	0.037665226
52	0x3c8b8124	0.017029352
53	0xbc4976fd	-0.012296435
54	0x3d687a3b	0.056757193
55	0x3d155514	0.03645809
56	0x3d5e55d6	0.05428108
57	0xbbc3af0a	-0.005971794
58	0xbd815bbb	-0.06316324
59	0xbd138396	-0.036014162
60	0x3daaf7d3	0.0834805
61	0x3dab9b94	0.083792835
62	0x3d396397	0.045260992
63	0x3d326ad7	0.04355892
64	0x3c877f74	0.016540267
65	0x3c977f17	0.018493218
66	0xbb9fa00f	-0.0048713754
67	0xbd2a144a	-0.041523255
68	0xbd625723	-0.05525888
69	0x3bb8d412	0.005640515
70	0x3cd72cba	0.026266444
71	0xbce133d7	-0.02749054
72	0x3d83608f	0.064149015
73	0x3c69397a	0.014234895
74	0x3d5d6eaa	0.054060616
75	0x3d1861d7	0.037202682
76	0xbca62710	-0.020282298
77	0x3b84724f	0.004041947
78	0xbbcbad42	-0.0062157223
79	0x3ca10b44	0.019658692
80	0x3d252ea4	0.040327683
81	0x3de01f07	0.10943418
82	0x3ca9f8a9	0.020748453
83	0x3d610117	0.05493268
84	0x3d5534e3	0.05205239
85	0x3cc0dcfe	0.023542877
86	0xbc8ded8a	-0.017325182
87	0x3c82f0dc	0.015983991
88	0x3d9ba0bf	0.07599019
89	0xbd04b6fb	-0.032401066
90	0x3c0dab39	0.00864678
91	0x3d422e44	0.047407404
92	0x3db5ffb5	0.08886663
93	0xbd45f178	-0.048325986
94	0xbd04aad3	-0.032389473
95	0xbcbcf01f	-0.023063717
96	0xbd94bfbf	-0.07263135
97	0xbd0c7c24	-0.034298077
98	0xbc9a83cc	-0.018861674
99	0xbd23935b	-0.03993545
100	0xbc9d6b60	-0.01921624
101	0xbcd5b647	-0.026087893
102	0xbd0da989	-0.03458551
103	0xbd6d16d3	-0.057883095
104	0xbc6a8058	-0.014312826
105	0xbcf9de4f	-0.030501513
106	0xbd7e497c	-0.0620818
107	0xbc968ea7	-0.018378569
108	0x3d239577	0.039937463
109	0x3dd50ca0	0.10402799
110	0x3d947265	0.072483815
111	0x3d6b233b	0.057406645
112	0x3d6c134e	0.057635598
113	0x3d4bb61f	0.04973423
114	0x3b59bd4d	0.0033224404
115	0x3cf7df9c	0.030257992
116	0xbd4f5062	-0.05061377
117	0x3d242849	0.04007748
118	0x3d7e2de6	0.06205549
119	0x3cdbf7ad	0.0268515
120	0x3c36d4f4	0.01115917
121	0x3ca04d90	0.019568235
122	0x3d3ec8b5	0.046578128
123	0x3d749287	0.059710052
124	0x3d167591	0.036733214
125	0xbcf5149b	-0.029917052
126	0x3d4065aa	0.046971954
127	0x3d52f885	0.051506538
128	0x3c9bd118	0.019020602
129	0xbb17780b	-0.0023112323
130	0x3c2d2bd2	0.01056953
131	0xbb888685	-0.0041664266
132	0x3d15d3d8	0.036578983
133	0x3d9674c9	0.07346494
134	0x3d149790	0.036277354
135	0xba1c70f3	-0.00059677585
136	0x3cc76b90	0.024343282
137	0x3d212f1d	0.03935157
138	0x3c532cd2	0.012889104
139	0x3c6170f5	0.013759841
140	0x3c218ba3	0.009859952
141	0x3b9a5e3f	0.004710942
142	0x3abe09e5	0.0014498798
143	0xbc33b3a7	-0.010968125
144	0xbd16fec2	-0.03686405
145	0x3c8f2278	0.01747249
146	0xbc3fd373	-0.011708128
147	0x3c9cc8ad	0.019138658
148	0x3cdf1df0	0.027235955
149	0x3d3069e9	0.043069754
150	0xbbaf404c	-0.005348241
151	0xbd3f242b	-0.04666535
152	0xbbaebcf6	-0.0053325845
153	0x3d150094	0.036377504
154	0x3aed49f6	0.0018103707
155	0xbd011682	-0.031515606
156	0xbb8c5de1	-0.004283652
157	0x3c19622a	0.009361783
158	0xbbbac46a	-0.005699684
159	0x3c23cbaa	0.009997288
160	0xbccba762	-0.024860088
161	0x3c8f5746	0.01749767
162	0x3d1ce0e5	0.038300414
163	0x3d8a3d42	0.06749965
164	0x3d675773	0.056479882
165	0x3c54408d	0.012954843
166	0xbc1ef505	-0.009701972
167	0x3cd90d90	0.026495725
168	0xbd0a02b9	-0.033694003
169	0xbd898442	-0.06714679
170	0xbc61ec44	-0.01378924
171	0xbac71a8a	-0.0015190404
172	0x3c855d1f	0.016279755
173	0x3cf394e4	0.029734083
174	0xbbf1c7c3	-0.00737855
175	0xbdda78a3	-0.10667541
176	0xbd5c813a	-0.053834178
177	0x3d4395db	0.047750335
178	0x3addaac8	0.0016911859
179	0x3cd9ae19	0.026572274
180	0x3db1ca90	0.08681214
181	0x3d8a63df	0.0675733
182	0x3dd11769	0.10209543
183	0x3d73fe69	0.059568796
184	0xba96060b	-0.0011445893
185	0x3cf8df86	0.030380022
186	0x3b558ab7	0.0032583901
187	0x3bb0a4a1	0.005390719
188	0x3d9f2733	0.077711485
189	0x3d2c68fd	0.042092312
190	0x3ca93998	0.020657346
191	0x3d208c1a	0.03919611
192	0x3bc51857	0.0060148644
193	0x3a95f57d	0.0011440959
194	0xbbb42fea	-0.005498876
195	0x3d559ab5	0.052149493
196	0xbca66af4	-0.020314671
197	0xbd29baf3	-0.041438054
198	0x3d12d2af	0.035845455
199	0x3ce0328a	0.027367849
200	0x3ce1a36a	0.027543742
201	0xbd261985	-0.04055168
202	0xbdd5092a	-0.104021385
203	0xbd15a18c	-0.036531016
204	0xbd84cb57	-0.064840965
205	0xbd99cee5	-0.07510165
206	0xbd81625e	-0.0631759
207	0x3d500e0c	0.050794646
208	0x3cddaa1d	0.027058655
209	0x37ab6db2	2.043587e-05
210	0x3d0b61ea	0.034028925
211	0x3bcf118f	0.006319232
212	0xbc16dc07	-0.009207732
213	0x3b44fb72	0.00300571
214	0x3ce221ce	0.02760401
215	0xbcd2c846	-0.025730263
216	0x3de42900	0.11140633
217	0x3cfe25f6	0.03102396
218	0x3d4797fd	0.04872893
219	0x3c77b577	0.015118948
220	0xbd411492	-0.047138758
221	0x3c9697e5	0.018382976
222	0x3be323e3	0.0069317683
223	0x3c8d9d4e	0.017286923
224	0xba3aedb2	-0.0007130756
225	0x3c91ccf3	0.017797923
226	0x3d2f43c1	0.042789225
227	0x3befcf1a	0.0073183896
228	0xbd4e62c9	-0.050387178
229	0xbd307591	-0.04308087
230	0xbda496c4	-0.08036569
231	0xbd59f636	-0.05321332
232	0xbd68cdb6	-0.056836806
233	0xbcc079e6	-0.023495626
234	0xb9f7a9ba	-0.00047237967
235	0x3cc86c4e	0.024465706
236	0xbc9f819f	-0.019470988
237	0xbc019c7f	-0.007910847
238	0x3d1ce6dc	0.038306102
239	0x3d520831	0.051277343
240	0x3cdf2483	0.02723909
241	0x3d27477a	0.04083965
242	0x3c4f9eea	0.012672165
243	0xbd252383	-0.04031707
244	0xbc62a475	-0.013833155
245	0x3c2ede97	0.010673187
246	0xbceb4dde	-0.028723653
247	0x3c5f4104	0.013626341
248	0x3d07cc1b	0.033153635
249	0xbd03b04b	-0.032150548
250	0xbdb072cf	-0.08615648
251	0xbbfe558b	-0.0077616624
252	0x3e1ce96e	0.15323421
253	0x3d515732	0.051108547
254	0x3dc31cad	0.09526954
255	0x3d45e7d8	0.048316807

model.7.bias f4 [64]
0	0xbc90eeb4	-0.017691948
1	0xbc1d7fe7	-0.009613014
2	0x3b6a60a8	0.0035763178
3	0x3ca956d8	0.020671293
4	0xbd119b37	-0.035548415
5	0x3c9f4c15	0.019445458
6	0xbcbdb526	-0.023157667
7	0xbc97679a	-0.018482018
8	0xbd9fe90a	-0.078081205
9	0xbd021847	-0.031761434
10	0xbc91e76e	-0.01781055
11	0xbc2470b6	-0.010036638
12	0x3d5a3f3d	0.053282965
13	0x3ccb48df	0.024815021
14	0xbb122d38	-0.0022304785
15	0xbd2ec2d5	-0.042666275
16	0xbd874769	-0.06605417
17	0x3a251e5d	0.0006298775
18	0x3c39c816	0.011339208
19	0xbd12e252	-0.035860367
20	0xbce19c1d	-0.02754026
21	0xbce1974b	-0.027537962
22	0xbc9062e6	-0.017625283
23	0x3c8816dc	0.016612463
24	0xbc6ad422	-0.014332803
25	0xbd844e61	-0.06460262
26	0xbd07a653	-0.033117604
27	0xbcf4aaf4	-0.029866673
28	0x3c9e77de	0.019344267
29	0xbd1e4a90	-0.038645327
30	0xbd4c3529	-0.049855385
31	0xbd6d7a74	-0.05797811
32	0xbd3f73ce	-0.0467413
33	0xbd8b6b86	-0.06807618
34	0xbcec77d1	-0.028865727
35	0xbd5432dd	-0.05180632
36	0xbcbbed83	-0.022940403
37	0xbd8ba2a8	-0.068181336
38	0xbca02bbd	-0.019552106
39	0xbd4f2c40	-0.05057931
40	0x3b1bfdf9	0.0023802503
41	0xbd0cccb4	-0.034374908
42	0xbc4d5ae9	-0.012533882
43	0xbcf3df79	-0.029769646
44	0xbc5c2884	-0.013437394
45	0xbc6b0e1b	-0.014346625
46	0x3cab27ca	0.020892996
47	0xba11525c	-0.00055435835
48	0xbd5b8dc9	-0.053602014
49	0xbd7055fd	-0.058675755
50	0xbd47fe9a	-0.04882679
51	0xbd11f1a8	-0.035630852
52	0xbd455216	-0.048173986
53	0x3d548c48	0.051891595
54	0x3cb334e4	0.021875806
55	0xbd888cec	-0.06667504
56	0x3c99348a	0.01870181
57	0xbc25f7eb	-0.010129909
58	0xbcdff2e0	-0.027337492
59	0xbd3b325f	-0.045702334
60	0xbc08093e	-0.008302985
61	0xbc4e44a8	-0.012589611
62	0x3be18f91	0.0068835695
63	0xbd09e7ce	-0.03366833

model.10.weight f4 [64]
0	0x3f84b651	1.0368139
1	0x3f828e4d	1.0199677
2	0x3f80321b	1.0015291
3	0x3f84a6e9	1.0363437
4	0x3f8d37dc	1.1032672
5	0x3f80d827	1.0065964
6	0x3f802af5	1.001311
7	0x3f852771	1.0402662
8	0x3f83d272	1.0298598
9	0x3f853e79	1.040969
10	0x3f854af3	1.0413498
11	0x3f85018a	1.0391095
12	0x3f83745b	1.0269884
13	0x3f77a66f	0.9673833
14	0x3f86c260	1.0528069
15	0x3f843532	1.0328734
16	0x3f86e3f7	1.0538319
17	0x3f82ac10	1.0208759
18	0x3f80f37c	1.0074306
19	0x3f85ed05	1.0462958
20	0x3f892c17	1.071658
21	0x3f8b2c79	1.0872947
22	0x3f8697c3	1.0515064
23	0x3f886578	1.0655966
24	0x3f83ba12	1.0291159
25	0x3f8bb370	1.0914135
26	0x3f8a218b	1.0791487
27	0x3f8644f3	1.0489792
28	0x3f813bd6	1.0096385
29	0x3f8a7eea	1.0819981
30	0x3f8c8a70	1.0979748
31	0x3f7f490b	0.9972083
32	0x3f8d47f2	1.1037581
33	0x3f81d858	1.0144148
34	0x3f77ef43	0.9684946
35	0x3f7e404d	0.99316865
36	0x3f848106	1.0351875
37	0x3f85c930	1.0452023
38	0x3f8caf1f	1.0990943
39	0x3f89fe2a	1.078069
40	0x3f856e3a	1.0424263
41	0x3f7b6fa6	0.98217237
42	0x3f84395f	1.0330008
43	0x3f87464e	1.056833
44	0x3f871497	1.0553159
45	0x3f8a447e	1.0802152
46	0x3f8a3b07	1.0799264
47	0x3f7d5f26	0.9897331
48	0x3f882c97	1.0638608
49	0x3f8a503c	1.0805736
50	0x3f87b659	1.0602523
51	0x3f8e772f	1.1130122
52	0x3f8e379f	1.1110724
53	0x3f8aee46	1.0853965
54	0x3f8271ce	1.019098
55	0x3f826e46	1.0189903
56	0x3f83195a	1.0242112
57	0x3f896870	1.0734997
58	0x3f8649dc	1.049129
59	0x3f890aa7	1.0706376
60	0x3f845aae	1.0340173
61	0x3f8a7ede	1.0819967
62	0x3f84dbc2	1.0379565
63	0x3f8e1594	1.1100335

model.10.bias f4 [64]
0	0x3c4c58a9	0.01247231
1	0x3c5020b7	0.012703112
2	0x3ce4b00e	0.02791598
3	0x3d0efe54	0.034910515
4	0xbd1a120b	-0.037614863
5	0x3b18e3b2	0.0023329076
6	0x3cd8ef0b	0.026481172
7	0xbbe2a528	-0.006916661
8	0x3c723f08	0.014785536
9	0xbc6d4def	-0.014483913
10	0xbcbf865f	-0.023379503
11	0x3cda1fda	0.026626516
12	0xbc57abc0	-0.013163507
13	0x3cd62b1d	0.026143605
14	0x3c8c8e7a	0.017157782
15	0xbc218644	-0.009858672
16	0x3d64f132	0.055894084
17	0xbb879e4b	-0.004138743
18	0xbce5aa80	-0.028035402
19	0x3c0dc908	0.008653887
20	0x3be8a731	0.007100009
21	0x3d2dc2c2	0.042422064
22	0x3c607697	0.013700149
23	0xbcafdfd6	-0.021469038
24	0x3d164889	0.03669027
25	0xbc2c6246	-0.010521477
26	0xbcb7af6a	-0.022422511
27	0x3cd2ca94	0.025731362
28	0xbd3d5cbe	-0.046231024
29	0xbd46ab09	-0.048502956
30	0xbd1ebc92	-0.038754053
31	0x3c25b55a	0.010114038
32	0xbaecc49e	-0.0018063968
33	0xbd6a3a57	-0.057184543
34	0x3da77460	0.08176494
35	0x3cc2d05e	0.023780998
36	0x3ce49eca	0.027907748
37	0xbd3760bb	-0.044769984
38	0xbce18ac0	-0.027531981
39	0xbd69ce04	-0.057081237
40	0xbd2235d1	-0.039602105
41	0x3d783113	0.060593676
42	0xbba4ab45	-0.0050252997
43	0x3ce47912	0.027889762
44	0xbcfb13e0	-0.030649126
45	0xbcb06918	-0.021534488
46	0xbd91ad70	-0.07113159
47	0x3d9abb90	0.07555306
48	0xbcc74d48	-0.024328843
49	0xbd6b662d	-0.05747049
50	0x3c01e9d3	0.007929283
51	0xbd0e179f	-0.034690496
52	0xbd65382b	-0.05596177
53	0xbd267bb6	-0.040645324
54	0x3c8c6558	0.017138168
55	0xbd3aa904	-0.045571342
56	0xbbbc6d8b	-0.005750363
57	0x3c9a7581	0.018854858
58	0xb7b620e3	-2.1711405e-05
59	0xbbe96169	-0.007122208
60	0xbc9dd684	-0.019267328
61	0x3d14f1c9	0.036363397
62	0x3d658f28	0.056044728
63	0xbd369a47	-0.044580724

model.10.running_mean f4 [64]
0	0x3aeaf1f5	0.0017924892
1	0x3c858758	0.016299888
2	0x3d1215b9	0.035665248
3	0x3daa630f	0.08319675
4	0xbbe905fc	-0.007111309
5	0x3d92a52c	0.0716041
6	0x3d16f1bd	0.036851633
7	0xbb167980	-0.0022960603
8	0xbc15be13	-0.0091395555
9	0x3c64c5ef	0.013963207
10	0xbcc3ac21	-0.023885788
11	0x3d0c1e9a	0.03420887
12	0x3c00a017	0.007850668
13	0x3d331284	0.04371883
14	0x3d70e590	0.058812678
15	0x3cb5d8d4	0.022198118
16	0xbc902c1c	-0.017599158
17	0xbb57c206	-0.0032922043
18	0x3d854cc0	0.065087795
19	0xbcd155f0	-0.025553674
20	0xb9c67239	-0.00037850605
21	0x3df019ec	0.11723694
22	0xbc0af7ed	-0.008481962
23	0x3bc9b6ee	0.00615584
24	0x3b9fae02	0.0048730383
25	0xbc37f4e8	-0.011227824
26	0x3d8e45f0	0.06946933
27	0x3bce38d8	0.0062933974
28	0x3cc87cc8	0.024473563
29	0xba979cc4	-0.0011567106
30	0xbc8534d0	-0.016260535
31	0x3c881c89	0.01661517
32	0x3c1e5566	0.009663915
33	0xbcddc71d	-0.027072484
34	0x3d034e9a	0.032057382
35	0xbce2bd97	-0.027678294
36	0x3d28a5f5	0.041173894
37	0xbce5b04a	-0.028038163
38	0xbbd0d769	-0.006373335
39	0xbd09bf36	-0.03362962
40	0xbbf19081	-0.0073719625
41	0x3bbbf30b	0.00573576
42	0xbbf00273	-0.0073245107
43	0xbca2abdf	-0.019857345
44	0xbc7ab55f	-0.015302031
45	0xbbcaf562	-0.0061938027
46	0x3cafd7ee	0.021465268
47	0x3db2a9bf	0.08723783
48	0xbd15f07c	-0.036606297
49	0xbd2e1f65	-0.04251041
50	0xbc3a1077	-0.011356465
51	0xbc6e8db7	-0.014560155
52	0xbc2b9329	-0.010472097
53	0x3d91ed94	0.071253926
54	0x3d24899f	0.04017031
55	0xbc5253ae	-0.012837334
56	0x3c9639a3	0.01833803
57	0x3d78ec3d	0.06077217
58	0xbac04e77	-0.0014671822
59	0xbc42cb20	-0.011889249
60	0x3a1c4646	0.00059613993
61	0x3bec624a	0.0072138654
62	0x3d8e71be	0.06955288
63	0xbcc4ef39	-0.024039852

model.10.running_var f4 [64]
0	0x3b466f53	0.0030278757
1	0x3b6d5adf	0.0036217493
2	0x3bd7d11a	0.006586206
3	0x3c6e80ab	0.014557044
4	0x3bfb4e09	0.0076692146
5	0x3ca598c0	0.020214438
6	0x3c98f6b8	0.018672332
7	0x3b44d5b1	0.0030034597
8	0x3c3dd34b	0.011586021
9	0x3c616153	0.013756114
10	0x3b2bd4eb	0.0026219438
11	0x3b93b37a	0.0045074793
12	0x3ba1eb15	0.004941354
13	0x3bfbc443	0.0076833083
14	0x3c336011	0.010948197
15	0x3cc589f1	0.024113627
16	0x3b771018	0.0037698802
17	0x3b7ea6ec	0.0038856817
18	0x3c15b3cb	0.009137104
19	0x3bb3de54	0.00548915
20	0x3b957e91	0.004562207
21	0x3da12a4b	0.07869395
22	0x3b7e23e6	0.0038778721
23	0x3c6cf41b	0.014462496
24	0x3b273596	0.0025514117
25	0x3c4d0229	0.012512722
26	0x3c77bc8b	0.015120636
27	0x3c67b0fc	0.014141317
28	0x3b5e5888	0.003392728
29	0x3bb0bcb6	0.00539359
30	0x3b567e94	0.0032729255
31	0x3c73181b	0.01483729
32	0x3c08cd68	0.008349754
33	0x3a97ce87	0.0011581936
34	0x3c1660b3	0.009178328
35	0x3b852b54	0.004064003
36	0x3c7f085e	0.01556596
37	0x3b388991	0.0028158168
38	0x3c48fb4e	0.012266947
39	0x3ba2eae8	0.0049718507
40	0x3b1dbfd5	0.002407064
41	0x3bf55304	0.007486703
42	0x3b199e56	0.0023440323
43	0x3ad52126	0.0016260489
44	0x3aff8bfb	0.0019496673
45	0x3b1a03bf	0.0023500768
46	0x3c42b570	0.011884078
47	0x3c886422	0.01664931
48	0x3b7c9e84	0.003854663
49	0x3b32d253	0.0027286008
50	0x3b5b407d	0.0033455186
51	0x3b2d1590	0.0026410557
52	0x3bbb322a	0.005712767
53	0x3c5439f4	0.01295327
54	0x3c358cba	0.011080915
55	0x3c26bd56	0.010176977
56	0x3bd3dee2	0.0064657787
57	0x3c454afd	0.012041804
58	0x3b306ede	0.002692155
59	0x3c8c8522	0.017153326
60	0x3c415da5	0.011802112
61	0x3bc15b62	0.0059007863
62	0x3c2ac084	0.010421876
63	0x3b211ca6	0.0024583726

model.11.weight f4 [128, 64, 3, 3]
0	0x3c751588	0.014958747
1	0x3b9733f8	0.0046143495
2	0xbc977e2c	-0.01849278
3	0xbc4f141d	-0.012639073
4	0xbc866296	-0.016404431
5	0xbd3bb934	-0.04583092
6	0x3c404d2c	0.011737149
7	0xbd159c9d	-0.03652631
8	0xbb97eae9	-0.004636158
9	0xbd967147	-0.07345825
10	0x3bfe0b59	0.0077528176
11	0x3d75bc25	0.05999388
12	0xbd333ce9	-0.04375926
13	0x3c3cd520	0.011525422
14	0x3cd38a55	0.025822798
15	0x3a944193	0.0011311047
16	0x3d5b1940	0.053490877
17	0x3ccda654	0.025103725
18	0x3c9ca513	0.019121682
19	0xbb120198	-0.0022278782
20	0xbda8ad62	-0.08236195
21	0xbc51d5ce	-0.012807323
22	0x3d555f54	0.052092865
23	0x3d6b0040	0.057373285
24	0xbd7e8b80	-0.062144756
25	0x3b89da87	0.0042069587
26	0x3d98bc05	0.07457737
27	0xbb5b07b6	-0.0033421344
28	0x3d369876	0.04457899
29	0x3d0a4090	0.033752978
30	0xbc96d446	-0.018411767
31	0x3d0e1fd0	0.034698308
32	0x3cc9e94b	0.024647376
33	0xbd8e03ea	-0.0693434
34	0xbda9af33	-0.0828537
35	0xbd104af8	-0.035227746
36	0x3b476030	0.0030422322
37	0xbcce5622	-0.025187556
38	0xbc8dcf7f	-0.017310856
39	0x3cc812af	0.024422972
40	0x3c80a667	0.015704347
41	0xbd5eda0e	-0.054407172
42	0xbc23c2ad	-0.009995145
43	0x3ccecbc2	0.025243644
44	0x3c27a407	0.010231978
45	0x3d5ae7c0	0.05344367
46	0x3b48c746	0.0030636354
47	0xbb40b4cb	-0.0029404636
48	0xbc2c1101	-0.010502101
49	0xbd320ae8	-0.043467432
50	0xbd822dce	-0.06356393
51	0x3ca17133	0.019707298
52	0x3d75f821	0.060051087
53	0x3c8166cc	0.015796088
54	0x3d12cfe5	0.035842795
55	0x3c46719a	0.012112046
56	0x3b4ca55b	0.003122649
57	0x3a887b53	0.001041273
58	0x398bda5b	0.00026674833
59	0xbd1b753e	-0.037953608
60	0x3d74629b	0.05966435
61	0x3c924714	0.017856158
62	0x3d1069db	0.0352572
63	0xbc02394e	-0.007948233
64	0xbd4cae17	-0.049970713
65	0xbd24f7e4	-0.04027547
66	0x3c83f560	0.016108215
67	0xbc95ef40	-0.01830256
68	0x3c0254c4	0.00795478
69	0x3ca16d1a	0.019705344
70	0x3d50a9f2	0.050943322
71	0x3d972098	0.07379264
72	0x3acccc32	0.001562482
73	0x3d1ee935	0.038796622
74	0x3d0eeebf	0.034895655
75	0xbc097331	-0.00838928
76	0xbcdc8c07	-0.026922239
77	0xbc918892	-0.017765317
78	0xba2997a3	-0.0006469434
79	0x3d4d7fa1	0.050170545
80	0xbc1de8e0	-0.009638041
81	0xbd1869d2	-0.037210293
82	0xbc9c5bf4	-0.019086815
83	0x3c55e32d	0.013054651
84	0x3ca1eb7d	0.01976561
85	0xbd8eb145	-0.06967405
86	0xbc13eb19	-0.00902822
87	0xbcc169f5	-0.023610095
88	0x3ca5512c	0.020180307
89	0x3ca7b8c1	0.02047384
90	0x3ba40b87	0.005006257
91	0x3c9ca2bd	0.019120568
92	0xbab256b0	-0.0013606157
93	0x3a4d8ae3	0.0007840825
94	0x388ccfe6	6.714444e-05
95	0xbcb5a497	-0.02217321
96	0xbaf82102	-0.0018930736
97	0xbc423bc1	-0.011855067
98	0x3bd4412f	0.006477497
99	0xbd5deead	-0.054182697
100	0x3d57dc11	0.052700106
101	0x3d5bb278	0.053636998
102	0x3bf376ac	0.0074299183
103	0x3d92f208	0.0717507
104	0x3c8b03fd	0.016969675
105	0x3b53aee2	0.0032300283
106	0x3d815ac8	0.06316143
107	0xbc2bc854	-0.010484774
108	0xbd6b665b	-0.05747066
109	0x3ce53541	0.027979495
110	0xbd11594d	-0.035485554
111	0x3d146647	0.03623035
112	0x3ca05f46	0.01957668
113	0x3ce6ca87	0.028172744
114	0xbc8c48a3	-0.01712448
115	0x3c802e56	0.015647095
116	0xbc2b2f6b	-0.010448317
117	0xbc66ff85	-0.014099007
118	0xbd4bb5da	-0.049733974
119	0x3c78a33a	0.015175635
120	0xba542478	-0.00080925925
121	0xbd22601e	-0.039642446
122	0xbca82389	-0.020524757
123	0x3d04ff7f	0.032470223
124	0x3d31ffaf	0.04345673
125	0xbcacf12b	-0.021111092
126	0x3baff0ca	0.0053692805
127	0x3cc00147	0.02343811
128	0x3bd03f3b	0.006355194
129	0xbbf04841	-0.007332832
130	0x3d4c00ff	0.049805637
131	0x3d81970f	0.0632764
132	0xbbeca7eb	-0.007222166
133	0x3d029e66	0.03188934
134	0x3ce6a3fb	0.028154364
135	0xbb33030e	-0.0027315053
136	0x3d651b0c	0.055933997
137	0xbd32adc3	-0.043622743
138	0xbd2bf0fe	-0.041977875
139	0x3c250bb1	0.010073588
140	0x3bb4f3d9	0.005522233
141	0x3d5180d2	0.051148243
142	0x3c09a4ee	0.008401139
143	0xbd5474b7	-0.05186912
144	0xbc35f73c	-0.011106309
145	0xbceac299	-0.028657245
146	0xbc964923	-0.018345421
147	0xbc603e41	-0.0136867175
148	0xbd3ab4ff	-0.045582768
149	0xb9dbb275	-0.00041903896
150	0x3ca5ac3d	0.020223731
151	0xbd16ba09	-0.03679851
152	0x3b87281d	0.004124655
153	0x3bba8e55	0.005693237
154	0xbc1dd379	-0.009632939
155	0x3d2e1e14	0.042509153
156	0x3c384d7e	0.011248944
157	0xbb6e39b9	-0.0036350323
158	0xbbebada1	-0.007192329
159	0x3c0d2a16	0.008615991
160	0xbcca54c1	-0.024698617
161	0xbd3de607	-0.04636195
162	0x3c2da822	0.010599168
163	0x3c774972	0.015093194
164	0xbc122ac4	-0.008921329
165	0xb9cbeb1b	-0.00038894344
166	0xbcea2115	-0.028580228
167	0x3d6ce341	0.057833914
168	0x3c03428f	0.008011474
169	0xbde2bab6	-0.110707685
170	0xbcd81103	-0.0263753
171	0xbd8f29d6	-0.069904014
172	0xbadab93d	-0.0016687285
173	0xbcbaade1	-0.02278799
174	0x3c9acfef	0.018897979
175	0x3cdea667	0.027178956
176	0x3d5ae52a	0.053441204
177	0xbc8bbe93	-0.017058646
178	0xbd4e9056	-0.05043062
179	0xba9b7fea	-0.0011863683
180	0xbcb0842c	-0.0215474
181	0xbd2eefba	-0.04270909
182	0xbc00c385	-0.0078591155
183	0xbc5df1e0	-0.013546437
184	0xbc2bed14	-0.010493536
185	0x3c7db2f4	0.01548456
186	0xbcb741e1	-0.02237028
187	0x3d1f8748	0.038947374
188	0xbd1429b0	-0.03617257
189	0x3c39165a	0.011296833
190	0xbcec638e	-0.028856065
191	0xbd4d30f1	-0.050095502
192	0xbcece40c	-0.028917335
193	0xbd3e98d8	-0.046532482
194	0xbd4be10b	-0.049775165
195	0x3d29f279	0.041491006
196	0x3d2552f2	0.040362306
197	0xbcad79fc	-0.02117633
198	0x3cb653fe	0.022256847
199	0xbc0f4bcf	-0.0087461015
200	0xbd1bc375	-0.0380282
201	0xbcb3d25a	-0.02195089
202	0xbd5a80a3	-0.053345334
203	0xbcd7eec6	-0.026358973
204	0xbd907f01	-0.07055474
205	0xba16dbdd	-0.0005754808
206	0x3ca280dd	0.019836837
207	0x3d893117	0.06698816
208	0x3b27870b	0.002556267
209	0x3cbdbf16	0.023162406
210	0x3bdfce34	0.0068300012
211	0x3ce9849a	0.028505612
212	0x39856c27	0.00025448317
213	0x3ce35444	0.027750142
214	0x3d51e3cf	0.051242646
215	0x3d1447aa	0.036201157
216	0x3ba094d8	0.004900556
217	0xbd4c5552	-0.049886055
218	0xbd4f77b1	-0.050651256
219	0xbd43b412	-0.04777915
220	0x3caa5b53	0.0207955
221	0xbccf04e3	-0.025270885
222	0xbd5f49c4	-0.054513708
223	0xbd30ae0d	-0.043134738
224	0x3aefb196	0.0018287178
225	0x3ae4342c	0.0017410568
226	0xbc295f33	-0.010337639
227	0xbd414fc8	-0.047195226
228	0xbd020ea5	-0.031752247
229	0x3ccda54b	0.025103232
230	0xbc50a8fb	-0.012735601
231	0xbcc4e3c6	-0.024034392
232	0x3d16fb7f	0.03686094
233	0x3bd2dc08	0.006434921
234	0xbc7da42e	-0.015481038
235	0xbceb08ce	-0.028690722
236	0xbd5288ef	-0.05140012
237	0xbd69e825	-0.057106156
238	0x3c6dbe10	0.014510646
239	0x3c3f7203	0.011684897
240	0x3d9bf668	0.07615358
241	0x3d127e74	0.035765126
242	0x3bfbcea7	0.007684547
243	0x3d599e85	0.05312969
244	0x3bb318a3	0.0054655834
245	0x3d25eb64	0.04050769
246	0xbc37a60f	-0.011209025
247	0xbd9f94c4	-0.07792047
248	0xbd1ace46	-0.037794374
249	0xbc1825f4	-0.0092863925
250	0xbd3afd28	-0.045651585
251	0xbc7a180d	-0.015264523
252	0x3cd17ea1	0.025573077
253	0x3c7fa394	0.015602965
254	0xbd001874	-0.03127332
255	0xbcad753d	-0.021174068

model.11.bias f4 [128]
0	0x3c5275c2	0.012845458
1	0xbd295598	-0.041341394
2	0xbd410b50	-0.04712993
3	0xbd18aaa6	-0.037272118
4	0xbd3276ce	-0.043570332
5	0xbc89b532	-0.016810033
6	0xbc69b633	-0.014264631
7	0x3b210919	0.0024572073
8	0xbd1a852b	-0.037724655
9	0xbd1b3751	-0.03789455
10	0x3c1c3d54	0.009536106
11	0xbd572a38	-0.052530497
12	0xbd45a05c	-0.048248634
13	0xbbec7a67	-0.00721674
14	0xbbd12bf1	-0.006383412
15	0xbcf35694	-0.02970437
16	0xbd53c49e	-0.05170118
17	0x3c003370	0.007824764
18	0xbd0fda42	-0.035120256
19	0xbcde0c0e	-0.027105357
20	0xbccec8b1	-0.025242181
21	0xbccfa303	-0.025346285
22	0x3b9418b8	0.0045195483
23	0xbc206361	-0.009789319
24	0xbd0a59d7	-0.033777084
25	0xbc97232e	-0.018449392
26	0x3beb1122	0.0071736732
27	0xbd4b1ccf	-0.04958802
28	0x3b9f1e89	0.004855935
29	0xbd70e4e1	-0.058812026
30	0xbd2d43ed	-0.042301107
31	0xbd1e5e44	-0.038664117
32	0xbcc9ae71	-0.024619313
33	0x3c358a2a	0.011080304
34	0xbc3e7f14	-0.0116269775
35	0x3b5b673e	0.0033478285
36	0xbc53c1f9	-0.012924665
37	0xbda1035c	-0.07861969
38	0xbc941b69	-0.018079476
39	0xbcb5ee3e	-0.02220833
40	0x3c9e0667	0.019290162
41	0xbc6ea016	-0.014564535
42	0xbd1fe9d2	-0.039041348
43	0xbd8ea1e5	-0.06964473
44	0xbd04c57b	-0.032414895
45	0xbd3d97c7	-0.046287324
46	0xbcb7652d	-0.022387112
47	0xbcec4746	-0.02884258
48	0xbce3f721	-0.027827801
49	0xbd7bd527	-0.061482575
50	0xbc06f7af	-0.008237763
51	0x3c38e0fe	0.011284111
52	0xbc7aa8f1	-0.015299068
53	0xbd695a70	-0.056971014
54	0xbced7199	-0.028984832
55	0xbd2c83cb	-0.042117875
56	0xbcf171ae	-0.029473152
57	0xbc8cd955	-0.017193476
58	0xbd5bcfcb	-0.053664964
59	0x3a3f93cc	0.0007308095
60	0xbd6f5d2c	-0.058438465
61	0xbd33904f	-0.043838795
62	0xbc064712	-0.008195655
63	0xbce60543	-0.02807868
64	0xbc917972	-0.017758105
65	0xbcb67593	-0.02227286
66	0xbc225504	-0.009907965
67	0x3c0c7d54	0.008574802
68	0xbb989abc	-0.0046571176
69	0x3c6ceb45	0.0144603895
70	0xbb879c1f	-0.004138484
71	0xbd2045a6	-0.039128922
72	0xbd201595	-0.039083082
73	0xbcfbfed6	-0.030761164
74	0xbd0a81d7	-0.03381523
75	0xbcf66f5d	-0.030082399
76	0xbd0e001f	-0.034668084
77	0xbc0e5d9f	-0.008689313
78	0xbc8feee1	-0.017569961
79	0xbd61e6d5	-0.05515178
80	0xbc39db3e	-0.011343775
81	0xbcd81bff	-0.026380537
82	0x3c3420f0	0.010994181
83	0xbcd82443	-0.026384478
84	0x3b670dd1	0.0035256038
85	0xbd57bd2e	-0.05267065
86	0xbd05b76e	-0.032645635
87	0xbc17994d	-0.009252858
88	0xbc851b97	-0.016248507
89	0xbc2a2328	-0.0103843585
90	0xbbec9acc	-0.0072206017
91	0xbcc208d1	-0.023685845
92	0xbbee5a2d	-0.0072739334
93	0xbcd493a6	-0.02594931
94	0xbd4d1797	-0.050071325
95	0xbd229285	-0.039690513
96	0xbd198851	-0.037483517
97	0xbd12d509	-0.035847697
98	0xbd006f3f	-0.031356093
99	0x3b1c00e8	0.002380425
100	0xbc57ff52	-0.013183432
101	0xbd4775b2	-0.048696227
102	0xbd5666c6	-0.052344106
103	0xbd4c1c05	-0.04983141
104	0xbd9d60fa	-0.076845124
105	0xbca7c028	-0.02047737
106	0x3a470e34	0.0007593364
107	0xbc0960fc	-0.008384939
108	0xbc3a97ed	-0.011388761
109	0xbd2a1fc8	-0.041534215
110	0xbcce4741	-0.02518046
111	0xbcc75f88	-0.024337545
112	0xbd1ec9cf	-0.03876668
113	0x3cc72e75	0.024314145
114	0xbd4450a7	-0.04792848
115	0xbcff923a	-0.031197656
116	0xbce18a07	-0.027531637
117	0xbc53b3ce	-0.012921287
118	0xbd305fdc	-0.04306017
119	0xbbeb3511	-0.007177957
120	0x3c533b3d	0.0128925415
121	0xbd1af027	-0.037826683
122	0x3b3361ae	0.0027371454
123	0xbba51811	-0.0050382693
124	0xbce30d9b	-0.027716449
125	0xbd107d64	-0.03527583
126	0x3d32c068	0.043640524
127	0xbd14eba4	-0.036357537

model.14.weight f4 [128]
0	0x3f81f97b	1.015426
1	0x3f8764e8	1.0577669
2	0x3f84f606	1.038758
3	0x3f775007	0.9660649
4	0x3f87fe3b	1.062446
5	0x3f88c00d	1.0683609
6	0x3f8e586b	1.1120733
7	0x3f80d4f1	1.0064985
8	0x3f8207bf	1.0158614
9	0x3f7f6d28	0.99775934
10	0x3f816df1	1.0111676
11	0x3f7c3b20	0.9852772
12	0x3f775c3e	0.96625125
13	0x3f81940c	1.0123305
14	0x3f7aee88	0.9802022
15	0x3f82efaf	1.0229396
16	0x3f82d6a7	1.0221757
17	0x3f888a76	1.0667255
18	0x3f8209bd	1.0159222
19	0x3f8212a1	1.0161935
20	0x3f9050dd	1.1274678
21	0x3f818e68	1.0121584
22	0x3f8341ae	1.0254419
23	0x3f84a764	1.0363584
24	0x3f877132	1.058142
25	0x3f8f9f1a	1.1220429
26	0x3f82dc5a	1.0223496
27	0x3f78f63d	0.9725073
28	0x3f822097	1.0166196
29	0x3f7d2202	0.98880017
30	0x3f7b5a8e	0.9818505
31	0x3f89a011	1.0751973
32	0x3f8b2837	1.0871648
33	0x3f89dedf	1.077114
34	0x3f82dce8	1.0223665
35	0x3f8728fa	1.055938
36	0x3f833ca0	1.0252876
37	0x3f82e424	1.0225873
38	0x3f81dc64	1.0145383
39	0x3f7265db	0.9468667
40	0x3f89fcec	1.0780311
41	0x3f76b97c	0.96376777
42	0x3f86fc41	1.0545732
43	0x3f7c4508	0.98542833
44	0x3f775922	0.9662038
45	0x3f88784d	1.0661713
46	0x3f83eee5	1.030728
47	0x3f8246a1	1.0177804
48	0x3f879414	1.0592065
49	0x3f80dc42	1.0067217
50	0x3f7f5797	0.99743026
51	0x3f8221e6	1.0166595
52	0x3f81af8f	1.0131701
53	0x3f88f96c	1.0701118
54	0x3f826268	1.0186281
55	0x3f8b3ab8	1.0877295
56	0x3f82d8a3	1.0222362
57	0x3f8013c8	1.0006037
58	0x3f8a8ab6	1.0823581
59	0x3f7b8e58	0.98264074
60	0x3f8af3c3	1.085564
61	0x3f82b9db	1.0212969
62	0x3f8e8e1e	1.1137121
63	0x3f80226a	1.0010502
64	0x3f89a82e	1.0754449
65	0x3f8034e0	1.0016136
66	0x3f851b16	1.0398891
67	0x3f828f09	1.0199901
68	0x3f8a009d	1.0781437
69	0x3f7d9c63	0.9906675
70	0x3f85c2b3	1.0450042
71	0x3f871a70	1.0554943
72	0x3f84e457	1.0382184
73	0x3f82eeec	1.0229163
74	0x3f7fffd3	0.9999973
75	0x3f7fbe95	0.9990018
76	0x3f851828	1.0397997
77	0x3f8952ee	1.0728433
78	0x3f815d71	1.0106641
79	0x3f7a00e3	0.97657603
80	0x3f86cab8	1.0530615
81	0x3f7d3783	0.9891283
82	0x3f83c9c4	1.0295949
83	0x3f84bbf8	1.0369864
84	0x3f802751	1.0011998
85	0x3f82c68c	1.0216842
86	0x3f802f9f	1.0014533
87	0x3f8516f7	1.0397633
88	0x3f871d38	1.0555792
89	0x3f86303a	1.0483468
90	0x3f8045b2	1.0021269
91	0x3f7f89eb	0.9981982
92	0x3f797595	0.9744504
93	0x3f83fabd	1.0310894
94	0x3f7ae069	0.9799867
95	0x3f809636	1.0045841
96	0x3f8401e6	1.0313079
97	0x3f8a36a7	1.0797929
98	0x3f84dc21	1.0379678
99	0x3f816dc7	1.0111626
100	0x3f80371d	1.0016819
101	0x3f8721c9	1.0557185
102	0x3f88ec2f	1.0697078
103	0x3f828926	1.0198104
104	0x3f848b5b	1.0355028
105	0x3f825978	1.0183554
106	0x3f83069f	1.0236396
107	0x3f835bca	1.0262387
108	0x3f7df2be	0.9919852
109	0x3f83098f	1.0237292
110	0x3f869f4f	1.0517367
111	0x3f7ed471	0.9954291
112	0x3f7e4e4e	0.99338233
113	0x3f7c91ba	0.9865986
114	0x3f7e3c90	0.9931116
115	0x3f858f53	1.0434364
116	0x3f7edc56	0.99554956
117	0x3f801573	1.0006546
118	0x3f810ad1	1.0081426
119	0x3f8ad067	1.0844849
120	0x3f82cae6	1.021817
121	0x3f79c5e5	0.9756759
122	0x3f847255	1.0347391
123	0x3f7db4d5	0.9910405
124	0x3f737691	0.9510279
125	0x3f8819ec	1.0632911
126	0x3f80e68f	1.0070361
127	0x3f82aa51	1.0208226
