results/netD.pth (torch_old, 405197 bytes, 21 tensors)

model.0.weight f4 [16, 3, 3, 3]
00000000: d9aa adbb b5fb e0bc 5d9c 0a3b a351 6bbd
00000010: cf51 e8bc 854e c8bc fb4d fbbc ddf4 f8bc
00000020: e79a 633b 434c 833d f17a 0e3d d992 4a3c
00000030: 652a 793d c161 3f3c ee89 af3c d4e4 273d
00000040: 40a7 b43c 3e19 1e3c 2fab b4bb effe 34bc
00000050: 73fe 65bb ee5a fc3a 2bfd 2bbd 8c4c 07bd
00000060: cd52 04bd 2b0c 13bd 6a54 73bc 06ff 07bc
00000070: 99c9 d6bc c331 5cbc a951 58bc a29c 1fbc
00000080: 7853 43bc 622f 1bbd d01b 75bd 1ebc d63a
00000090: a09f e4bc 8a92 5cbc 4567 d5bb 78d5 903c
000000a0: b973 3cbd d6d3 293c 20b0 4dbc 69d2 5ebc
000000b0: 3898 423c 3089 443c 08e2 4fbd 59d8 2c3d
000000c0: 4572 eebc b21d 00bd d68b cdbc 8ab4 cd3b
000000d0: e696 a1bc 0de0 163c 123a 5fbd 3ae1 6d3a
000000e0: 7de6 9e3c 0acb 13bd 88e5 94bc cc9e 2e3c
000000f0: 1a63 7ebd b81f 343b 3120 cabb 6740 40bd
00000100: a8d3 933c 8f2d bf3c 810a 1bbd a8fd 33bc
00000110: 36e4 24bc 9010 45bd 7c43 db3c a7b1 263c
00000120: 49e1 f7bc 616a 173c 390f b13c b55c 18bd
00000130: 2cd3 b8bc f69d 8f39 f5f9 cfbc da0b 7e3c
00000140: 3420 55bc 0d01 3e3d 8f01 b93c 7fd2 adbb
00000150: f670 183d 156a 443b ecba 4f3c d46e 823c
00000160: 0bc9 e93c 9462 bcbc 7c84 c5bc 7ceb 1abd
00000170: d494 6c3c 344b 1fbd 2e18 f4bb b013 14bd
00000180: d717 7abc 063f 41bd 260b 30bd 971c 89bb
00000190: 05da 213d 9570 023d bfca d0bb d6d0 073d
000001a0: 7ab0 363d 2747 aabb 1a3b 0939 bd99 383d
000001b0: 79b2 d03c 4d25 a53c f92b 86bc 7d11 afbc
000001c0: 9422 523c 4a8d e3bc 9739 19bd 0524 4fbc
000001d0: 8fb8 75bb c05b bc36 6692 1a3d 3b69 79bb
000001e0: 0cef 16b9 0b46 943c 3b5f e5ba 3a6c 45bc
000001f0: b1ad cabc 83a1 f3bc 3e90 af3b d73b 223d
00000200: d84a 993c 0a8d 283d ec16 b2bc 55b4 353d
00000210: 75c9 e0bb f3d8 01bc 5ad5 38bb 2626 34bd
00000220: f139 f2bc 100f 87bd 8c2b 4dbd a424 edbc
00000230: fa5f 27bd e2f0 f7bc 9820 31bd c13a 3cbd
00000240: 8015 833c 1e62 7dbc f30e ffbc 5b14 fbbb
00000250: e5a2 b53b 7d92 07bd e5a4 e8bc 09b2 e2bb
00000260: 8b8f 7cbc 2f24 0d3c 4a78 1c3d 2908 d43c
00000270: 4862 5a3c 314e 9bbb 773e eebb 9be8 ac3a
00000280: d431 403c 2db5 bcbc 0a49 333d b5e0 b13d
00000290: 1cad 1d3d 86ac 743d 524e a93d a592 ab3d
000002a0: 87d3 ed3c 76d4 babc 0c65 fb3b fad1 a03c
000002b0: c1da f1bb 1db4 733b a43b 2bbc d7b1 1dbc
000002c0: 824e 81bc 7641 77bc d65c cc3a 01d8 393d
000002d0: 314a 42bd 280a 36bd c9e3 3ebd cb59 0cbd
000002e0: 2820 a9bd 6e68 27bd 82ae 20bd 73f2 0f3c
000002f0: 2d66 69bd 27dd 57bc 9d37 903c bb0e 5dbc
00000300: 4610 c13c 94a9 fd3b a0a7 ea3c 16be 9c3d
00000310: e458 283d a997 0a3d e287 f33c 1c1c 9638
00000320: 04e6 143d 40d9 a6bb 5e66 ee3b b4aa 0d3c
00000330: cbc3 f33c 9972 b23b 4e8f 1a3d 65d7 9bbc
00000340: 7f17 593b 4552 2fbd 19ce ecbb f23a c53c
00000350: 97ba c03c 87b0 1fbc c71a 883c e814 0b3b
00000360: b32c 77bb dfca 1f3d 2172 f439 46f2 b03c
00000370: 7230 c03c e13f a93c 4440 f53b b747 943b
00000380: 810d 1dbd 5b69 513c fc22 47bb c4ba 5bbc
00000390: 3dcd 0c3c 8dfa 67bc a2db 81bc a059 eeb9
000003a0: 7c28 02bc ed78 4cbd 1a83 3b3d a57f 8cbc
000003b0: 2d6f 1bbd 9d52 d1bc fa25 01bc 16af d8bc
000003c0: 7936 35bd 3b46 0fbd 420f 35bd 9150 913c
000003d0: 8545 c53a df44 e03c b5c6 1e3d d67e 233d
000003e0: ba49 883c c146 143d 0c20 aa3c 160b 593c
000003f0: 9c0a d7ba b30c 42bc f5af 9ebb 89e1 f63c
-0.0052999076 -0.027463773 0.0021150329 -0.0574509 -0.028359322 -0.024451504 -0.030676832 -0.030390197
0.003472978 0.0641103 0.034785215 0.012364113 0.060831446 0.011681021 0.021428075 0.040989712
0.022052407 0.009649573 -0.0055135707 -0.011047109 -0.003509429 0.0019253173 -0.041989487 -0.033031985
-0.032305527 -0.035900276 -0.014851669 -0.008300548 -0.026219176 -0.0134395985 -0.013203063 -0.009741934
-0.011921756 -0.037886985 -0.059840977 0.0016382968 -0.027908146 -0.013462672 -0.006512555 0.017679915
-0.0460088 0.010365447 -0.0125541985 -0.01359997 0.011877112 0.011995599 -0.05075267 0.042198513
-0.029107222 -0.03127832 -0.025091093 0.0062776254 -0.019725274 0.009208691 -0.05449874 0.0009074394
0.019397015 -0.036082305 -0.018175855 0.010657977 -0.06210623 0.0027484726 -0.0061683883 -0.04693642
0.018045262 0.023337154 -0.037851814 -0.010985769 -0.010064175 -0.0481115 0.026765577 0.010174192
-0.030258792 0.009241671 0.021613704 -0.037197787 -0.022561632 0.00027392776 -0.025387743 0.015505755
-0.013008166 0.04638772 0.022583751 -0.005304634 0.037217103 0.0029970456 0.012678843 0.015921988
0.028538248 -0.022996224 -0.024111025 -0.03782223 0.01443978 -0.03889008 -0.0074491715 -0.036151588
-0.015264473 -0.047179244 -0.042979382 -0.0041843164 0.03951456 0.031845648 -0.0063718255 0.033158146
0.044601895 -0.0051964703 0.00013087355 0.04506849 0.025475727 0.020159388 -0.01637839 -0.021370644
0.012825627 -0.027777333 -0.037408438 -0.012642865 -0.0037494039 5.6135177e-06 0.037737273 -0.0038057107
-0.00014394167 0.018099805 -0.0017499694 -0.012049729 -0.024741026 -0.0297401 0.005357771 0.03960785
0.018712446 0.04115013 -0.021739446 0.04436143 -0.006859953 -0.00792526 -0.002820334 -0.043981694
-0.029568644 -0.0659467 -0.050090358 -0.028948136 -0.040863015 -0.030266229 -0.043243974 -0.04595447
0.016001463 -0.0154652875 -0.031135058 -0.0076623387 0.0055431 -0.033098686 -0.02839894 -0.006918196
-0.015415083 0.008614584 0.038200654 0.025882797 0.013329096 -0.0047395458 -0.00727063 0.001319188
0.01173063 -0.02303561 0.043770827 0.086854376 0.038495168 0.059734844 0.082668915 0.083775796
0.029031528 -0.022806387 0.007671958 0.019631375 -0.007380814 0.0037186213 -0.010451231 -0.00962492
-0.015784506 -0.015091291 0.0015591632 0.045372013 -0.047434036 -0.04444328 -0.04660395 -0.03426532
-0.082580864 -0.040871076 -0.039228924 0.008785832 -0.056982208 -0.013175285 0.017604643 -0.013492282
0.02356733 0.0077411626 0.028644383 0.076534435 0.041100398 0.03383604 0.02972788 7.157793e-05
0.036352172 -0.005091816 0.0072753867 0.008646656 0.029756447 0.00544579 0.037734322 -0.019023607
0.0033125577 -0.042803068 -0.007226717 0.024075959 0.023526473 -0.009746677 0.016614331 0.0021222178
-0.0037715852 0.039011832 0.0004662434 0.0215999 0.0234606 0.020660343 0.0074844677 0.0045251506
-0.038342956 0.012781466 -0.0030385843 -0.013411228 0.0085938545 -0.014158857 -0.0158518 -0.00045461673
-0.007944223 -0.04992001 0.045779325 -0.01715071 -0.037947822 -0.025552088 -0.0078825895 -0.026450675
-0.044241402 -0.034979086 -0.044204004 0.017738612 0.0015050626 0.02737659 0.03876372 0.039915882
0.016636718 0.03620029 0.020767234 0.013247272 -0.001640636 -0.011843848 -0.004842753 0.03013684

model.0.bias f4 [16]
00000000: 90d5 d1bc a78a 52bd f5fd ff3c f443 edbd
00000010: 7f01 bcba 86f8 08be 562e d9bd 0ddc 3cbe
00000020: 44b3 b2bd 344a 46be e6ee d7bb fc5e 543d
00000030: 82cd a73d 6998 02bd dae3 09be 7d75 34be
-0.02561453 -0.05140176 0.031249026 -0.11585227 -0.0014343708 -0.13376054 -0.10604541 -0.18443318
-0.087255985 -0.19364244 -0.006589758 0.051848397 0.081934944 -0.03188363 -0.13465825 -0.17622943

model.3.weight f4 [32, 16, 3, 3]
00000000: 4bfa 5f3d 3097 333c 26bd c2bb 527a 293d
00000010: a255 de3c 2252 cebb ec41 1b3d 5d4e 283d
00000020: 28fa c73c 55b1 333d ffe2 06bb 4522 ccbc
00000030: a161 a7bc f01c c8bc e3eb 63bc d190 adbc
00000040: 84e0 1cbc 04b6 d0bc e7ef 0dbc 1f05 edba
00000050: cf37 d2bc 5a54 4d3c dedb d43b 86c8 21bc
00000060: 2dca ebbc 7848 00bd 6f44 a53b 8b1d 94bc
00000070: 0099 bbbb 3efb 90bc 2927 90bd 79cb 32bd
00000080: 356f 77bd ca3f b4bc 0328 22bd 5dc5 0ebd
00000090: 786e a6ba de63 e63c a707 0c3c c1e8 18bc
000000a0: 27a7 693d 9e03 8d3c 4466 c03c 5179 683d
000000b0: c13a 773c a98a 803c 8e0f 003c 7b64 dd3c
000000c0: e87d 003d 3bbe 7ebb 5b03 ca3b e081 023c
000000d0: eff9 c13c ade1 913c 7109 64bc 2c43 b53a
000000e0: bd72 623b dc3a 3bbd 831f 91bc 4410 47bc
000000f0: 3f24 ce3c f5e4 983c e234 a33b 20eb 003d
00000100: ffef 14bc 8482 11bd 669f 15bd 2f22 09bc
00000110: 8eff c8bc 24d7 f13c 87fe f23c 08d8 0c3c
00000120: 914e 82ba 858d 28bd a3b8 61bd 50e0 50bd
00000130: 182f 65bd 921e f2bc 47a2 a4bc c63e bebc
00000140: 2c5b 85bc 260c 2cba d837 1cbc f00c 4ebd
00000150: b321 63bb 7d73 babc e48b eebb c30c 7fbc
00000160: 337f 9d3c 76b7 39bc acac ae3b b94b 00bc
00000170: b9d5 113d 8902 933c 7e79 78bc ff70 5ebc
00000180: cddf b93c af47 443c 7515 603c 6490 903c
00000190: 084f 953c b6c5 0e3b 4bad 043d 189d 703c
000001a0: 01fd 3b3c 1fea 403d 818f a93c 1e5e 993c
000001b0: 5ce5 513c 95a1 a6bc f4f6 97bc cf35 2f3c
000001c0: 810d c83b 46e1 09bc 1bb4 7abc f8cc aebc
000001d0: e2f1 dc3a ad14 3a3d 3f5e 8a3c f4cf 343d
000001e0: 2cd8 b43c 17ee 863d c219 023d 816c 163d
000001f0: 70a6 7b3d e594 693d 5b54 823c 49b0 ec3c
00000200: 5bf8 783c 8220 6f3d 3905 563c 0185 b2bc
00000210: 73c3 5e3d 5989 9b3c a980 733c b596 893c
00000220: 20d1 07bc 32d3 05bd 641f a43c b626 95bc
00000230: c02c 1ebd 336f 9f3b 2999 683c 6246 33bc
00000240: c46d 37bd 926e aabb 731f f1bc 5492 0a3d
00000250: ab98 3e3c dbad 26bd f4fa 253c 67d3 a63c
00000260: 6b95 d9bb 024e 043b 65ad 843c 94c3 d43c
00000270: 3d6b 813c 5113 5eba 0bc4 9a3d f257 85bc
00000280: 18fa 0f3d 0ddd 6b3d b94a df3c 335e 3a3d
00000290: 4455 553d 8674 4b3c 1c54 093d b3d5 303d
000002a0: 5d15 473d b38a a93b f35d 933a 350e 81bd
000002b0: a48d bcbc 0cd4 5abc d28a 08bd d15a 0fbd
000002c0: 95a2 f1bc e4cd cfbc 941f 19bc fb88 25bd
000002d0: 4726 83bc 1c69 d2ba 6c58 043c 34d3 f7ba
000002e0: e1bc cb3c a127 643c d587 65bb 8469 243d
000002f0: 488f ab3c a319 4abd 0698 42bb a39c f6bc
00000300: de08 26bb 33ae aabc 045b c1bc e06b b63c
00000310: d97f 0dbd 0f43 48bd 8412 11bd c6ca 89bd
00000320: 988f dfbc 2481 5ebd bdaf 4fbd 09aa 16bd
00000330: 030c 8ebd 4f55 1abd f577 1bbd cabc 183d
00000340: 14a6 a9bc 5db5 dbbb 9937 543c d213 6abc
00000350: 6b7b 10bd d681 5b3c b41e 233c de64 7abb
00000360: 688b 73bc 73cf 073c 1a22 e5bb 3277 e3ba
00000370: f03d a23c 641d 583b 51ee 263c fc94 f63c
00000380: 8df1 543c aeb9 02bd d8a9 41bd 3da3 e7bb
00000390: c99c 1bbd b2e1 aabc 14b6 59bd 4b33 29bd
000003a0: e6f7 c3bc 2dcb 763c 31d0 913d 8d9d 9c3d
000003b0: efbf 393d e26b 573d 6f25 a13d a95f f93b
000003c0: cd2e 163d 1a8a d53c a05e 873c 4e28 873b
000003d0: 4746 8f3c e249 953c 63bd edbc cbbb 263c
000003e0: b200 9ebc 08fc a93b cd41 363d 7a66 fa3c
000003f0: eeb6 943c ee22 c83b f172 3ebc 3226 0a3d
0.054682057 0.010961339 -0.0059429584 0.04137642 0.027140442 -0.006296412 0.037904665 0.041090358
0.024411276 0.04387029 -0.0020582078 -0.024918685 -0.020432295 -0.024427861 -0.01391122 -0.021187218
-0.009575013 -0.025477417 -0.008663154 -0.0018083191 -0.025661377 0.012532318 0.006495937 -0.009874469
-0.028782928 -0.03131911 0.0050435583 -0.018080493 -0.005725026 -0.017697927 -0.07038719 -0.043651078
-0.06040879 -0.022003073 -0.03958894 -0.03485619 -0.0012697717 0.028123792 0.008546746 -0.009332837
0.057044175 0.017213639 0.023486264 0.05675632 0.015089692 0.015691118 0.0078162085 0.027025452
0.031370074 -0.003887071 0.006164951 0.007965535 0.023678748 0.017807806 -0.013918267 0.0013829223
0.0034553253 -0.04571043 -0.017715221 -0.012149874 0.025163768 0.018663863 0.0049806694 0.031474233
-0.009090423 -0.03552486 -0.036528967 -0.008369966 -0.02453592 0.029521532 0.029662384 0.008596428
-0.0009941628 -0.04115059 -0.055107724 -0.05099517 -0.055953115 -0.029555593 -0.020096911 -0.023223292
-0.016278826 -0.00065630896 -0.009534799 -0.050305307 -0.0034657537 -0.022760147 -0.00727986 -0.0155670075
0.019225692 -0.011335244 0.0053306427 -0.007830554 0.035604212 0.017945545 -0.015165685 -0.013576745
0.022689724 0.011979981 0.013676991 0.017646976 0.018226162 0.0021785325 0.032391828 0.014685892
0.011473895 0.047098275 0.02069831 0.018721636 0.012811031 -0.02034072 -0.018550374 0.010693981
0.0061051254 -0.008415526 -0.01530173 -0.021337971 0.0016856755 0.045429874 0.016890643 0.044143632
0.022075735 0.06588381 0.031762846 0.03672457 0.061438024 0.057026763 0.015909364 0.028892653
0.015195931 0.05838061 0.013062769 -0.021791937 0.054385614 0.01898639 0.014862218 0.016795496
-0.008289605 -0.032672115 0.0200345 -0.018206935 -0.038616896 0.004865551 0.0141966725 -0.010942074
-0.044782415 -0.0052011693 -0.029433941 0.033830956 0.011633079 -0.040693145 0.010130633 0.020364476
-0.0066401265 0.0020188098 0.016195962 0.025972165 0.015798206 -0.00084715063 0.075569235 -0.016277287
0.035150617 0.057583857 0.02725731 0.04549999 0.05208327 0.012417918 0.03352748 0.04317255
0.048604358 0.005174005 0.0011243209 -0.06301538 -0.023016758 -0.01335622 -0.033335514 -0.03499872
-0.02949647 -0.025366731 -0.009345908 -0.040413838 -0.016009463 -0.0016053054 0.008077722 -0.0018907548
0.024870338 0.013925464 -0.003502359 0.04013969 0.020942345 -0.049340855 -0.0029692664 -0.030103987
-0.0025334875 -0.020835018 -0.02360297 0.022268236 -0.034545753 -0.048892077 -0.03541805 -0.06728129
-0.02729015 -0.054322377 -0.050704706 -0.036783252 -0.06935885 -0.037679013 -0.037956197 0.03728942
-0.020709075 -0.00670497 0.012952709 -0.014286952 -0.03527395 0.0133976545 0.009956051 -0.0038207094
-0.01486478 0.008289206 -0.0069925906 -0.0017354249 0.019804925 0.0032976503 0.010188655 0.030100338
0.012997043 -0.03191536 -0.047281116 -0.00706902 -0.03799132 -0.020859573 -0.05315216 -0.041308682
-0.023921918 0.015063089 0.071197875 0.07647238 0.045349058 0.05259312 0.07868468 0.0076102805
0.036665726 0.026066829 0.016524613 0.0041246777 0.017489566 0.018223707 -0.02902097 0.010176609
-0.01928744 0.005187515 0.044496346 0.030566443 0.018153634 0.0061076796 -0.011624084 0.033727832

model.3.bias f4 [32]
00000000: 4614 ac3b b61a e0bb 5753 d23c 0c85 3ebb
00000010: 2602 93bb f200 83bd bca1 f33c 8cd3 30bd
00000020: d9a4 513c da56 033d 9051 74bd 86a5 313d
00000030: a284 5abd 598f 353d e597 223d 8cb1 453d
00000040: 4160 133d 70b5 173d 8fed 04bd 1307 72bd
00000050: a2d4 96bd 5dbd 70bd ace6 52bd b15d 60bd
00000060: 0e97 4bbd 1257 663c eda5 02bd a31f 42bd
00000070: 555b 8fbd 2369 cabc 250a d53b b4b8 4c3d
0.00525144 -0.0068391217 0.025674505 -0.0029071001 -0.00448634 -0.06396665 0.029740207 -0.043170497
0.01279565 0.03206525 -0.059648097 0.043370746 -0.053349145 0.04432616 0.03969564 0.048265025
0.035980467 0.037038267 -0.032453116 -0.059088778 -0.07364775 -0.05877434 -0.051489517 -0.05477685
-0.049704604 0.014058845 -0.03189652 -0.047393452 -0.06999842 -0.024708336 0.0065014535 0.049980834

model.6.weight f4 [32]
00000000: 5458 843f 8445 833f 06e6 7e3f 0a56 863f
00000010: aaed 853f 0dd3 843f cd29 813f f401 833f
00000020: 3922 783f ebd4 843f 80b6 863f 034f 7c3f
00000030: 443b 843f 032d 863f 0873 873f 8622 813f
00000040: 1cf8 873f fb34 813f 6307 893f 1943 863f
00000050: 4d16 853f 35cc 813f 16bc 853f 0f1d 883f
00000060: 05aa 803f dd10 853f 795c 8b3f fc54 833f
00000070: 1a88 853f d242 843f 3dbe 7c3f 61dc 863f
1.0339456 1.025559 0.9956974 1.0495007 1.0463154 1.0376908 1.0090882 1.0234971
0.9692722 1.0377477 1.0524445 0.9855806 1.0330586 1.0482486 1.058198 1.0088661
1.0622592 1.0094293 1.0705379 1.0489227 1.0397431 1.0140444 1.0448024 1.0633868
1.0051886 1.0395771 1.0887595 1.026031 1.043216 1.0332892 0.9872778 1.0536004

model.6.bias f4 [32]
00000000: 6a94 f0bc caac dabb e4b8 613c abaa 9e3b
00000010: 2daf 29bb cf8d dc3c 1816 1ebc c719 80bc
00000020: b015 733c c38e 9fbc f433 a73b b154 cdbc
00000030: 2014 97bc 4d4a 0e3d 2a4f 9dbc b5a9 c7bc
00000040: 4093 d1bc 5c6d 5dbc 8470 b53b dda3 b23c
00000050: 2c15 fdbc 0abd fabc 9630 723b d308 4b3c
00000060: 118f 52bc 2015 11bd bbd7 42bc 6b63 00bc
00000070: 21a3 11bc 565e ce3b 4da6 22bc c8da c53a
-0.029367644 -0.00667343 0.0137769915 0.0048421226 -0.0025891766 0.026923088 -0.009648822 -0.015637292
0.014836714 -0.019477254 0.005102629 -0.025064798 -0.018442214 0.034738827 -0.019202787 -0.024372915
-0.02558291 -0.013514843 0.0055370945 0.021806652 -0.030893885 -0.030607719 0.003695523 0.012392241
-0.0128514925 -0.035420537 -0.011892254 -0.007836203 -0.008888991 0.006297867 -0.0099273445 0.0015095109

model.6.running_mean f4 [32]
00000000: 2884 e63b 387e c63c 3a28 253c d084 9e3d
00000010: b439 8b3b f9d5 9ebc bfe0 293c cde9 94bc
00000020: 9c9c 6a3c f600 583d dd64 57bc a00e b43c
00000030: 5025 6c3c 6409 443d a406 563d 65fc f43c
00000040: 38fd f93c 03d6 1a3d 9fb5 95bb a6e6 b73b
00000050: 981f 56bc 62f4 53bc 6d74 28bc e92d 00bc
00000060: 6542 893c edcf 493c 1472 433c 3cb2 9e3a
00000070: 153d 24bc dc82 23bc 6a96 a23c 76cc 9d3d
0.007034797 0.024230108 0.010080392 0.07740176 0.004248822 -0.01938914 0.010368525 -0.018177891
0.014319565 0.05273529 -0.013146606 0.02197963 0.014413193 0.047860518 0.052252427 0.029905507
0.030516252 0.037801754 -0.00456877 0.0056122122 -0.013069056 -0.012936683 -0.010281664 -0.007823446
0.016755292 0.01231764 0.011929054 0.0012107561 -0.010024329 -0.00997993 0.019847114 0.077050135

model.6.running_var f4 [32]
00000000: a017 273a ba91 bc3b 7234 dd39 5e66 0d3c
00000010: f0ab fc3a 8801 7f3b 37d9 463a e399 f639
00000020: a300 483b 3707 8c3b b82d f43a 5d0f 103b
00000030: 2b4f 1d3b f7e5 ed3b 1299 393b 1fca 383b
00000040: eddd cd3a 4eae f43a 5308 093b baa6 bc3a
00000050: a2a8 a139 6a65 363a 10b8 ee38 c3b0 cf3a
00000060: 7ac3 ad3a dd1d 603a b89d 153b 9b2a 6a3a
00000070: b12f 933b 7f4a 2839 de42 e53a 1449 be3b
0.0006374065 0.0057546766 0.0004219148 0.008630363 0.0019277316 0.0038910825 0.0007585468 0.0004703543
0.0030517958 0.004273321 0.0018629348 0.0021981813 0.0024003487 0.00726008 0.0028319997 0.0028196645
0.0015706398 0.001866767 0.0020909503 0.001439295 0.00030833954 0.0006957861 0.00011383009 0.0015845526
0.0013257109 0.0008549372 0.0022829603 0.00089327403 0.0044917692 0.0001604948 0.0017491241 0.0058070514

model.7.weight f4 [64, 32, 3, 3]
00000000: 99f1 3c3c 216a 2d3c dfbb 213d 399a 763a
00000010: d1cb 723b 1b41 fe3c 18e2 9cbb 6ed5 fe3c
00000020: 4a7e c1bc 18e6 12bd 1f67 49bd d506 54bd
00000030: 62bc 74bc 0558 6bbc c1a6 1c3d 3d87 0c3b
00000040: 5e2b a5ba 9d64 b33c d6dd 05bc cc51 053d
00000050: 8b99 1a3d 3b3d e0bb 7d99 8c3b 0dbc 48bc
00000060: f3d6 703d 02be 823d 1927 463c a1ff 063d
00000070: 0775 c63c b8aa 0c3d fbef adbc 4abe 14bd
00000080: c0f0 033d 8fe3 733c 61aa 603c ba21 ef3c
00000090: 2d93 4c3a 3b59 043d 9c8e 623c 8eb6 2c3c
000000a0: 2f93 23bd 68e3 c73c 528c 2e3c 1da6 943b
000000b0: 746a 723d 6aeb adbc ea13 f339 6fbf bbbc
000000c0: 25a9 123b 355f 823d 7287 523d 7c6a c3bc
000000d0: 2403 263d a8d7 363c bf37 823c 3590 ee3c
000000e0: 547e bf3c 303a 8a39 2c75 673b eb8e 97bc
000000f0: 5853 8cbb 2f97 61bd 82ba 6dbd eeee 253d
00000100: e24a 013d e6cd 343c d1a2 1b3d 815a 78bc
00000110: 3587 2a3c e008 a83c b228 4fbc f752 853c
00000120: b183 323d 331a 3c3b ed7a fdba 3f34 da3b
00000130: 792c 89b8 ee88 173d 82e0 563d 21e0 0e3d
00000140: b290 313d 888d 033c 7beb 97bc 43df d63b
00000150: eb2a d13c d50f 983d 59f0 163d f2b8 043c
00000160: b058 7039 dbf4 583a 8fc5 783d 10ca 993d
00000170: f7c2 503d 1023 103c c4e5 d4bb ac55 24bd
00000180: 306c 3c3d 95ec 5e3d c38b ce3c 1a55 a6bc
00000190: 64b8 19bd 8db1 f8bb 37fc 0f3d df4e 533c
000001a0: 5854 3a3d 8525 33bd 910d c9bc b8cc 293c
000001b0: 91e3 963c 7aaf 3dbb b398 9ebc 81ed c53a
000001c0: 7d04 2c3c 34f6 dcbc 7590 bc3c 82f6 203d
000001d0: e4d7 563c c952 043c 51a7 4ebc 9bd9 e6bc
000001e0: 3370 4a3d b353 cebb c154 363c 7117 a43c
000001f0: 03f6 913b f52f ad3c ef12 a1bd 44a0 0a3d
00000200: c8c4 4cbc 0341 21bb c464 5b3c 2ddd a6bc
00000210: 70f0 483d b92d 663c 5df2 a03c adf6 0fbb
00000220: 6cc7 4eb9 24eb 87bc 48a0 303c f626 3eba
00000230: 70a3 30bd 8c7b a43c a244 f7bc 08e4 6abc
00000240: e892 ab3c 78ba c13c e9fd 293d 1aca 32bc
00000250: 029c 193d 6480 0c3c e7e3 7cbc 9089 293d
00000260: 59d7 60bc 3892 a939 5658 8dbb 3d36 e33c
00000270: a9e8 6a3d f073 503d 7601 ab3d 3b0b fe3c
00000280: 68d0 193d 5516 a53c 9be0 363d b920 08bb
00000290: c529 193c ea3c 543d 9ef8 223d a325 653d
000002a0: d35b db3c e14e 563c b6d4 503d bc51 ed3a
000002b0: f3f6 803c 6121 10bb 952d 19bd f1a4 993a
000002c0: bbe4 bebc 0ee6 17bc 934c c83b 5895 41bc
000002d0: deeb 2e3d d99e 953d cb03 2c3d 5f30 a8bc
000002e0: 50c4 053d 673a fc3c 393d 493c 92f5 ae3c
000002f0: c354 363c 3ce9 8ebc c376 ec3c ae91 1f3d
00000300: d437 e43c a286 3e3d ae6c 783d d29e 243d
00000310: 4397 5c3d bc8e 5d3c 7b4a 5e3b b8f2 913d
00000320: cc2b 893d d3d8 77bc d4ef 543b 9e6e c43c
00000330: d328 9f3c dc96 e33b 6705 3c3d 0bed 133c
00000340: cbc5 3a3d 5800 f0bc aaf8 cfbc adf5 b1bc
00000350: b630 dfba 3762 77ba 0bb0 ddbc 7a55 c23a
00000360: 6dc5 6fbd 1367 d2bc 9b57 4bbd 7bab 89bc
00000370: 04cd a7bc 1341 903c 719f 92bc 1b42 c4bc
00000380: cce7 9abc 348c a4bc 7a88 8c3c 78a2 843c
00000390: c79b 04bd 7dd6 8c3c 94fc 163d ca4e a0bc
000003a0: 65b2 1abc fa7b df3c b40e 89bc 0ce7 7b3d
000003b0: 35e6 193b 58a5 20bd 53d4 8e3c 7c53 833c
000003c0: f84e 753c e98b 4c3c 2d9c 27bc c576 88bb
000003d0: f983 e73c c4e4 22bc a677 cd3b 25b7 3bbc
000003e0: 0bb1 113d 1915 333d 5d78 983b 8909 f4bb
000003f0: 0187 7ebd 591b a03b a386 7bbd 5bc2 04bd
0.011532211 0.010584385 0.03948581 0.0009407136 0.0037047754 0.031036904 -0.0047876947 0.03110763
-0.02361979 -0.035863966 -0.04917061 -0.051764328 -0.014937492 -0.014364247 0.038244966 0.0021442913
-0.0012601425 0.021898562 -0.008170566 0.03254871 0.037744086 -0.0068432367 0.004290758 -0.012251866
0.05879874 0.06383897 0.012094283 0.03295863 0.024225725 0.034342498 -0.021232596 -0.036314286
0.03221202 0.014885797 0.0137124965 0.029190887 0.00078039133 0.03231166 0.013827946 0.010541571
-0.039935287 0.024400428 0.010653572 0.004536404 0.059183553 -0.021230418 0.0004636341 -0.022918431
0.002237865 0.063658156 0.051398702 -0.023854487 0.04053034 0.011159815 0.015895722 0.029121498
0.023375668 0.00026364764 0.0035317643 -0.018500766 -0.0042823963 -0.05507582 -0.058039196 0.040511064
0.031565554 0.011035418 0.03799707 -0.015158297 0.010408212 0.020512044 -0.01264398 0.016274912
0.043582622 0.002870214 -0.0019339003 0.0066590603 -6.540953e-05 0.03699582 0.0524602 0.034881715
0.043350883 0.008029349 -0.018544903 0.0065573766 0.02553316 0.07424895 0.036850307 0.008100735
0.00022921222 0.00082762324 0.06073528 0.075092435 0.050967183 0.008797422 -0.0064971168 -0.040120766
0.046001613 0.05442484 0.025213128 -0.020304251 -0.037529364 -0.007589525 0.03515264 0.012897222
0.045490593 -0.043736953 -0.024542602 0.01036375 0.018419059 -0.0028943704 -0.019359922 0.0015100689
0.010499117 -0.026972868 0.023018101 0.03929759 0.013112996 0.008076378 -0.0126131335 -0.028179934
0.049423408 -0.006296599 0.011128605 0.020030709 0.0044543757 0.021141032 -0.078649394 0.033844247
-0.012498088 -0.00246054 0.013390724 -0.020369137 0.049057424 0.014048987 0.019646818 -0.0021967099
-0.00019719981 -0.016591616 0.0107804015 -0.00072537304 -0.043124616 0.020078443 -0.030184094 -0.014336593
0.020944074 0.023648486 0.041501913 -0.010912443 0.037502296 0.008575533 -0.0154351955 0.041390955
-0.013723218 0.00032343133 -0.004313509 0.027735824 0.05735079 0.050891817 0.08349888 0.031011214
0.037552267 0.02015225 0.044647794 -0.0020771457 0.009348338 0.051815905 0.03978788 0.055944096
0.026777184 0.01308033 0.050984107 0.0018106024 0.015742755 -0.0021992552 -0.037396986 0.001172213
-0.023302427 -0.009271158 0.006112644 -0.0118153915 0.04270541 0.073056884 0.041995805 -0.020530878
0.03265792 0.030789567 0.012282663 0.021357331 0.011128607 -0.0174452 0.028865224 0.03895729
0.027858652 0.046515115 0.06065052 0.040190525 0.053855192 0.0135228 0.0033918906 0.07126373
0.06697807 -0.0151273785 0.0032491582 0.023978528 0.019428646 0.006945474 0.04590359 0.009028683
0.045598786 -0.029297039 -0.025387127 -0.021723593 -0.0017028067 -0.00094369374 -0.027061483 0.0014826499
-0.05853789 -0.025683915 -0.049644094 -0.016805401 -0.020483501 0.017609155 -0.017898293 -0.023957303
-0.018909357 -0.020086385 0.01715492 0.016190752 -0.032375123 0.01719212 0.03686197 -0.01956882
-0.009441947 0.027280796 -0.016730644 0.06149964 0.0023483161 -0.039220184 0.017435228 0.01603102
0.014972441 0.012484529 -0.010230106 -0.004164549 0.028261172 -0.009942237 0.0062703667 -0.011457239
0.035569232 0.043721292 0.0046530203 -0.0074474257 -0.06214047 0.0048860726 -0.061407696 -0.032411914

model.7.bias f4 [64]
00000000: 38c0 54bd 7c6a c3bb c12c c3bb 0d76 44bd
00000010: 4f32 b2bb 6461 efba e1d8 1c3c 7bca c9ba
00000020: 129d 053d 02f0 03bc c736 21bd caf3 20bd
00000030: 2f12 71bd 2288 d4bc a716 07bb b8c3 aa3c
00000040: dec1 39bd 5423 4a3c d914 a2bc 71e1 07bd
00000050: bcb2 45bc 7440 c13a 48f3 f6bc 2333 ef3c
00000060: 9051 88bc 0e28 94bb 637d f13c 4e0a ee3c
00000070: 9359 0ebd cac0 123c 5171 223d d559 283d
00000080: 0c08 d93c 075f 1abd 5567 b93c 902c c3bb
00000090: 4114 2d3c b8c6 d9bc 02c3 94bc eca0 223d
000000a0: bc06 82bd 0f30 7e3b 9626 b5bc b638 b23c
000000b0: a77d 51bc e757 a2bc 1bc2 1dbd dd9b a9bb
000000c0: a4e8 a03c fec6 bd3c 7f30 3abd 8175 86bb
000000d0: 1e55 1abd 0987 0f3d 411d 90bb 8819 c13c
000000e0: 41fd 6fbc 5780 bf3c f79b dbbb 54a7 36bd
000000f0: fe70 263c 29dc 0ebd b212 023d bc0c abbc
-0.051941127 -0.0059636217 -0.005956263 -0.047964144 -0.005438126 -0.0018263278 0.009573192 -0.0015395427
0.032620497 -0.008052828 -0.03935888 -0.039294995 -0.05885523 -0.02594382 -0.0020612867 0.02084528
-0.0453509 0.012337524 -0.019785332 -0.033173982 -0.012066539 0.001474394 -0.030145302 0.029199189
-0.016640455 -0.0045213765 0.029478734 0.029057648 -0.034753393 0.008957097 0.03965885 0.041101296
0.026493095 -0.03768828 0.02263228 -0.00595624 0.010563911 -0.026584014 -0.018159393 0.03970425
-0.06348941 0.003878597 -0.022113126 0.021755558 -0.0127863055 -0.019817306 -0.03851519 -0.005176051
0.019642182 0.023166176 -0.045456406 -0.004103363 -0.03767883 0.03504089 -0.0043980186 0.023571745
-0.014647783 0.023376627 -0.006701942 -0.04459317 0.010158775 -0.03487793 0.03175611 -0.020880096

model.10.weight f4 [64]
00000000: 4ee0 7e3f 091f 8a3f f36a 803f 864d 853f
00000010: 71ca 873f 3620 873f dfc9 833f b158 873f
00000020: 6d16 853f 2a8b 833f 5eea 863f e5dd 863f
00000030: 8683 813f 7c8e 863f dd10 823f de68 833f
00000040: f9d3 823f 65b5 823f b091 7f3f 3650 7e3f
00000050: 6960 833f d8c0 7f3f 5b62 843f b425 763f
00000060: 8ab1 843f e4d7 833f 2798 823f ddd6 813f
00000070: 2d59 843f 81ff 803f 430e 803f 5590 763f
00000080: 0f65 813f 59b8 7f3f 2d5c 813f 18cd 823f
00000090: 57c9 773f f0dc 813f 910d 853f a4a4 7d3f
000000a0: d4f2 803f 5121 833f a807 853f df00 823f
000000b0: 7a05 873f 8f61 873f 2980 863f 4eb8 833f
000000c0: 6a77 843f dfd3 813f bf9b 853f ac63 813f
000000d0: 8c8d 873f 87de 7d3f 6429 813f b37b 7b3f
000000e0: ff5b 8a3f 0a73 863f 982b 853f 3cec 853f
000000f0: 8527 823f f7ca 823f f48d 823f 649d 7d3f
0.9956101 1.0790721 1.0032638 1.0414283 1.0608655 1.0556705 1.0295981 1.0573941
1.0397469 1.0276845 1.0540273 1.0536467 1.0118263 1.0512233 1.0161396 1.0266378
1.0220939 1.0211607 0.99831676 0.9934114 1.0263797 0.9990363 1.0342516 0.9615128
1.0366681 1.030026 1.0202683 1.0143696 1.0339714 1.0077974 1.0004352 0.96313983
1.0108966 0.9989067 1.0106255 1.021884 0.96791595 1.014555 1.0394765 0.99079347
1.0074105 1.0244542 1.0392962 1.0156516 1.0548546 1.0576648 1.0507861 1.029062
1.0348942 1.0142783 1.0438155 1.0108542 1.0590072 0.99167675 1.0090756 0.98235625
1.0809325 1.0503857 1.0403929 1.0462718 1.016831 1.021819 1.0199571 0.99068284

model.10.bias f4 [64]
00000000: 4164 20bc 19b4 0b3c a14b 8fbc b651 10bc
00000010: 36a7 5fbd 0464 f63b 9abb 43bb 4e62 46bc
00000020: 617d 943c 6b52 17bd 9cba 1e3d d905 2b3c
00000030: 8bb6 0cbc 25bf 9abc 94d0 6a3c 92af a7bc
00000040: c395 ecbc 2051 873c 020e ad38 e8ec 2abd
00000050: 0da1 06bd 107d b23c cb1d 7ebb b099 9d3b
00000060: 000a e4bc 9f13 1f3c c916 81bc d20a 9f3c
00000070: ef08 283b c3fc dc3a ef75 d539 b672 5ebb
00000080: af9d 59bc b426 a0bb f355 e33c 5a1a a2bc
00000090: 2cff 713c 0747 debc da71 513c cf94 243c
000000a0: ddc8 9abc 890f 383b 1d58 a93c 3192 043d
000000b0: ce3a d2bb edf8 82bc d77c 24bc 000b 243d
000000c0: d822 6539 54c1 d8bb ade3 88bc a6fb 77bc
000000d0: f150 04bc 33fc b33c 0ff9 c9bc 9602 653b
000000e0: 7e16 9cbc bb92 b93b 8b2a 313d 112f 853c
000000f0: ed1a 54bc e45d 67bc 03fa 953c cdcd ec3b
-0.009789527 0.008526825 -0.017492117 -0.008808544 -0.054602824 0.007519247 -0.0029866458 -0.012108399
0.018126192 -0.036943834 0.038752183 0.010438406 -0.0085884435 -0.018889973 0.014331955 -0.02046946
-0.028880006 0.016518176 8.251892e-05 -0.041729838 -0.032868434 0.02178815 -0.0038775082 0.0048095807
-0.0278368 0.009709268 -0.015757935 0.01941434 0.002564009 0.0016859997 0.00040714393 -0.0033942885
-0.013282224 -0.0048874263 0.027750945 -0.019787956 0.01477031 -0.027133478 0.012783492 0.010045244
-0.018894607 0.0028085432 0.020671898 0.03236598 -0.0064157015 -0.015987838 -0.01003953 0.040049553
0.00021852122 -0.0066148434 -0.016710127 -0.015135681 -0.008075939 0.021970844 -0.024654893 0.0034944168
-0.019053694 0.0056632436 0.043253463 0.016257795 -0.012945873 -0.014121506 0.018307691 0.007226682

model.10.running_mean f4 [64]
00000000: 1b97 44bc 5bbd d23b 99de 293d 0c91 c1bb
00000010: e327 36bb 2689 253c 0506 363d e837 b03c
00000020: b0a9 de3c 3c59 e93a d239 c2bb ddef 2fbc
00000030: fc2c 6ebc a131 7dbb cab5 153c d862 bc3c
00000040: 87ee 23bc 2f59 263d 3297 0abb 3816 3fbc
00000050: 7977 123c d654 123b 6196 be3b 883d 973c
00000060: bf55 4bba c3d8 e83c 3571 3c3d acab 6e3c
00000070: 5fd7 93bb 0a68 f53c 7462 bf3c c31d f23c
00000080: 7f10 783c e7a9 1bbc 3526 6e3c 3276 753c
00000090: d5c2 773b b670 7f3c aff8 043c 0395 623d
000000a0: 7b0d 76bc 0810 843c 0cc0 e4bb 8c20 aa3c
000000b0: bceb fcba 655b e1ba 715d 4f3b 3dd9 033c
000000c0: d54a cb3c 1ce5 153d afee 9abb 3e55 073d
000000d0: 77b8 773c 1cf9 cc3c a389 76bb 9681 973c
000000e0: f708 5c3d 5dcc b93b b9c0 a13b c505 49bc
000000f0: 4bf9 873c addf b0bb 6863 173d 111f 74bb
-0.011998917 0.0064312643 0.04147205 -0.0059071835 -0.002779477 0.0101034995 0.044439334 0.021511033
0.027180523 0.0017803083 -0.005927303 -0.01073834 -0.014537092 -0.0038634317 0.00913758 0.022996351
-0.0100056 0.040612396 -0.0021147248 -0.011663012 0.008939617 0.0022328398 0.0058162664 0.018461958
-0.00077566126 0.028423673 0.0460064 0.014567297 -0.004511758 0.029956836 0.023362376 0.029555207
0.015140652 -0.009500957 0.014535476 0.014981793 0.0037805338 0.015590837 0.008115931 0.05531789
-0.015017862 0.016120926 -0.0069809016 0.020767473 -0.0019296329 -0.0017193375 0.0031641389 0.008047399
0.024815956 0.03659545 -0.0047281603 0.033040278 0.015119663 0.025021128 -0.003761866 0.018494409
0.053719487 0.005670114 0.0049363044 -0.012269442 0.016598364 -0.005397758 0.036960036 -0.0037249962

model.10.running_var f4 [64]
00000000: 3907 c939 2687 843a 1d03 9d3b a465 c73a
00000010: 297f a539 783d da3a 158a 0d3b 9a6b ad3a
00000020: 28b2 ad3a 81df 8a3a ac85 7b3a be4d b939
00000030: 8b40 b239 32c1 933a 798c 9e3a cfd3 dd3a
00000040: 3c26 333a ea38 623b db0c b43a 359a 5b39
00000050: 7392 a93a d7f5 a43a 8d95 da3a 7f9c b33a
00000060: a0b5 623a d67f 003c c8c1 233b 2982 613a
00000070: 6dc1 473a 4f7c 883b 08d7 f13a d96e af3a
00000080: d64f 8b3a 99e6 9039 6c7b 743a 8ebc 8e3a
00000090: 8c4f c339 96ed 893a ae24 153b f4ee 833b
000000a0: 6941 bd3a 7893 f63a 16f6 8a3a 5e65 943a
000000b0: 226a 953a 52df 3b3a cdd9 153a 7706 0f3b
000000c0: 0e62 e13a 2c3a e03a b0a3 f439 920a 963a
000000d0: 0f64 033b a5ad c03a 2c1b 0d3a f121 9c3a
000000e0: 2953 133c e5ab 1d3a 2dba 033b 2324 a839
000000f0: 929d 9f3a 109e 583a 5d1c b03a 3734 4239
0.0003834309 0.0010111078 0.004791631 0.0015212786 0.00031565994 0.0016650399 0.0021597196 0.001323092
0.0013251947 0.0010595174 0.0009594809 0.00035343872 0.00033998894 0.0011272787 0.0012096307 0.0016924086
0.00068340055 0.0034518787 0.0013736741 0.00020942914 0.0012937322 0.0012585473 0.001667665 0.0013703256
0.000864828 0.007842978 0.0024987329 0.0008602464 0.000762007 0.0041652094 0.0018450925 0.0013384476
0.0010628651 0.0002763763 0.00093262526 0.0010889934 0.00037252565 0.0010523077 0.0022757459 0.004026288
0.0014439049 0.001881226 0.0010601904 0.0011321714 0.0011399428 0.0007166761 0.0005716354 0.0021823922
0.001719536 0.001710718 0.00046661263 0.0011447242 0.0020048653 0.0014700188 0.0005382772 0.0011911971
0.008991995 0.0006014689 0.0020099983 0.0003207038 0.0012177697 0.0008263299 0.0013436187 0.00018520733

model.11.weight f4 [128, 64, 3, 3]
00000000: 47f1 5fbc 01d7 183d 724a 36bc e745 70bc
00000010: f21a 973c ed60 da3c 3fff 073b 4134 8ebc
00000020: 5aa4 b3bc 46ec 3d3d d3b6 473d fbc4 fd3b
00000030: 6e0c 523d 4ca0 023d 4e6d 6cbc d75f 323b
00000040: 6052 81bc c7fa 90bc 7efe c4bc cb9d 7bbd
00000050: 76da 4e3b 2a34 163c f70d 05bd 13ae bf3c
00000060: dbe4 a8bc 5836 2ab7 c092 db3c c685 9bbb
00000070: 30f4 efbb dbef dc3b 3d7f cabc 2dac 04bd
00000080: a23c 33bc 25b1 75bd 04f1 febc 5251 1fbc
00000090: d139 a93b cc79 fabc f71d 98bc d834 563c
000000a0: 8c89 3e3b 5825 4abb c3af fd3c eb38 eabc
000000b0: 04c3 ad3b 5b12 efbc 28c0 993c 892a 3cbb
000000c0: b03d 153d 93d9 cf3b 58ee 7d3c 1fc1 2a3c
000000d0: 1735 3c3d 105a 313b 35b2 2abc 8f93 143c
000000e0: 7b4f 0cbc a163 e13b 3228 91bc 8bd7 d43c
000000f0: f727 8c3c d7fd f9bc a808 243c f014 9938
00000100: 39ea 2a3b a234 e2bb 9cca cebb 663b 7dbc
00000110: 14fb b83c c190 1cbd a67d 8fbc aa0d d3bb
00000120: 38e9 5abc b0b8 8f3c a20a cab9 24a8 55bb
00000130: bf59 ee3c 7d67 32bd ded9 fa3c e67c 4c3c
00000140: 3b0c 5dbc 5780 2ebc a4ee f0bc ea68 25bd
00000150: e849 873c b449 76ba 4c49 d2bc 0a3e 2ebb
00000160: f9a1 8bbb f307 ebbc 6b70 08bd bc8a 453d
00000170: 6b47 193c 88b8 50bd c329 0b3d 3a12 f3bc
00000180: f375 603b f26f 173d 5be8 063c 8e7f 56bb
00000190: 0554 223d 4162 28bc 6de5 b9bc 736a 0b3c
000001a0: 65cf 4239 f0e2 dd3b 4e58 3abc 82cc 8fbc
000001b0: d214 75bd b2bd 053b a48f bdbc 0c11 00bc
000001c0: e40a a539 1767 3dbc 9520 263c 5736 1cbd
000001d0: 8f4f 983c 0376 a1ba c501 6bbc b6c2 793b
000001e0: 7258 c83c ae33 33bc 5277 293c d18b cebc
000001f0: 0c49 3dbc c682 4f3d 794b 383b f1a8 bd3b
00000200: 99ec fabc 1cc5 9d3b 0a64 6b3c 1da9 68bd
00000210: 2502 86bc 703c 4c3d cf4f 323b 1d97 85bd
00000220: 0fbf 2f3c ae75 79bc 4f29 d63b f477 33bb
00000230: 10ea 27bc 9419 9b3c 59a1 1a3d 8e70 e53c
00000240: b61a dbbc 9cd0 c53c a2df dfbb 5659 f3bb
00000250: 70a2 d23c 33c4 b13c e9be f9bc fe41 0bbb
00000260: fc0c aabb a8b3 c6bc b363 58bc e6a3 0dbc
00000270: c71f ef3c cfde 33bc 4c04 3abd 6386 afba
00000280: e65c 91bc af4f 353c 6dc6 b63b b022 d33c
00000290: 9268 1ebd b8be 5bba f1e8 f93b 7dfa 00bd
000002a0: fa66 ca3b 637c 913b 3057 38bd 664b e7bc
000002b0: 30d3 dabc 2779 4a3b 4aff 34bd a6f3 473d
000002c0: d618 103d feba bcbc 24ba 163d 4194 983c
000002d0: c5c1 1c3c 9b8d 5b3b e93f a83c a474 e63b
000002e0: 78dd d63c dfb8 7e3d 3366 34bd 4f2f c13c
000002f0: 38f6 2f3d d3b7 233d e9d0 2fbd b2c5 d43c
00000300: 4288 563c b1fb 493c c6f3 a0ba 07df 1a3c
00000310: 6a01 00bb dd38 01bd aa78 bc3c a362 153d
00000320: 85c9 00bd 77a3 933c 7b88 433a 6d0b 39bc
00000330: 1725 213d c35c 563d 51ee f6bc dc7c 80bb
00000340: b317 803c 69e7 55bb 4633 3cbc 69f7 363d
00000350: 22fe f13c 5b67 1d3d ee79 b73b 03ec 0f3d
00000360: 2984 1f3c c8ff a93c 8ad3 8b3c 1242 8e3c
00000370: 9ca5 0e3d fed1 833c 560c 31bc 3732 613c
00000380: 3a29 51bc 31df c13c 004d 2a3d 30ea 46bc
00000390: aaeb 4b3c b808 fe3c d218 6ebb be22 fc3c
000003a0: 7e85 323c afc6 67bd 6bbc 1a3c 9706 6bbb
000003b0: 9587 833c 40ec 9cbc 7b40 b23c ce13 7c3c
000003c0: 47de 2abc a873 013d 55d2 a83c a6e7 763d
000003d0: 1239 913b 73d0 d1bc 18b0 123c fda9 9c39
000003e0: 7045 abbc 0902 9b3c b295 19ba b27a a6bc
000003f0: 9409 44bd 59b6 adbc e985 4ebc 72c8 e4bc
-0.013668365 0.03731442 -0.011126148 -0.0146651035 0.018445466 0.026657546 0.0020751504 -0.017358901
-0.021928955 0.046367906 0.04875834 0.007744429 0.051281385 0.031891152 -0.014430357 0.002721777
-0.01578635 -0.017697705 -0.024047133 -0.06142978 0.0031563318 0.00916771 -0.03248402 0.023398435
-0.02061694 -1.01454425e-05 0.026803374 -0.0047461716 -0.0073228106 0.00674246 -0.024718875 -0.032390762
-0.010939749 -0.05998339 -0.031120785 -0.009723978 0.005164363 -0.030575655 -0.018568976 0.013074122
0.0029073684 -0.0030845013 0.030967599 -0.028591594 0.0053027887 -0.029183557 0.018768385 -0.0028711876
0.036435783 0.0063430755 0.01549872 0.01042202 0.045949068 0.0027061738 -0.010418464 0.009068384
-0.0085638715 0.006878332 -0.017719362 0.025981685 0.0171089 -0.030516548 0.010011829 7.2995084e-05
0.002607955 -0.006903247 -0.006310774 -0.015456056 0.02258066 -0.038223986 -0.017515969 -0.006440838
-0.013361268 0.01754412 -0.00038536364 -0.003260144 0.029095529 -0.043555725 0.030621465 0.01248095
-0.0134916855 -0.010650716 -0.029410668 -0.040383257 0.016514733 -0.0009395138 -0.025669716 -0.002658727
-0.004261252 -0.028690314 -0.033310335 0.04822801 0.009355406 -0.050957233 0.033975374 -0.029671777
0.003424999 0.036971994 0.008234109 -0.0032729837 0.03963091 -0.010277332 -0.022692407 0.008509266
0.00018578542 0.006771438 -0.011373593 -0.017553572 -0.05983431 0.0020407257 -0.023139782 -0.007816564
0.00031479367 -0.011560223 0.010139604 -0.03813776 0.018592624 -0.0012318495 -0.014343684 0.0038110442
0.024456237 -0.010937614 0.01034339 -0.025213154 -0.01155306 0.050661825 0.0028121157 0.0057879617
-0.030630397 0.004814757 0.014367113 -0.056801904 -0.016358444 0.049862325 0.0027208214 -0.06522963
0.010726704 -0.015225811 0.006535686 -0.002738473 -0.010248676 0.018933095 0.03775153 0.028007772
-0.026746135 0.024147324 -0.006832079 -0.007426421 0.025712222 0.0217 -0.03048654 -0.0021249051
-0.005189536 -0.024255589 -0.013207364 -0.008645033 0.029189957 -0.010978415 -0.045414254 -0.0013391491
-0.017744493 0.011066361 0.0055778534 0.025773376 -0.038673945 -0.00083826063 0.0076266457 -0.031488884
0.0061768265 0.004439877 -0.045005023 -0.028234195 -0.02671203 0.0030894966 -0.044188775 0.048816346
0.035179935 -0.023038384 0.03679861 0.01862538 0.009567683 0.0033501151 0.020538287 0.0070329476
0.026228651 0.062188026 -0.044042777 0.023582129 0.042959422 0.03997023 -0.04292384 0.025973175
0.01309401 0.012328074 -0.0012279681 0.009452588 -0.0019532093 -0.03154837 0.023006756 0.03647102
-0.031442184 0.018022282 0.0007458997 -0.011294228 0.039342012 0.05233456 -0.030142935 -0.0039211344
0.0156363 -0.0032639152 -0.011486834 0.044669542 0.029540125 0.038428646 0.005599252 0.035137188
0.009736099 0.020751849 0.017068643 0.01736549 0.034825906 0.016091343 -0.010806164 0.013744882
-0.012766177 0.023665996 0.04157734 -0.012140796 0.012446323 0.031010017 -0.0036330712 0.030778285
0.010896085 -0.056585964 0.009444336 -0.0035862082 0.016055861 -0.019155622 0.021759262 0.015385581
-0.010428972 0.03160444 0.020608107 0.06027951 0.004431852 -0.025612092 0.008953117 0.0002988129
-0.020907134 0.018921869 -0.0005858793 -0.020322178 -0.047860697 -0.021205114 -0.012605169 -0.027927611

model.11.bias f4 [128]
00000000: 46c0 703c 9dfb d9bb 8fb2 87ba 589e c73b
00000010: c30b 0ebd 21c3 12bc c33c 7bbb d1be bf3b
00000020: 32ec 3cbc 1ffd e93c 7593 0ebc e04f 54bd
00000030: 0eb5 473b 789e 10bc 47b0 833c dc3d 06bd
00000040: e1ec 94bc 4f4e c5bc 8602 cebc c793 b83b
00000050: 9dc1 393b 28cb c2bc 39d1 17bc 1822 3d3c
00000060: 7750 b9bb 2a8b a73c 044f 043d 1e94 c5bc
00000070: 007e 14bd 75e9 9e3c 8d3a 9a3a 8a02 43bc
00000080: ce47 12bd 2687 5d3b c868 a33c 1e9b 3ebd
00000090: 63cb a13b d68f cb3c 0e19 7c3a 2df2 c0bb
000000a0: 5e22 cdbc 61cb b13c fc67 0dbc 6f27 3e3c
000000b0: 6251 153c 7c9e 69bc 8c4d 84bc 24ff b638
000000c0: 30da 44bc dea0 2cb9 a353 93bb 76fc 89b9
000000d0: e057 2dbd 4623 793c a817 103c 480a f8bc
000000e0: 3c5e eebc d5e1 f4bc 7c8e b9ba d4f3 86bc
000000f0: ab51 c83b d0f6 74bc 353c 26ba 8096 db3b
00000100: 0c14 83b9 7508 28bc 0ad3 59bb ee89 95bc
00000110: e2b2 05bd e67d 3fbc 7e5f ce3b defa bcbc
00000120: a728 8fbc 2146 fcbb a87f 0639 79e2 a1bc
00000130: a8d9 3fbc ef56 6fbc 0acb deba 1187 46b8
00000140: 7827 b0bc fcd5 b43b 0e3d 14bd fd26 4bbc
00000150: 2425 55bb 095d d3bc f538 8abc 241c 92bc
00000160: bac0 dabc ec6a 3c3a 24ff 033d cf74 2dbd
00000170: 35e7 9cbb 8660 4dbc 9402 7dbb 97df bf3c
00000180: 6590 05bc 9d4b 04bd 3b65 8abc 7842 973b
00000190: 7ad3 89bc cf4e 85bc 81c7 993a e6dd c7bc
000001a0: b529 31bc 49cc 053c 3fea e43c 5276 66bc
000001b0: d82b 3dbc 82c7 86bc f7a8 fc3a ee92 bebb
000001c0: a48a 513c d1fc 303c 4aee bbbb 9921 763b
000001d0: f2e4 5fbd ce57 813b 8e3e 24bd edcf fabc
000001e0: 11e2 e8bc 0421 1dbd 7454 91bb 4283 34bc
000001f0: ea17 99bc 51d2 e2bc ee3f 17bd 9fda 7abc
0.014694279 -0.006652309 -0.0010352897 0.006091874 -0.034679186 -0.008957655 -0.0038335777 0.0058516045
-0.011530923 0.02856308 -0.008702149 -0.051833987 0.0030472907 -0.008826844 0.016075267 -0.032773837
-0.018179359 -0.024085192 -0.025147688 0.005632851 0.0028344162 -0.023778513 -0.009266191 0.011543773
-0.005655344 0.0204521 0.032301918 -0.02411848 -0.036252975 0.01939843 0.0011766717 -0.011902461
-0.03571301 0.0033802479 0.019947425 -0.04653465 0.0049375757 0.02484886 0.00096167705 -0.0058882446
-0.025040802 0.021703424 -0.008630749 0.011606081 0.009113641 -0.014258977 -0.016150258 8.72596e-05
-0.012014911 -0.00016463126 -0.0044960543 -0.00026318774 -0.042320132 0.015206164 0.008794703 -0.03027834
-0.029097669 -0.029892841 -0.0014156844 -0.016473688 0.006113251 -0.014951423 -0.0006341369 0.0067012906
-0.00025001203 -0.010255923 -0.0033237361 -0.018254247 -0.0326413 -0.011687731 0.0062980046 -0.023068842
-0.01747544 -0.0076987897 0.00012826791 -0.01976131 -0.011709608 -0.014608129 -0.0016997766 -4.733267e-05
-0.021503195 0.005518673 -0.03619104 -0.012399432 -0.0032523358 -0.025801199 -0.016872862 -0.017835684
-0.026703227 0.00071875635 0.032225743 -0.042347725 -0.004788304 -0.01253522 -0.0038606273 0.023422046
-0.008152102 -0.032298673 -0.016893974 0.004616078 -0.016824473 -0.01627293 0.001173243 -0.024397802
-0.010813166 0.008166381 0.027943728 -0.014066296 -0.011546098 -0.016452555 0.001927643 -0.005815855
0.012789402 0.010802464 -0.0057351934 0.0037556647 -0.0546617 0.0039472347 -0.04009872 -0.030616725
-0.02842811 -0.038361564 -0.0044351164 -0.011017622 -0.01868816 -0.027688177 -0.036926202 -0.015310912

model.14.weight f4 [128]
00000000: c6aa 763f 1ea5 7a3f 3c4a 823f 29a5 793f
00000010: 5d92 803f 3d03 853f 95bf 873f d3a7 7b3f
00000020: 071f 7b3f 062f 803f 41d7 803f 7690 763f
00000030: 8e9f 833f e9d0 7c3f ba08 813f a56f 823f
00000040: 2a69 843f 0c08 813f 68e1 803f 2da1 7e3f
00000050: 3103 803f 5c73 803f 2936 7b3f da30 7e3f
00000060: 5008 833f 3a33 7f3f c52e 833f 164c 7b3f
00000070: 362a 833f b9dd 853f 0eff 833f 2d1a 823f
00000080: 384e 873f a711 823f b363 883f dabd 7a3f
00000090: ad8b 793f 6998 823f bd99 7f3f 1ec9 783f
000000a0: 41d0 813f 9a20 7f3f 9a53 773f 87f0 773f
000000b0: 2a7f 853f f71a 823f 830e 833f bb07 893f
000000c0: ac46 803f cebd 873f d71c 813f 37a4 7e3f
000000d0: aff4 753f e3cc 7d3f c3af 873f d1fe 7f3f
000000e0: 61af 813f 6e86 813f 4898 803f 30ec 823f
000000f0: d33c 853f 8eef 833f 06b4 813f 1476 853f
00000100: 62a7 803f df9f 7b3f 5429 803f cef4 803f
00000110: 9440 7a3f ce4e 7a3f b075 7d3f cae4 8a3f
00000120: abfc 833f 2540 7d3f aff0 823f 646e 7d3f
00000130: feb6 803f 36da 833f 89be 783f df09 793f
00000140: f99b 7c3f 25bd 853f b6ad 7d3f a8d7 803f
00000150: d68e 863f 88f9 7b3f 2e7f 7e3f ac31 723f
00000160: efcf 823f a2ba 873f eb1b 763f 04bb 823f
00000170: c9f4 853f 6034 7f3f e01f 833f df71 823f
00000180: 8df4 7a3f 6932 753f f5ab 7e3f ab70 823f
00000190: ea1f 833f 251c 833f 530f 813f 3eec 813f
000001a0: 05a0 7f3f f1cd 843f 72e2 7a3f 987b 7c3f
000001b0: d07f 7f3f 7e2c 883f af80 863f 7942 843f
000001c0: 50b2 823f 35df 823f de67 7d3f 5a11 823f
000001d0: c7a1 813f 0cc6 863f 6089 843f c08a 893f
000001e0: b543 773f 893d 823f 605e 7e3f 6e78 813f
000001f0: ef51 853f 57fa 7f3f b3ed 813f c1f6 7b3f
0.9635433 0.979082 1.0178905 0.9751764 1.0044667 1.0391613 1.0605341 0.98302954
0.9809422 1.001435 1.006569 0.9631418 1.0283067 0.9875627 1.0080788 1.0190321
1.0344594 1.0080581 1.0068789 0.99464685 1.0000974 1.0035205 0.98129517 0.9929329
1.0236912 0.9968754 1.0248648 0.9816297 1.0247257 1.0458289 1.0312212 1.0164238
1.0570745 1.0161637 1.0655426 0.9794594 0.97478753 1.0202762 0.9984396 0.9718188
1.0141679 0.9965912 0.9661194 0.9685139 1.0429432 1.0164479 1.0238804 1.0705484
1.0021567 1.0604799 1.0086926 0.9946932 0.9607648 0.9914076 1.0600513 0.99998194
1.0131646 1.011915 1.0046473 1.0228329 1.0409187 1.0307481 1.0133064 1.042666
1.0051081 0.9829082 1.0012612 1.0074708 0.9775479 0.97776496 0.990077 1.0851071
1.0311483 0.98926 1.0229701 0.9899657 1.0055845 1.0300968 0.97165734 0.9728069
0.98675495 1.0448347 0.99093187 1.0065813 1.051234 0.9842763 0.9941281 0.94607043
1.0219706 1.0603831 0.9613635 1.0213323 1.0465328 0.9968929 1.0244102 1.0191001
0.98029405 0.95780045 0.99481136 1.0190634 1.0244114 1.0242964 1.0082802 1.015022
0.99853545 1.0375348 0.9800178 0.9862609 0.998044 1.0638578 1.0508021 1.0332786
1.0210667 1.0224367 0.98986614 1.0161545 1.0127496 1.0529189 1.0354424 1.0745468
0.9658769 1.0175029 0.99362755 1.0114877 1.0415629 0.99991363 1.0150665 0.9842339

model.14.bias f4 [128]
00000000: 1563 3dbc 5d40 053d 0bd6 4e3c a9b4 5f3b
00000010: 6170 aa3b 9cd3 9839 87d6 b13c 01d8 11bc
00000020: fc2e ff3b 9eb3 533c 7599 6ebc 6dcc a23c
00000030: 413b b13c 6e9d 45bc 3d3e 41bc eded e33b
00000040: 128a 6fbc 0781 153c d175 c8bb 7477 793c
00000050: 121f fe3b b2a3 353c 2f8f 06bc d443 0a3d
00000060: cfe8 27b9 0ba8 e83b 4346 ba3c 053c 883c
00000070: 5932 21bc c2df 833c f6f8 103d 8b5c 5cbc
00000080: bccb 43bc 7c65 863c bbd1 013d 3a20 7e3c
00000090: 7416 12bc ae3a 953c 75a8 ac3c 5543 31bc
000000a0: 4b44 c43b 0610 d23c 18d9 7f3b 9c62 febb
000000b0: d346 7f3c 4a44 de3b cb1d 0fbc da9b 823c
000000c0: b519 e53c aaa6 9b3c 2a3c ff3c 83a1 3cbc
000000d0: eee1 3d3c b12b 573b ff99 ae3c 5c18 6fbc
000000e0: 62ee 233c b4f1 973c cde7 40bb 85ee 57bc
000000f0: 6d45 3a3d 1005 d03b 8c3e 34ba a963 343c
00000100: 1791 51bc 4720 64bc 4c6a efbb 0048 54bc
00000110: 35ce 7a3c cccb d8ba 3a58 b73c 28fe 4bbc
00000120: 712e a43c 7612 53bc 0553 5cbc b8e0 60bc
00000130: bf88 46bc 654f 0cbc 8b16 ad3c b5d5 113a
00000140: 68a4 61bc 87c2 3b3d baf0 413c c557 a4bb
00000150: 687e 25bc 6555 8abb 8574 56bc a5f4 32bb
00000160: 71ac 843c 4547 303d ae6f 553b 1ec6 0fbb
00000170: 5d9e 1e3d 7f79 35bc f139 3a3b 9820 ebb9
00000180: 9229 863c fa9c 41bc 9a90 4dba f458 71bc
00000190: 9fc6 29bc 3c74 79bc 0e56 8d3c 0b79 cb3a
000001a0: 8f70 42bc 9b36 20bb 8d9b cfba 2525 6d3c
000001b0: c895 b23c 8c43 4a3c d334 bfba 298b 3b3c
000001c0: 0350 8c3c f5fc f83c 268d e9bb ddd4 723c
000001d0: 353f afbb 7407 223b 4834 aaba 5419 3cbc
000001e0: de34 0dbb 6bb7 a3bb 1075 c63b 0b21 5c3c
000001f0: bc7f 943c 516a f3bb a869 3cbc 7272 00bc
-0.0115592675 0.032532085 0.012624274 0.0034134781 0.005201385 0.0002914936 0.02170874 -0.008901597
0.0077875834 0.012921242 -0.014562954 0.019872868 0.0216347 -0.01206146 -0.011794624 0.006955853
-0.014620321 0.009125001 -0.0061175604 0.015226234 0.0077551687 0.011086391 -0.008212849 0.033756092
-0.00016013089 0.0071001104 0.022738582 0.016630182 -0.009838664 0.016097907 0.035393678 -0.013449798
-0.0119504295 0.016405813 0.031694155 0.015510613 -0.008916486 0.018216457 0.02107642 -0.010819276
0.0059895865 0.025642406 0.003903931 -0.00776322 0.015580851 0.006783043 -0.008735131 0.015943456
0.02796636 0.01900037 0.031156618 -0.011513117 0.01158951 0.0032832439 0.021313665 -0.01459321
0.010005565 0.01854787 -0.002943504 -0.013179426 0.045476366 0.0063482597 -0.0006875775 0.011010089
-0.01279094 -0.013923711 -0.0073063727 -0.012956619 0.015307953 -0.0016540228 0.022380937 -0.012450732
0.020041676 -0.012882819 -0.013447528 -0.013725452 -0.012117564 -0.008563851 0.021128913 0.0005563156
-0.013772108 0.045839813 0.011837179 -0.0050153458 -0.010100938 -0.0042216056 -0.013089304 -0.0027306464
0.016195508 0.043036718 0.0032567787 -0.0021938155 0.038725246 -0.01107633 0.0028415883 -0.00044846977
0.016377244 -0.011817211 -0.00078416767 -0.014730681 -0.010362296 -0.015225466 0.017252948 0.0015523745
-0.011867656 -0.002444661 -0.0015839204 0.014474188 0.021799937 0.012345206 -0.0014587886 0.011446753
0.017127996 0.030394057 -0.007127422 0.014821258 -0.005348111 0.002472368 -0.0012985552 -0.011480648
-0.0021546404 -0.0049962304 0.0060564354 0.013435612 0.018127315 -0.0074284454 -0.0114998 -0.007839786
