results/netD2.pth (torch_old, 405197 bytes, 21 tensors)

model.0.weight f4 [16, 3, 3, 3]
0	0xbc72c738	-0.014818005
1	0xbbb60ff2	-0.0055561
2	0xbd5237f4	-0.051322892
3	0x3b0cea8f	0.0021502113
4	0xbd0f0c5e	-0.034923904
5	0xbc0c0fed	-0.008548719
6	0xbd471065	-0.04859962
7	0xbc96d24e	-0.018410828
8	0x3c12e030	0.008964583
9	0xbbd1e6c3	-0.006405683
10	0xbc938f78	-0.018012747
11	0xbd588719	-0.052863214
12	0xbd246af1	-0.04014105
13	0xbcf632b1	-0.030053468
14	0xbd16d8b8	-0.036827773
15	0x3cc5351e	0.02407318
16	0x3c2d1e6c	0.010566335
17	0xbc4f1854	-0.012640078
18	0xbce49cd4	-0.027906813
19	0xbb5e53a6	-0.003392437
20	0x3c22a88c	0.00992788
21	0xbc3c1458	-0.01147946
22	0x3b6a689a	0.0035767914
23	0xbceb8ce7	-0.02875371
24	0xbd082292	-0.033236094
25	0xbd013ee0	-0.031554103
26	0xbccc03f8	-0.024904236
27	0x3cb9f183	0.02269817
28	0xbbda3b5e	-0.006659909
29	0x3bd0189f	0.0063505913
30	0x3c61dd99	0.013785743
31	0x3cd74689	0.026278751
32	0x3c649593	0.013951677
33	0x3ccf893b	0.025333991
34	0x3cfe6fda	0.031059194
35	0x3cffef8b	0.031242153
36	0x3b88b24d	0.0041716457
37	0x3c67a7b7	0.014139107
38	0x3d1efa68	0.038813025
39	0x3cb0f70c	0.021602176
40	0x3b09eaf6	0.0021044589
41	0xbc1f88c7	-0.0097372
42	0x3cdb21d0	0.026749521
43	0x3bad63f2	0.0052914554
44	0xbb879115	-0.004137168
45	0xbc5be63b	-0.01342159
46	0xbc3c94b1	-0.01151006
47	0x3c968766	0.01837511
48	0xba17a004	-0.0005784037
49	0x3d00002b	0.03125016
50	0x3cf72d4e	0.03017297
51	0x3c182b53	0.009287673
52	0xbc73b368	-0.014874317
53	0xbc806fdd	-0.01567834
54	0x3c08432e	0.008316798
55	0x3aad20e1	0.0013208651
56	0xbcba8414	-0.022768058
57	0xbd347dab	-0.04406516
58	0xbbde0828	-0.0067758746
59	0xbc8960d3	-0.016769802
60	0x3c2bd971	0.010488854
61	0x3cd67e0c	0.02618315
62	0x3afe9d3f	0.0019425525
63	0xbc4924db	-0.012276853
64	0x3a6366e9	0.00086746976
65	0x3c8cbe47	0.017180575
66	0xbc4b09cb	-0.012392472
67	0x3c964d47	0.018347396
68	0xbd219fa4	-0.039458886
69	0xbcf7aa46	-0.03023256
70	0x3c5cdead	0.013480824
71	0x3cc6adb4	0.02425275
72	0x3c33f72e	0.010984225
73	0xbc2838ba	-0.010267431
74	0xbbeacb48	-0.0071653463
75	0xbc9c5d8a	-0.019087572
76	0xbc8931aa	-0.016747314
77	0xbb6cef0c	-0.0036153225
78	0xbc0aac2e	-0.008463902
79	0xbc73ca9c	-0.014879849
80	0xbcb5a0c1	-0.02217138
81	0x3caa0dfa	0.020758618
82	0x3ce0475f	0.027377782
83	0xbcd15e5c	-0.02555769
84	0x3d0b97ab	0.03408019
85	0xbc6d267f	-0.01447451
86	0xbc9aae32	-0.01888189
87	0x3be3713b	0.0069409884
88	0x3ce469c8	0.027882472
89	0x3cef39a8	0.029202297
90	0xbbadb961	-0.00530164
91	0x3ca9ce57	0.020728273
92	0x3c1be3bc	0.009514745
93	0x3ad5a348	0.0016299272
94	0xbca12135	-0.019669155
95	0xbcf65e0e	-0.030074146
96	0xbd048cf9	-0.032361005
97	0x3ba375af	0.004988394
98	0xbc291987	-0.010321028
99	0x3b8b6c82	0.0042548785
100	0xbc99152a	-0.01868685
101	0x3c1d6398	0.0096062645
102	0x3cfe546e	0.031046119
103	0x3cc52af8	0.02406834
104	0x3c3c62f9	0.011498206
105	0xbbe80406	-0.0070805578
106	0xbcbcf057	-0.023063822
107	0xbcbd72ba	-0.023125995
108	0xbcf7c873	-0.030246949
109	0xbc5af372	-0.013363706
110	0x3c01781b	0.0079021705
111	0xbd0eb512	-0.03484065
112	0xbd03b784	-0.032157436
113	0xbccf1400	-0.025278091
114	0xbd430f77	-0.04762217
115	0x3cd5fffb	0.026123038
116	0xbbf9554c	-0.007609045
117	0xbb55ef60	-0.00326439
118	0xbc971085	-0.018440494
119	0xbcf0c715	-0.029391805
120	0x3c054bb4	0.008135725
121	0xbcfa0130	-0.030518144
122	0xbd29bace	-0.041437916
123	0x3c8b1efb	0.016982546
124	0x3bf5ba43	0.007499011
125	0xbc6c25c4	-0.014413301
126	0xb8cb70ce	-9.700806e-05
127	0xbc8e5daf	-0.017378656
128	0xbc04e4a5	-0.008111154
129	0x3954a22f	0.00020278314
130	0xbc83fd05	-0.01611186
131	0xbcd9c5e1	-0.026583614
132	0xbd090ccc	-0.03345947
133	0xbd0e395d	-0.034722675
134	0x3b0065d7	0.0019591951
135	0x3b8b5a3c	0.0042527
136	0xbd250ed2	-0.040297337
137	0xbb781e91	-0.0037860016
138	0xbc7fe24d	-0.015617919
139	0xbb19ad0d	-0.0023449094
140	0xbbdd1e7e	-0.0067480197
141	0xbd6b45f1	-0.05743975
142	0x3c9eff2f	0.01940879
143	0xbcc1af87	-0.023643268
144	0xbd64d9f5	-0.055871923
145	0xbcefdf82	-0.029281382
146	0xbc6560bc	-0.014000114
147	0xbd04a77c	-0.032386288
148	0x3c2ff6fd	0.010740039
149	0xbc550d30	-0.013003632
150	0xbcfb7f41	-0.030700328
151	0xbba320f2	-0.0049782926
152	0xbc4794b0	-0.012181446
153	0xbba3fa8f	-0.005004234
154	0xbc4ce8aa	-0.012506643
155	0x3ab5f452	0.0013882017
156	0xbc354563	-0.011063906
157	0xbd033d32	-0.032040782
158	0xbd2e977b	-0.04262493
159	0xbcf7ac60	-0.030233562
160	0xbba8e919	-0.0051547405
161	0xbba0b2e9	-0.0049041403
162	0x3c3fb523	0.011700901
163	0xbd2b7f4c	-0.041869447
164	0xbce1765a	-0.027522255
165	0x3d1daa22	0.03849233
166	0x38aee026	8.3387175e-05
167	0x3c9840b5	0.018585542
168	0x3ca21f09	0.01979019
169	0xbb15f589	-0.0022881946
170	0x3c3887bd	0.011262831
171	0x3c80927b	0.015694847
172	0x3cd5f147	0.026116027
173	0x3ac6201a	0.0015115768
174	0xbb6627ad	-0.0035118863
175	0xbcbf97e1	-0.023387851
176	0xbc7a79f9	-0.01528787
177	0x3cdebf53	0.02719084
178	0xbcd3c4fd	-0.025850767
179	0x3d3cb968	0.046075255
180	0xbc88f697	-0.016719146
181	0xbc3112e7	-0.010807729
182	0x3c21cc84	0.0098754205
183	0xbba30e0b	-0.0049760393
184	0x3c6b73ac	0.01437084
185	0xbc01b567	-0.007916785
186	0xbca065a8	-0.019579723
187	0xbc22642b	-0.009911577
188	0xbc737c81	-0.014861227
189	0x3c71048d	0.014710558
190	0xbb11278a	-0.0022148811
191	0xbb66dab5	-0.0035225574
192	0xbc60f3cc	-0.013730001
193	0x3c491c66	0.012274837
194	0x3c1081ec	0.008820038
195	0xbc536a63	-0.012903783
196	0x3c90fdc3	0.017699128
197	0xbba98479	-0.0051732627
198	0xbd0ec69d	-0.03485738
199	0xbd10d7e9	-0.035362158
200	0xba7b2acd	-0.0009581268
201	0xbaf668a1	-0.0018799492
202	0xbce46106	-0.027878296
203	0xbd45b88d	-0.048271704
204	0x3bd68fa4	0.006547885
205	0xbbb7617e	-0.005596339
206	0x3bfce8b2	0.007718169
207	0xbc678d71	-0.014132843
208	0xbbb85ded	-0.005626431
209	0x3c438155	0.011932691
210	0xbcb37fe6	-0.021911573
211	0x3980a585	0.00024537384
212	0xbcb13634	-0.021632291
213	0x3b29e7ad	0.0025925443
214	0xbbe7ba0b	-0.0070717386
215	0xbc692fb4	-0.014232565
216	0x3c115c82	0.008872153
217	0x3c9a9132	0.018868063
218	0xbd079100	-0.033097267
219	0x3cd5193b	0.026013007
220	0x3be5d002	0.007013322
221	0x3c0836ef	0.008313878
222	0x3bd34fbb	0.0064487136
223	0xbb91d8fa	-0.0044509144
224	0x3cf15a31	0.029461952
225	0x3c77ff03	0.015136483
226	0x3d29b6d5	0.041434128
227	0x3d4c5fe4	0.049896136
228	0x3c154df6	0.009112826
229	0x3c8d069f	0.017215071
230	0x3c541590	0.012944594
231	0x3d19d22b	0.037553947
232	0x3c0d240c	0.008614551
233	0x3ba27f55	0.004959027
234	0x3bcc90af	0.0062428336
235	0x3cc8f1d0	0.024529368
236	0x3ce14cf5	0.027502516
237	0xbc4a24b4	-0.012337852
238	0x3d1e2792	0.038611956
239	0x3c8c25dc	0.017107897
240	0xbc768512	-0.015046375
241	0x3c8f7f72	0.017516825
242	0x3c8fe983	0.017567402
243	0x3bfb129c	0.0076621305
244	0xbc0612c0	-0.008183181
245	0x3af30d6a	0.0018543426
246	0x3beeffad	0.0072936625
247	0xbbb850df	-0.005624875
248	0x3a086dd5	0.00052043545
249	0x3c6204c3	0.013795081
250	0xbb114906	-0.002216877
251	0xbc070058	-0.008239828
252	0xba80f524	-0.0009838683
253	0x3c1bbcc0	0.009505451
254	0x3da0a0e7	0.0784319
255	0x3cc4d20f	0.024025945

model.0.bias f4 [16]
0	0xbd856b6b	-0.06514629
1	0x3e37094e	0.17874643
2	0xbe3fe70b	-0.1874048
3	0xbd8fc732	-0.07020415
4	0x3d8ba882	0.0681925
5	0xbd7296a2	-0.059225686
6	0x3e1bb2c3	0.15204911
7	0xbdbed675	-0.09318248
8	0xbe2a9294	-0.16657478
9	0xbd8f9ab5	-0.0701193
10	0xbd90d620	-0.07072091
11	0xbe349f5e	-0.17638919
12	0x3dcc5bbc	0.099784344
13	0xbd133ead	-0.035948444
14	0xbe26768d	-0.16256161
15	0x3d7af7a1	0.061271314

model.3.weight f4 [32, 16, 3, 3]
0	0x3bfad63c	0.0076549333
1	0x3ba50dc7	0.005037043
2	0xbbadc125	-0.0053025656
3	0xbc983181	-0.018578293
4	0x3d548166	0.051881216
5	0x3c28e9fd	0.010309693
6	0x3d4ffb11	0.050776545
7	0x3ca7e936	0.020496946
8	0x3ce4603f	0.027877925
9	0xbc955bea	-0.018232305
10	0xbc956d85	-0.0182407
11	0x3b8a6208	0.004223112
12	0x3cdb15fd	0.026743883
13	0xbcefaa36	-0.029255968
14	0x3b38dea2	0.0028208871
15	0x3cca6ca5	0.024710009
16	0x3c22de8d	0.009940756
17	0x3d018fe3	0.03163136
18	0x3bfacc83	0.007653774
19	0x3964d9da	0.0002182493
20	0xbca907ea	-0.020633657
21	0x3c7fb204	0.015606407
22	0x3bb51111	0.005525716
23	0xbc8b8bc4	-0.017034419
24	0xbcc731a7	-0.024315668
25	0xbc754d45	-0.014972036
26	0x3d0e6ca5	0.03477158
27	0x3b246eee	0.0025090533
28	0xbd3fac85	-0.046795387
29	0xbc84eeaa	-0.016227085
30	0xbca9c2a7	-0.0207227
31	0xbd24c7d6	-0.04022964
32	0x3c4c9c1b	0.01248839
33	0xbd2f38a7	-0.042778637
34	0xbcf4760c	-0.029841445
35	0xbb260116	-0.0025330237
36	0x3c2d7e44	0.010589186
37	0x3cde8a16	0.027165454
38	0x3d611071	0.05494732
39	0x3cc55b3c	0.024091356
40	0xbb35cd86	-0.002774091
41	0x3cda542f	0.02665147
42	0x3cbf34d3	0.023340618
43	0xbbd4a32e	-0.006489179
44	0x3c58aa4b	0.013224195
45	0xbc2fa2fa	-0.010720009
46	0x3d0f083e	0.03491997
47	0x3cf30b6b	0.02966853
48	0x3d1d133a	0.038348414
49	0x3d114d0a	0.03547386
50	0x3ca17df1	0.019713374
51	0x3c03bfa5	0.008041297
52	0x3ccf1c66	0.025282096
53	0xbb5eb9f2	-0.0033985344
54	0xbc44c830	-0.012010619
55	0xbc864e9f	-0.016394911
56	0x3cab1a8c	0.020886682
57	0x3c9cca10	0.01913932
58	0xb9f287d0	-0.00046259025
59	0xbcfcdba4	-0.030866452
60	0x3d28c2bb	0.041201334
61	0xbc952f0f	-0.018210916
62	0x3b13c3cb	0.0022547122
63	0x3c4fc069	0.0126801515
64	0x3d16b335	0.036792
65	0x3c34cde6	0.011035418
66	0x3c70e6d0	0.0147034675
67	0x3c1ebaf5	0.009688129
68	0xbd0808af	-0.033211406
69	0x3d481e30	0.048856914
70	0x3ca73cf6	0.02041481
71	0xba4c9009	-0.00078034453
72	0xbd58b4b5	-0.05290671
73	0xbc661c19	-0.014044785
74	0xbc46c1fc	-0.01213121
75	0xbd5af5cc	-0.053457066
76	0x3c4426af	0.0119721135
77	0xbd192367	-0.037387278
78	0x3b820f57	0.003969114
79	0x3a0e191d	0.0005420612
80	0xbd913c6b	-0.07091602
81	0xbc992eed	-0.018699134
82	0xb9e5bd90	-0.0004381952
83	0xbc412744	-0.011789147
84	0x3b60c77c	0.003429859
85	0x3c49600b	0.012290965
86	0xbc965460	-0.01835078
87	0xbce6accc	-0.028158568
88	0x3c191792	0.0093439985
89	0x3d33e6b8	0.043921202
90	0xbcf8aed8	-0.03035681
91	0x3c38f86a	0.011289695
92	0x3d193980	0.037408352
93	0xbd2f32e3	-0.04277314
94	0xbc21daec	-0.009878855
95	0xbd3fadb3	-0.04679651
96	0xbd52c421	-0.051456574
97	0xbd3facb8	-0.046795577
98	0x3b0b135e	0.002122126
99	0xbc41d4a2	-0.011830481
100	0xbcf57914	-0.029964961
101	0x3c1c78cf	0.009550287
102	0xb9a204fd	-0.00030902764
103	0xbd35eb54	-0.04441388
104	0xbc7345bb	-0.014848168
105	0xbc780736	-0.015138438
106	0xbc059753	-0.008153754
107	0xbc8612a0	-0.016366303
108	0xbcac33c1	-0.021020772
109	0xbd2d2118	-0.04226789
110	0xbd078b07	-0.03309157
111	0x3b4373e2	0.002982371
112	0xbc0d69f9	-0.008631223
113	0xbca106ab	-0.0196565
114	0x3c8950e3	0.016762203
115	0xbaa8b15a	-0.0012870238
116	0x3c644f91	0.013934986
117	0x3d2ab331	0.041674796
118	0xbbc5ae3b	-0.006032733
119	0x3c8d07e5	0.017215678
120	0xbc879f46	-0.01655544
121	0xbc430294	-0.01190247
122	0xbccbcd3c	-0.024878137
123	0xbb6a6703	-0.0035766966
124	0xbc97f208	-0.018548027
125	0xbb4a4969	-0.003086651
126	0xbc9ecc58	-0.019384548
127	0xbcf5e4ae	-0.03001627
128	0xbc2d94a7	-0.0105945235
129	0x3ada32b4	0.0016647191
130	0xbbe1fe14	-0.0068967436
131	0x3c9713a0	0.018441975
132	0x3c4c9afb	0.012488122
133	0xbd0c620c	-0.034273192
134	0xbbb0511f	-0.005380764
135	0x3c39964b	0.011327337
136	0xba665534	-0.00087865
137	0x3cbcad44	0.023031838
138	0x3c01790b	0.007902394
139	0x3ad4fcc1	0.0016249643
140	0xbd31f0d2	-0.043442555
141	0x3d2ee0de	0.04269492
142	0xbcb7c7d1	-0.022434147
143	0xba9b0f90	-0.00118302
144	0x3c3eb93e	0.011640845
145	0xbced9973	-0.029003834
146	0xbc997dd8	-0.018736765
147	0x3cc3bf9b	0.023895076
148	0x3c0ff2e7	0.00878594
149	0x3c977574	0.018488623
150	0xb7b3560c	-2.1378532e-05
151	0xba9bfb64	-0.0011900482
152	0x3be78448	0.0070653297
153	0xba2b44af	-0.0006533367
154	0x3cc7d574	0.024393775
155	0xbb4cd31b	-0.0031253758
156	0x3be0a1c5	0.006855222
157	0x3d1a8e48	0.037733346
158	0x3b7c34c9	0.003848361
159	0xbbeb366d	-0.007178119
160	0xbcb4abbe	-0.02205455
161	0xbc776581	-0.015099884
162	0x3cf17431	0.02947435
163	0x3c028d68	0.007968284
164	0xbd094923	-0.033517014
165	0x3b6629b5	0.0035120074
166	0x395bce64	0.00020962354
167	0xbc11ce99	-0.008899354
168	0xbc9218ad	-0.017834032
169	0x3b3dd56e	0.0028966325
170	0xbb9e8a07	-0.0048382315
171	0x3ccf5725	0.025310108
172	0x3d0bd5de	0.034139507
173	0xbc43f42e	-0.011960072
174	0x3c29351d	0.010327605
175	0xbb96f9c4	-0.004607411
176	0xbcffc254	-0.031220593
177	0x3c99e42a	0.018785555
178	0xbc86ce7b	-0.01645588
179	0x3b998baa	0.0046858387
180	0xbc3fb842	-0.011701645
181	0xbb3f736e	-0.0029213089
182	0xbc90d93b	-0.017681709
183	0xba849bce	-0.0010117234
184	0x3cb2097f	0.021733044
185	0x3ccc4a90	0.024937898
186	0x3acf124c	0.00157983
187	0xbd3428b9	-0.04398415
188	0xbc885238	-0.016640767
189	0x3c6dfdff	0.014525889
190	0xba436604	-0.0007453861
191	0x3c0db629	0.008649387
192	0xbcd7a8c5	-0.026325593
193	0x3c5bd034	0.013416339
194	0xbd553ddb	-0.052060943
195	0x3c90ab89	0.01765992
196	0x3cf46aa3	0.029836005
197	0xbc31e098	-0.01085677
198	0x3c80871b	0.015689423
199	0xbc06f6cd	-0.008237553
200	0x3ba9b80e	0.0051794117
201	0xbc5c3a72	-0.013441669
202	0x3d20df01	0.039275173
203	0xba1ac556	-0.0005904039
204	0xbb5f96ef	-0.0034117063
205	0x3c3ca61a	0.011514211
206	0x3d17d37d	0.037066925
207	0x3bc9744b	0.0061478964
208	0xbc21dcc6	-0.009879297
209	0xbce68b96	-0.028142732
210	0x3cc9813a	0.024597753
211	0x3c93e2dc	0.01805251
212	0xbd205e4b	-0.039152425
213	0xbbaab261	-0.0052092527
214	0x3c1da62e	0.00962214
215	0x3c51e48a	0.012810836
216	0xbc22985f	-0.009924023
217	0x3ca0c71e	0.019626196
218	0x3cb004fa	0.021486748
219	0x3d0efd42	0.034909494
220	0x3c4e7bc8	0.012602754
221	0xbc4a800f	-0.012359633
222	0x3a90aafa	0.0011037283
223	0x3ca6182f	0.020275204
224	0x3cb6a6e0	0.02229637
225	0x3c87427d	0.016511196
226	0x3d652e91	0.055952612
227	0x3c76a05c	0.015052881
228	0xbc6d6a28	-0.014490642
229	0x3c882fe0	0.016624391
230	0x3b93bbfa	0.0045084925
231	0xbc3bcb29	-0.011462011
232	0x3bc6f191	0.0060712774
233	0xbabf02f0	-0.0014573019
234	0xbc08c872	-0.008348571
235	0x3b846805	0.0040407204
236	0x3b822dca	0.0039727436
237	0x3c9d0fde	0.019172605
238	0xbbfe477d	-0.007759987
239	0x3cbbaf55	0.022910753
240	0x3c04e229	0.008110561
241	0xbc99fe58	-0.018798038
242	0x3b9220ab	0.0044594607
243	0x3c6e2dc7	0.014537281
244	0xbc3a673c	-0.011377152
245	0x3cdb02bf	0.026734708
246	0x3cab93ca	0.020944495
247	0xbcd51327	-0.02601011
248	0x3c22d148	0.009937592
249	0xbd013aaf	-0.031550106
250	0xbccbe375	-0.024888733
251	0xbb45831b	-0.003013796
252	0xbb8e5aba	-0.0043443115
253	0x3b95b589	0.00456876
254	0x3c8eda29	0.017438011
255	0xbc30387f	-0.010755657

model.3.bias f4 [32]
0	0xbc89c295	-0.016816417
1	0xbd6f1ee8	-0.058379084
2	0xbd1d9297	-0.038469877
3	0x3d38744e	0.04503279
4	0xbd1d27bc	-0.03836797
5	0xbd9b64e6	-0.07587604
6	0x3c2c1d01	0.010504962
7	0x3d98f047	0.07467704
8	0xbbc26f3d	-0.005933671
9	0x3ce95e26	0.028487276
10	0x3d99c636	0.07508509
11	0xbd8441bc	-0.0645785
12	0x3ca5caf9	0.020238386
13	0xbc7cb6c7	-0.015424437
14	0xbd72724f	-0.059191044
15	0xbbcdd029	-0.006280918
16	0x3d7bcb1c	0.061472997
17	0xbd8b400a	-0.06799324
18	0x3da6944b	0.081337534
19	0xbb1a78f2	-0.0023570624
20	0xbce96af3	-0.02849338
21	0x3cf47911	0.029842885
22	0x3c6b12cb	0.014347742
23	0xbd615af6	-0.055018388
24	0x3c587296	0.013210913
25	0x3d9546a8	0.07288867
26	0x3d65b8f5	0.056084592
27	0x3cdbf5b6	0.026850563
28	0xbd7b8746	-0.061408304
29	0x3c2b61bb	0.0104603125
30	0xbd4a05d1	-0.049321953
31	0xbd65d805	-0.056114215

model.6.weight f4 [32]
0	0x3f7deda5	0.9919074
1	0x3f7ce3ac	0.987849
2	0x3f7d429c	0.9892976
3	0x3f80a6f7	1.0050954
4	0x3f83d875	1.0300432
5	0x3f810644	1.0080037
6	0x3f83da5b	1.0301012
7	0x3f80636a	1.0030339
8	0x3f821bca	1.016473
9	0x3f78be2b	0.97165173
10	0x3f7ecdca	0.9953276
11	0x3f79e7d1	0.9761935
12	0x3f7d3dab	0.9892222
13	0x3f822679	1.0167991
14	0x3f81c2a6	1.0137527
15	0x3f7d3d98	0.9892211
16	0x3f80f0b9	1.0073463
17	0x3f826202	1.018616
18	0x3f81d0ed	1.0141884
19	0x3f80243a	1.0011055
20	0x3f807725	1.003636
21	0x3f81687c	1.0110011
22	0x3f83f729	1.0309802
23	0x3f7e5718	0.99351645
24	0x3f80a685	1.0050818
25	0x3f7467bc	0.95470786
26	0x3f7cc8ab	0.98743695
27	0x3f7efb4c	0.996022
28	0x3f821526	1.0162704
29	0x3f81d1db	1.0142168
30	0x3f812a97	1.0091122
31	0x3f7d32eb	0.9890582

model.6.bias f4 [32]
0	0xbb8c8f37	-0.0042895335
1	0xbb4fe9af	-0.003172498
2	0xbbf86e4a	-0.007581507
3	0x3b893203	0.00418687
4	0xbadb3ba8	-0.0016726153
5	0xbad14b7a	-0.0015967928
6	0x3bf6c522	0.0075308243
7	0x3bd6b042	0.0065517733
8	0xbb4192ea	-0.002953703
9	0x3b1d36c8	0.002398895
10	0xbb245658	-0.002507588
11	0x3aa3b2cc	0.0012489199
12	0xb7b0c358	-2.1071799e-05
13	0xbbd5c566	-0.006523776
14	0xb98b8dfc	-0.00026617933
15	0x3b513de6	0.0031927763
16	0x3be0e96c	0.0068637636
17	0xbb8b3e2d	-0.0042493553
18	0x3c0d02a5	0.008606588
19	0xbab827ed	-0.0014049985
20	0xbb77c5e7	-0.0037807168
21	0x3b41f4de	0.0029595415
22	0xba880e06	-0.0010380156
23	0xbb165599	-0.0022939204
24	0xbc05dfd9	-0.008171045
25	0xbb57c9c0	-0.003292665
26	0xbc14872b	-0.00906543
27	0xbc01fe43	-0.007934156
28	0x3c0d4b8e	0.008623971
29	0x3b381f20	0.0028094724
30	0xbb2518b8	-0.0025191735
31	0xbaedfa32	-0.0018156229

model.6.running_mean f4 [32]
0	0x3b8671c4	0.0041029174
1	0xbbad0b70	-0.0052809045
2	0x3bfb816c	0.0076753404
3	0x3dd17754	0.10227838
4	0xbb6a1834	-0.0035719993
5	0xbcbf59f6	-0.023358326
6	0x3e025827	0.1272894
7	0x3e11cf64	0.1423927
8	0x3d35a6b2	0.044348426
9	0x3dae7c52	0.08519806
10	0x3dbad9e8	0.091235936
11	0xbcb72aef	-0.02235934
12	0x3cb7dbf2	0.022443745
13	0x3c9bf32b	0.01903685
14	0x3c2b8219	0.010468029
15	0x3d50ed47	0.051007535
16	0x3d2673e5	0.04063787
17	0xbcf2a38b	-0.029618999
18	0x3df40578	0.119151056
19	0x3cb066a0	0.02153331
20	0xbbb4a866	-0.0055132387
21	0x3db2fa90	0.08739197
22	0x3defd429	0.11710388
23	0xbc8ebf12	-0.017425094
24	0x3d048408	0.032352477
25	0x3d88c1b8	0.06677574
26	0x3cf6de94	0.03013543
27	0x3bd0f251	0.0063765426
28	0xbb037aa4	-0.0020062113
29	0x3d90a774	0.07063189
30	0xbc7562ca	-0.014977166
31	0x3b51ec98	0.003203189

model.6.running_var f4 [32]
0	0x3aec9264	0.0018048999
1	0x39054e75	0.00012713096
2	0x3a53a8b0	0.00080741476
3	0x3bdd293c	0.0067493003
4	0x39398b36	0.00017694835
5	0x3998e616	0.00029163127
6	0x3c48e935	0.012262632
7	0x3c509804	0.012731556
8	0x3b3d4d24	0.002888509
9	0x3bb5ab0d	0.0055440725
10	0x3b79246f	0.00380161
11	0x3a1fb261	0.0006091949
12	0x3aebce95	0.0017990643
13	0x3a89effc	0.0010523791
14	0x3a89f833	0.001052624
15	0x3b68b0b6	0.0035505719
16	0x3ade7c66	0.001697433
17	0x3a39f389	0.00070934795
18	0x3bc1a19e	0.005909159
19	0x3a92af99	0.0011191248
20	0x3835efd3	4.3377117e-05
21	0x3bcdfb46	0.0062860576
22	0x3c0f1f7a	0.008735532
23	0x394d4cef	0.00019578983
24	0x3b2544eb	0.002521808
25	0x3b05fbb9	0.0020444228
26	0x3a51ccbe	0.0008003226
27	0x39fe069d	0.00048451583
28	0x397cba4e	0.00024101997
29	0x3b7d9f46	0.003869967
30	0x39cb0ed4	0.00038730225
31	0x39e714de	0.000440753

model.7.weight f4 [64, 32, 3, 3]
0	0xbae389a9	-0.0017359752
1	0xbc069178	-0.008213393
2	0x3d4af9df	0.049554702
3	0xbb5d21eb	-0.003374214
4	0xbc4941c4	-0.012283746
5	0x3d4be8b1	0.04978246
6	0x3b169176	0.0022974885
7	0xbd091459	-0.03346667
8	0x3d009efa	0.031401612
9	0x3add04ab	0.0016862353
10	0xbc799f6f	-0.015235766
11	0x3c23b1e2	0.009991141
12	0x3cdb02e7	0.026734782
13	0xbcc6531c	-0.024209552
14	0xbd1b6b5b	-0.03794418
15	0x3cbbdf89	0.022933738
16	0x3b81c3f3	0.0039601265
17	0x3bc4d29c	0.006006552
18	0xbcde4a8f	-0.027135162
19	0x3c9b6e5a	0.018973518
20	0xbba251ed	-0.004953614
21	0x3d4d8d63	0.050183665
22	0x3ca0b8fd	0.01961946
23	0xbc89a395	-0.016801635
24	0x3d210964	0.039315596
25	0x3c8f42ed	0.017487967
26	0xbd4b7439	-0.049671385
27	0x3ca9a594	0.020708837
28	0xbc723595	-0.014783283
29	0xbcd6545c	-0.026163273
30	0xbcea5be5	-0.028608272
31	0xbd00b249	-0.031420026
32	0xbc87b8cc	-0.01656761
33	0xbcc76e67	-0.024344636
34	0xbcd27b46	-0.025693547
35	0xbd3b9114	-0.045792654
36	0xbc834aaa	-0.016026814
37	0xbc50d7e2	-0.012746783
38	0x3b207a82	0.0024487083
39	0x3c129874	0.0089474805
40	0x3b4c07ec	0.0031132651
41	0x3c51b4be	0.01279944
42	0x3c5456dd	0.012960163
43	0xbc92da48	-0.01792635
44	0xbd06f5bf	-0.032949205
45	0x3bfaa321	0.007648841
46	0x3d11af65	0.03556766
47	0xbbc770ed	-0.00608646
48	0x3c6b4ece	0.01436205
49	0xbcd3b78f	-0.025844363
50	0xbc9c9e34	-0.019118406
51	0xbb3a1d1d	-0.00283987
52	0xbb0c1398	-0.0021373983
53	0x3ca201d4	0.019776262
54	0x3c260247	0.010132379
55	0x3cf87518	0.030329272
56	0x3ba56c70	0.005048327
57	0x3c71cac1	0.014757813
58	0x3d21fe46	0.039549135
59	0x3c9d6078	0.019211039
60	0xbd0ca961	-0.03434122
61	0xbb8b0008	-0.004241947
62	0xbccc50f0	-0.024940938
63	0xbb302377	-0.0026876607
64	0xbba1d37e	-0.004938542
65	0x3b1ffe36	0.0024412996
66	0x3d2716d6	0.040793262
67	0x3ca32f7c	0.019920103
68	0xbc0b4ad9	-0.008501732
69	0xbb5a70b0	-0.0033331327
70	0x3c4b72ef	0.012417539
71	0x3c65a688	0.014016755
72	0x3c157362	0.009121748
73	0xbc686790	-0.0141848475
74	0xbcdcc871	-0.026951047
75	0x3cb799dd	0.022412235
76	0xbc3925d9	-0.0113005275
77	0x3c96b5e7	0.018397285
78	0xbaa593c8	-0.0012632543
79	0x3c76e866	0.015070057
80	0x3bc5af22	0.0060328403
81	0x3d2271fd	0.03965949
82	0x3d353f56	0.044249855
83	0xbcb11c14	-0.021619834
84	0x3aadc8c8	0.001325869
85	0x3c88bdf7	0.016692145
86	0x39ba08c2	0.0003548321
87	0x3c38d7e2	0.011281939
88	0xbc575708	-0.013143308
89	0xbcd5e1f1	-0.026108714
90	0xbb9d5a11	-0.0048019965
91	0x3d2982bc	0.041384444
92	0x3cfacdda	0.030615736
93	0xbcbd73a9	-0.02312644
94	0x3d1ce652	0.038305588
95	0xbbcb9f75	-0.006214077
96	0xbb2fde1c	-0.0026835268
97	0x3cc97f69	0.024596887
98	0xbcacd8ce	-0.021099474
99	0x3bc7e1b1	0.0060999026
100	0xbc118586	-0.008881932
101	0xbcf84e40	-0.03031075
102	0x3c8e20b4	0.017349578
103	0xbb9fb8e4	-0.0048743356
104	0xbc2346b4	-0.009965587
105	0x3bfb8f39	0.0076769856
106	0xbc32d5b8	-0.010915212
107	0xbc9684b2	-0.01837382
108	0x3cd9e981	0.026600601
109	0x3b9d68fe	0.004803776
110	0x3ca35838	0.019939527
111	0xbd1f1fe8	-0.038848788
112	0xbb0c36d2	-0.002139498
113	0x3bc75087	0.0060825977
114	0xbc5f09bf	-0.0136131635
115	0xbcaa9c83	-0.020826584
116	0xbcc0e1a3	-0.023545092
117	0xbd03f345	-0.03221442
118	0x3d09757c	0.033559307
119	0xbd0a8c66	-0.0338253
120	0x3cda5202	0.026650432
121	0xbbba9f14	-0.005695233
122	0x3c52c9ca	0.012865493
123	0x3cbe3db1	0.023222776
124	0x3d07d59e	0.033162706
125	0x3c1c88ce	0.009554101
126	0xbcb1717c	-0.021660559
127	0xbcc94a02	-0.024571422
128	0xbbfc01ba	-0.0076906355
129	0x3b299517	0.0025876218
130	0x3cb25378	0.021768317
131	0xbc429a72	-0.011877643
132	0xbccecc7e	-0.025243994
133	0x3d3d71fd	0.046251286
134	0x3c3d1d42	0.01154262
135	0x3cf53a6b	0.029935082
136	0x3c6310c5	0.013858979
137	0xbcb55d8c	-0.022139333
138	0x3bf2d2d9	0.007410389
139	0xbd303506	-0.043019317
140	0xbc1bd1d9	-0.009510481
141	0x3d12f8ee	0.03588193
142	0x3b2bb02a	0.0026197531
143	0x3c410d93	0.0117830215
144	0x3cb4ceea	0.02207132
145	0x3b49124d	0.0030681074
146	0x3cd19386	0.02558304
147	0x3c4c2ff1	0.012462602
148	0x3bfca62d	0.0077102394
149	0x3c0de325	0.0086601125
150	0xbce58513	-0.028017556
151	0x3c4a0998	0.012331389
152	0x3b61223d	0.0034352683
153	0xba5e2082	-0.0008473472
154	0xbbe605fd	-0.007019757
155	0x3bef2205	0.0072977566
156	0xbc2ca3c3	-0.010537091
157	0x3c4fafe6	0.012676215
158	0xbc370a55	-0.011171897
159	0x3d30707f	0.043076035
160	0x3c07a2eb	0.008278589
161	0xbb625787	-0.0034537034
162	0x3c251f00	0.010078192
163	0xbd5699b5	-0.05239268
164	0x3caee696	0.021350186
165	0xbc0c8ac2	-0.008578004
166	0xbca50fe8	-0.020149186
167	0x3b80b09a	0.0039273025
168	0xbd0acd88	-0.033887416
169	0xbc26aa8c	-0.0101724975
170	0x3b42879c	0.002968288
171	0x3c387866	0.011259174
172	0x3d0aa7ca	0.033851422
173	0xbd039f62	-0.03213442
174	0x3c252a31	0.01008086
175	0xbc40f146	-0.011776274
176	0x3ca5e4da	0.020250726
177	0xb9961502	-0.00028625882
178	0x3d2b358c	0.041799113
179	0xbc132036	-0.008979848
180	0x3d2a61f6	0.04159733
181	0xbab07cb1	-0.0013464895
182	0xbc083f3d	-0.008315858
183	0xbc48f3b9	-0.012265139
184	0x3cfbaa49	0.030720847
185	0xbb93db26	-0.0045122085
186	0xbc9431ee	-0.018090215
187	0x3c297315	0.010342379
188	0x3bba5d22	0.005687372
189	0x3c35c23c	0.011093672
190	0x3a00bdad	0.00049110764
191	0xbc092155	-0.008369763
192	0xbb21af67	-0.0024671198
193	0xbccd6ca2	-0.025076214
194	0x3c513861	0.012769789
195	0x3c8d4c6d	0.017248357
196	0xbc0894a4	-0.00833622
197	0xbd0140a8	-0.0315558
198	0x3a19739a	0.0005853713
199	0x3d1cfab0	0.03832501
200	0x3cc1576b	0.023601254
201	0x3c908463	0.017641252
202	0x3d3d0821	0.04615033
203	0x3beed02f	0.007288001
204	0xbd0a2c16	-0.03373345
205	0x3c078039	0.008270317
206	0x3b80b1ca	0.003927444
207	0xbc41dd73	-0.011832583
208	0xbc8cbca5	-0.017179796
209	0x3c83c863	0.016086763
210	0x3c190488	0.009339459
211	0x3cb52ef1	0.02211711
212	0x3cfc8820	0.030826628
213	0xbc6ced4a	-0.014460871
214	0x3c43d178	0.011951797
215	0xbca8188e	-0.020519521
216	0x3c1c0d88	0.0095247105
217	0x3c8f3dcc	0.017485522
218	0x3c7f1bfd	0.015570638
219	0xbc342ca2	-0.010996969
220	0x3c92f264	0.017937846
221	0x3befef7f	0.0073222513
222	0xbc6a1532	-0.01428728
223	0x3cafdd3e	0.021467801
224	0xbd1783b8	-0.03699085
225	0x3cc1d1a7	0.02365954
226	0xbbef3768	-0.007300306
227	0x3c082396	0.008309266
228	0xbc431308	-0.011906393
229	0x3bbc72da	0.005750996
230	0xbc68b610	-0.014203563
231	0xbc5e031d	-0.013550547
232	0xbd57b17f	-0.052659508
233	0x3cfcc03c	0.030853383
234	0x3c144f78	0.00905215
235	0x3bb90486	0.005646291
236	0xbc3cf8cc	-0.011533927
237	0x3c496f78	0.012294643
238	0xbcc217da	-0.023693014
239	0x3bd7b373	0.0065826713
240	0x3c843815	0.016140023
241	0xbbeecebc	-0.0072878283
242	0xbbbf1b7b	-0.0058321333
243	0xbd5f1c5d	-0.05447041
244	0xbc638d37	-0.013888649
245	0x3c97bb5a	0.018521953
246	0xbc60c2e1	-0.013718338
247	0x3c2a269b	0.010385181
248	0xbc89ce41	-0.016821982
249	0x3b7c6af7	0.0038515904
250	0xbca0e139	-0.019638645
251	0x3caccf45	0.021094928
252	0x3ce20f08	0.027595058
253	0x3c42731a	0.011868263
254	0xbcb4b419	-0.022058534
255	0xbccbef8b	-0.024894496

model.7.bias f4 [64]
0	0xbd42e626	-0.047582768
1	0x3c362e0d	0.011119378
2	0xbd24e8e0	-0.04026115
3	0xbce21d90	-0.027601987
4	0x3cff6755	0.031177202
5	0x3d41f3ff	0.047351833
6	0xbc391680	-0.011296868
7	0xbd36ee9b	-0.044661146
8	0xbd3621ea	-0.044465937
9	0x3cb5a919	0.022175359
10	0xbd5b1a70	-0.05349201
11	0xbd3fa2c7	-0.046786096
12	0x3cde9e83	0.027175194
13	0xbd135626	-0.03597083
14	0xbcbf58db	-0.0233578
15	0x3b4e2130	0.0031452887
16	0x3d4f8cbb	0.05067132
17	0xbd6bcf22	-0.057570584
18	0x3b7cbcc0	0.0038564652
19	0x3a5e555d	0.0008481348
20	0x3d4242f7	0.047427144
21	0xbd1cd4be	-0.038288824
22	0xbb4ac8b6	-0.0030942387
23	0x3b12d98d	0.0022407502
24	0xbcdb3da9	-0.0267628
25	0xbb3b235f	-0.0028555018
26	0xbbeb30d9	-0.007177454
27	0x3c870e26	0.016486239
28	0x3c3dc108	0.011581667
29	0x3d346cf9	0.044049237
30	0x3d14a00a	0.036285438
31	0xbcff8675	-0.031192044
32	0x3c27d083	0.010242584
33	0x3c358400	0.0110788345
34	0x3d27b0a0	0.040939927
35	0x3c0ea54a	0.0087064
36	0x3cedcc3c	0.02902805
37	0xbc9a9d32	-0.018873785
38	0x3d0fc7f8	0.035102814
39	0xbc2b507f	-0.0104562035
40	0x3cb719af	0.022351114
41	0x3d13995a	0.03603492
42	0x3d46e271	0.048555795
43	0xbcbbd942	-0.022930745
44	0xbcf84962	-0.03030843
45	0x3d51f6ce	0.051260762
46	0x3d530b66	0.051524542
47	0xbc1a4061	-0.009414763
48	0xbcd4361d	-0.02590471
49	0x3ccad96d	0.02476188
50	0xbd29db9f	-0.041469213
51	0xbd262f2e	-0.040572338
52	0x3d22ee93	0.039778303
53	0xbad81548	-0.0016485834
54	0xbc8a7030	-0.016899198
55	0x3ca01144	0.019539483
56	0x3d21f6f4	0.039542153
57	0x3d4a7c60	0.04943502
58	0x3d6f39e8	0.058404833
59	0xbca55ad2	-0.020184908
60	0xbc7c5004	-0.015399937
61	0xbc871ffa	-0.01649474
62	0x3d19aa57	0.037515964
63	0xbbb77596	-0.005598734

model.10.weight f4 [64]
0	0x3f7934e2	0.9734632
1	0x3f7e45a4	0.99325013
2	0x3f7b4252	0.9814807
3	0x3f7fb8f8	0.99891615
4	0x3f7d0119	0.988298
5	0x3f7e335a	0.99297106
6	0x3f7c0533	0.98445433
7	0x3f8185a0	1.0118904
8	0x3f838a71	1.0276624
9	0x3f7ff062	0.9997617
10	0x3f80fdc6	1.0077446
11	0x3f7f7089	0.9978109
12	0x3f834525	1.0255476
13	0x3f7f64cc	0.9976318
14	0x3f859f93	1.0439323
15	0x3f7a552a	0.977862
16	0x3f7c9ef6	0.98680055
17	0x3f803506	1.0016181
18	0x3f762707	0.961533
19	0x3f7ae3bb	0.9800374
20	0x3f80ca62	1.0061762
21	0x3f7cf2ad	0.98807794
22	0x3f836048	1.0263758
23	0x3f8405ae	1.0314233
24	0x3f83071d	1.0236546
25	0x3f7dfa57	0.99210113
26	0x3f7b3f71	0.9814368
27	0x3f7731ca	0.9656035
28	0x3f7fcf3b	0.99925584
29	0x3f801b9b	1.0008425
30	0x3f7f97a9	0.9984079
31	0x3f805ec3	1.0028919
32	0x3f790a5f	0.9728145
33	0x3f81ceb6	1.0141208
34	0x3f7e50bd	0.99341947
35	0x3f7d34a7	0.98908466
36	0x3f72a3e1	0.9478131
37	0x3f7a58b4	0.977916
38	0x3f7ceef5	0.9880212
39	0x3f81d289	1.0142375
40	0x3f873cc1	1.0565416
41	0x3f816959	1.0110275
42	0x3f80e375	1.0069414
43	0x3f81efbc	1.0151286
44	0x3f7d412c	0.9892757
45	0x3f7de995	0.9918454
46	0x3f7b54e3	0.981764
47	0x3f81d5ad	1.0143334
48	0x3f8273be	1.0191572
49	0x3f84305f	1.0327262
50	0x3f8301c0	1.0234909
51	0x3f7d4911	0.98939615
52	0x3f7f163d	0.9964331
53	0x3f7cd2c6	0.98759115
54	0x3f81161c	1.0084872
55	0x3f7a7550	0.97835255
56	0x3f7e2f44	0.9929087
57	0x3f80d02f	1.0063533
58	0x3f7d8a46	0.99039114
59	0x3f8112df	1.0083884
60	0x3f81825e	1.011791
61	0x3f7bf793	0.98424643
62	0x3f7d1372	0.98857796
63	0x3f839329	1.0279285

model.10.bias f4 [64]
0	0xb75497b0	-1.2671502e-05
1	0x3a762b3e	0.0009390599
2	0xb98e0a8f	-0.00027092217
3	0xbaf8a01e	-0.0018968617
4	0xbb75ba76	-0.0037495173
5	0x3a8dbb92	0.0010813347
6	0xba8e1568	-0.001084012
7	0xbaed1992	-0.0018089286
8	0xbad0e5c3	-0.0015937615
9	0xbaa10b8c	-0.0012286766
10	0xbb173efe	-0.0023078318
11	0x3bbeca82	0.0058224807
12	0x3862054b	5.388753e-05
13	0xbb4b1223	-0.0030986152
14	0xbb5fe6e5	-0.0034164723
15	0xbbac0dae	-0.005250654
16	0x3b66dc64	0.0035226578
17	0x3b943143	0.004522474
18	0x3ace0fb7	0.0015721236
19	0xbb37aa90	-0.0028025247
20	0x3a88fd50	0.001045147
21	0xbb88fb40	-0.004180342
22	0x3aa6cbf6	0.001272558
23	0xbbb38907	-0.0054789814
24	0x39690ac0	0.00022224616
25	0xbb8b6356	-0.004253785
26	0xba2b9b01	-0.00065462297
27	0xb8e10b33	-0.00010730922
28	0x392ab304	0.00016279152
29	0xbb4c6c54	-0.0031192498
30	0xbafdd027	-0.0019364402
31	0x39685b38	0.00022159226
32	0x3bbfd501	0.0058542495
33	0x3b06dff6	0.0020580268
34	0x3b169b57	0.0022980773
35	0xbbf49116	-0.0074635847
36	0x3aed342f	0.0018097217
37	0x39a63e0e	0.00031708222
38	0xbaffde8d	-0.0019521281
39	0xbaccc064	-0.0015621302
40	0xbb3c02d5	-0.0028688211
41	0x398d9994	0.0002700804
42	0x3b9273fe	0.0044693938
43	0x3a45538a	0.0007527402
44	0xbb04e260	-0.0020276532
45	0x3b01e988	0.0019823033
46	0x3a8c3421	0.0010696688
47	0x39f49d3a	0.0004665645
48	0x3b34ddad	0.002759795
49	0xbaafe662	-0.00134201
50	0xbb04b3e2	-0.002024882
51	0xbad7c3e5	-0.0016461579
52	0x3abef12c	0.0014567724
53	0xbaffd67f	-0.0019518881
54	0xbaf0ecaa	-0.0018381078
55	0xba225963	-0.0006193129
56	0xba80aef8	-0.000981777
57	0xba66b244	-0.00088003674
58	0x3b3100d4	0.002700855
59	0x3b1cbfd7	0.0023918056
60	0x3b049f1e	0.0020236443
61	0xba982d51	-0.0011610185
62	0x3b8d24ee	0.004307381
63	0x3b237221	0.0024939852

model.10.running_mean f4 [64]
0	0xbc1b5870	-0.009481534
1	0x3ca137c6	0.019679915
2	0xbbca825a	-0.00618009
3	0xba6c4e6b	-0.0009014371
4	0x3d03457e	0.032048695
5	0x3d2ea859	0.042641018
6	0xba200ca5	-0.00061054
7	0xbbfe50e8	-0.0077611096
8	0xbb22a9af	-0.0024820378
9	0x3cc7e79b	0.02440243
10	0xbc3b0660	-0.011415094
11	0xbbc78940	-0.0060893595
12	0x3d084c05	0.033275623
13	0xbb952eb7	-0.004552688
14	0xbb3c5d65	-0.002874219
15	0x3c52a694	0.012857098
16	0x3d6258b4	0.055260375
17	0xbc43bd01	-0.0119469175
18	0x3c4c5fc1	0.012474001
19	0x3bc3c9bc	0.0059749763
20	0x3d5551e1	0.05208004
21	0xbb6266b0	-0.003454607
22	0x3bf8d6b5	0.0075939544
23	0x3c0a8eb2	0.008456873
24	0xbb7a30b2	-0.0038175997
25	0x3c3a1fc5	0.0113601135
26	0x3b74a57c	0.0037330082
27	0x3c704f74	0.014667381
28	0x3c97a1e3	0.01850981
29	0x3d3cec44	0.046123758
30	0x3d2cca61	0.04218519
31	0xbbdc04ed	-0.0067144544
32	0x3ca9ce99	0.020728396
33	0x3c4dfe55	0.0125728445
34	0x3d319078	0.043350667
35	0x3c8f85ec	0.017519914
36	0x3d009603	0.031393062
37	0x3a9c0cad	0.0011905633
38	0x3d074c01	0.033031467
39	0x3b96d3e4	0.004602896
40	0x3cbc45ba	0.022982467
41	0x3d159e4a	0.03652791
42	0x3d59a679	0.053137276
43	0xbb33f852	-0.0027461243
44	0xbb463660	-0.0030244812
45	0x3d669e6e	0.056303434
46	0x3d4ac00a	0.04949955
47	0xb7542ca2	-1.2646577e-05
48	0x3b985d0f	0.0046497653
49	0x3cecb8ef	0.028896777
50	0xbbebf6e3	-0.007201062
51	0xbbf66a6c	-0.0075200107
52	0x3d24103e	0.040054552
53	0x3b4aed34	0.0030964138
54	0xbb080f94	-0.0020761238
55	0x3caeaff4	0.021324135
56	0x3d197d49	0.037472997
57	0x3d3569fa	0.04429052
58	0x3d730dc8	0.059339315
59	0xbaf461ca	-0.0018644866
60	0x3b38e28a	0.00282112
61	0x3bb737fc	0.0055913907
62	0x3d24299f	0.040078755
63	0x3b680ab6	0.0035406775

model.10.running_var f4 [64]
0	0x38fea7e4	0.00012142936
1	0x3a863ae9	0.0010240945
2	0x3938e0da	0.00017631371
3	0x39fb7a5e	0.0004796562
4	0x3a95b149	0.0011420633
5	0x3ab2111b	0.001358542
6	0x38ffb18b	0.000121924175
7	0x384e77f4	4.9225942e-05
8	0x3a619808	0.0008605723
9	0x3a9b24fb	0.0011836583
10	0x389502b9	7.105381e-05
11	0x3a47ca64	0.0007621406
12	0x3acca178	0.0015612086
13	0x397a41e5	0.00023866406
14	0x38bea6db	9.090985e-05
15	0x3a844660	0.0010091774
16	0x3b01b847	0.0019793676
17	0x3885b0ef	6.374891e-05
18	0x3a0609cd	0.0005113155
19	0x39547923	0.00020263022
20	0x3ae225fe	0.0017253754
21	0x3a2bd363	0.00065546314
22	0x39d04c92	0.000397299
23	0x39b00732	0.00033574697
24	0x390d08bc	0.00013450062
25	0x3a7e158d	0.00096925424
26	0x397836eb	0.00023671582
27	0x39f28f25	0.00046264488
28	0x3a956b48	0.001139977
29	0x3aec7f25	0.0018043263
30	0x3b17bc09	0.002315285
31	0x383ee5a2	4.5513392e-05
32	0x3a927d48	0.0011176253
33	0x39946005	0.000283003
34	0x3a959c89	0.0011414449
35	0x3a5d7bed	0.00084489473
36	0x3a9e1ade	0.001206245
37	0x39727722	0.00023123299
38	0x3aaaaab4	0.0013020844
39	0x39a78dbb	0.0003195832
40	0x3a80c0a9	0.0009823042
41	0x3aefb2c6	0.0018287532
42	0x3b72c7c2	0.0037045334
43	0x392444a8	0.00015665835
44	0x39761dfd	0.0002347156
45	0x3b177be1	0.002311461
46	0x3abd53b5	0.0014444502
47	0x38e03f43	0.00010692936
48	0x3aa53761	0.0012605005
49	0x3ab9ed52	0.0014185107
50	0x38e84765	0.0001107592
51	0x3902d6aa	0.00012477735
52	0x3a810f80	0.0009846538
53	0x39175c14	0.00014434784
54	0x391b027e	0.0001478288
55	0x3a23d5aa	0.0006249795
56	0x3ab49853	0.0013778306
57	0x3ab34c0b	0.0013679279
58	0x3ae27118	0.0017276136
59	0x394f5139	0.00019771316
60	0x3981d6c1	0.00024764801
61	0x3a777976	0.00094404013
62	0x3b004c94	0.0019576894
63	0x3944333b	0.00018711101

model.11.weight f4 [128, 64, 3, 3]
0	0x3d15d6c8	0.036581784
1	0xbc19b996	-0.009382626
2	0xbc8555f4	-0.016276337
3	0x3c55b2ee	0.013043148
4	0x39c00d64	0.0003663107
5	0xbd003340	-0.031298876
6	0xbc96d373	-0.018411374
7	0x3ce1f9c7	0.027584923
8	0x3cbbb780	0.022914648
9	0xbd21fc5b	-0.039547306
10	0xbcb7570b	-0.022380373
11	0xbd0bcba6	-0.03412976
12	0x3d207c15	0.039180834
13	0x3c9943ee	0.01870915
14	0x3b67bb15	0.0035359312
15	0xbbb3eb00	-0.0054906607
16	0xbc3ca466	-0.011513805
17	0xbcba2dd2	-0.022726927
18	0xbd1082f0	-0.03528112
19	0xbca5d2e4	-0.020242162
20	0x3d1a39cd	0.03765278
21	0x3cc58090	0.024109155
22	0x3bbd5e42	0.0057790587
23	0xbc09d55a	-0.008412683
24	0x3c8c6180	0.017136335
25	0x3cf15dd6	0.02946369
26	0x3a7cce95	0.000964382
27	0xbc99101c	-0.01868444
28	0xbca3261f	-0.019915638
29	0xbce0fe7c	-0.027465098
30	0xbd01fae3	-0.031733405
31	0xbc88e085	-0.016708622
32	0x3cf75e5c	0.030196361
33	0x3c601249	0.0136762345
34	0x3cf2c81f	0.02963644
35	0xbd0355eb	-0.03206436
36	0xbb26d5b0	-0.0025456958
37	0x3b7e6af8	0.0038821083
38	0xbce58021	-0.028015198
39	0x3c8bae06	0.017050754
40	0x3be98192	0.0071260417
41	0xbc938ebb	-0.018012395
42	0xbbc8cc87	-0.006127897
43	0x3c82e50d	0.01597836
44	0x3c206630	0.009789988
45	0x3c2094e6	0.009801125
46	0x3c81fd2b	0.01586779
47	0x3ae512fe	0.0017476974
48	0x3cc391dd	0.023873264
49	0x3d0403d9	0.032230232
50	0x3c31a04c	0.01084144
51	0x3c4830c8	0.012218662
52	0x3cb89400	0.02253151
53	0xbba6d813	-0.005091676
54	0x3d1c6886	0.03818562
55	0xbc8bc00a	-0.017059345
56	0x3bfa98ee	0.007647625
57	0x3c36c4e0	0.011155337
58	0x3c29dfca	0.010368297
59	0xbc119b00	-0.008887053
60	0x3ac3797e	0.0014913527
61	0x3c8aac69	0.016927915
62	0x3c075b15	0.008261462
63	0xbb14fe31	-0.0022734518
64	0x3b489141	0.0030604156
65	0x3c22e6c4	0.009942714
66	0xbb6f86c8	-0.0036548842
67	0xbbf4f324	-0.0074752737
68	0x3d078ddd	0.033094276
69	0xbb644a1d	-0.0034834214
70	0xbcbfd1f8	-0.02341555
71	0x3d333928	0.04375568
72	0x3c3d032c	0.011536401
73	0xbbb0534b	-0.005381023
74	0x3c604dd7	0.013690433
75	0xbd18a226	-0.03726401
76	0xbc162c6b	-0.0091658635
77	0x3b222121	0.0024738985
78	0xbb18baa7	-0.0023304613
79	0x3cda5fa8	0.02665694
80	0xbd37317a	-0.04472492
81	0xbc76a867	-0.015054799
82	0x3cfe2a21	0.031025948
83	0x3c92a3ba	0.017900337
84	0xbbc62b50	-0.0060476437
85	0xbd0757b9	-0.033042643
86	0x3ccf5a07	0.025311483
87	0x3c5b4c69	0.013384917
88	0x3badf744	0.0053090174
89	0xbcd1ef7c	-0.02562689
90	0x3ccdd648	0.025126591
91	0x3cfe63d8	0.031053469
92	0x3c5c14a1	0.013432653
93	0x3bd14998	0.006386947
94	0x3c2e36ef	0.010633214
95	0x3c948c4b	0.018133303
96	0x3c706a85	0.014673834
97	0x3c54cc3a	0.0129881445
98	0x3d0ef31f	0.034899827
99	0x3c96c8ed	0.018406356
100	0xbcd174ce	-0.025568392
101	0x3cb1d1b0	0.021706432
102	0x3d0ba51e	0.034093015
103	0x3c852016	0.016250651
104	0xbb5ea1f1	-0.0033971036
105	0x3ba4bf1b	0.0050276644
106	0xbc002858	-0.007822119
107	0xbc926beb	-0.017873725
108	0xbcc49fbb	-0.024001947
109	0x3c755370	0.014973506
110	0x3c5fd717	0.013662121
111	0x3cb5e9a1	0.02220613
112	0xbd25cf2a	-0.04048077
113	0x3d1f3753	0.03887112
114	0xbcb9c23b	-0.022675624
115	0x3b338078	0.0027389806
116	0x3cecfb40	0.0289284
117	0xbd16da55	-0.03682931
118	0x3d01025e	0.0314964
119	0x3b6f9cba	0.0036561922
120	0x3c8d6283	0.017258888
121	0x3d12af9b	0.035812
122	0xbcf5bb75	-0.029996613
123	0x3ba694fa	0.0050836774
124	0xbc17308f	-0.009227886
125	0xbc61ebfa	-0.013789171
126	0x3ccb0bfa	0.024785984
127	0x3cb9e8bf	0.02269399
128	0x3d1fb25a	0.03898845
129	0x3cdd2daa	0.026999313
130	0xbc54f99f	-0.012998967
131	0xbc7dc1bc	-0.015488084
132	0xbbcf1f13	-0.006320843
133	0x3c85f74f	0.016353277
134	0x3cd4ca5a	0.025975395
135	0xbc2c4980	-0.010515571
136	0xbc78c69b	-0.01518407
137	0xbbc20621	-0.005921141
138	0x3c0da26c	0.008644681
139	0x3cc02cd2	0.023458872
140	0xbc249daf	-0.01004736
141	0x3cb31372	0.021859858
142	0xbd2c7fca	-0.042114057
143	0xbc7a3445	-0.015271251
144	0xbc95e4da	-0.018297601
145	0xbc28ce99	-0.010303163
146	0xbc2d5acb	-0.010580729
147	0x3c2ce85c	0.010553446
148	0xba92b807	-0.001119376
149	0x3b48e212	0.0030652327
150	0x3c878c37	0.016546352
151	0x3c067216	0.008205911
152	0x3afedd8c	0.0019444688
153	0x3a18103b	0.00058007584
154	0xbb4a4388	-0.0030863006
155	0x3c6fca7d	0.014635679
156	0x3c8c2338	0.017106637
157	0xbba0376d	-0.00488942
158	0xbcb9d71d	-0.022685582
159	0x3bc9ef10	0.0061625317
160	0x3b8773c0	0.0041336715
161	0xbca9d02d	-0.020729149
162	0x3a3f4d24	0.00072975666
163	0x3cc46eb7	0.023978574
164	0xbce2fd11	-0.027708562
165	0xbd212efa	-0.03935144
166	0xbc815d50	-0.015791565
167	0x3c3b8359	0.01144489
168	0x3d02e2de	0.03195464
169	0xbc807d72	-0.015684817
170	0x3ca66657	0.020312471
171	0x3bd9c504	0.0066458005
172	0x3bf09be5	0.007342803
173	0xbc28af1d	-0.0102956565
174	0x3b46a004	0.003030778
175	0xbcd3bb55	-0.025846163
176	0x3d275129	0.040848885
177	0xbca17f9b	-0.019714167
178	0xbd01de82	-0.03170634
179	0xbb5b9e04	-0.0033510933
180	0xbc8c6552	-0.017138157
181	0x3c9a5272	0.018838141
182	0xbb349ca2	-0.002755918
183	0xbc7ad05e	-0.015308468
184	0xbc3091e9	-0.010776975
185	0x3c57828b	0.013153682
186	0x3c692211	0.0142293135
187	0xbc4157b8	-0.011800699
188	0x3c8429fb	0.0161333
189	0xbc1f36e0	-0.009717673
190	0xbc377afe	-0.011198757
191	0x3c0cd797	0.0085963225
192	0x3c85e526	0.016344618
193	0xbaf5b612	-0.0018746278
194	0x3c60ee2f	0.013728662
195	0xbc8fd550	-0.01755777
196	0xbcb871ae	-0.022515144
197	0x3c147e37	0.009063295
198	0xbcfc71c7	-0.030815972
199	0xbc91618f	-0.017746715
200	0xbcb9ebf7	-0.022695525
201	0xbca76720	-0.020434916
202	0xbbf98118	-0.007614266
203	0x3c7d3a14	0.015455741
204	0x3c258472	0.010102378
205	0x3c84eeab	0.016227087
206	0x3b81f855	0.003966371
207	0x3bab4ad9	0.0052274284
208	0xbcebc70a	-0.028781433
209	0x3c2003a5	0.009766494
210	0x3d2a2ecd	0.04154854
211	0xbcc4890c	-0.02399113
212	0x3d4be17f	0.049775597
213	0x3c46c159	0.012131059
214	0x3cc964fa	0.024584282
215	0xbc6878d8	-0.014188968
216	0xbcd0df29	-0.025497036
217	0x3ca43d6e	0.020048823
218	0x3ca35bba	0.0199412
219	0x3b0ddbe2	0.0021645953
220	0xbd401883	-0.046898376
221	0x3ccc77a7	0.024959398
222	0x3b577107	0.0032873766
223	0xbd099524	-0.033589497
224	0xbc67f6ce	-0.014157964
225	0x3cf0ea51	0.029408606
226	0xb8d99c7c	-0.00010376514
227	0x3c61a24e	0.013771607
228	0xbccacf89	-0.024757164
229	0xbd6afb81	-0.05736876
230	0x3cf70c14	0.030157126
231	0xbca4c25b	-0.020112207
232	0xbc9b083d	-0.018924827
233	0xbcc633be	-0.024194594
234	0xbc4a853d	-0.012360868
235	0xbb96ddfb	-0.004604099
236	0xba84e60e	-0.0010139362
237	0xbc4d96cc	-0.01254816
238	0x3bf9457c	0.00760716
239	0x3ca2d993	0.019879138
240	0x3a79b2df	0.000952525
241	0x3c685881	0.014181257
242	0xbc88ac7f	-0.016683815
243	0xbca8a861	-0.020588102
244	0xbc9384ad	-0.0180076
245	0xbd3d9604	-0.046285644
246	0xbca9cb31	-0.020726772
247	0x3c9e82a3	0.019349402
248	0x3c9772b0	0.018487304
249	0xbc95a5e8	-0.018267587
250	0x3c0a6d0e	0.008448852
251	0x3ca5325d	0.020165617
252	0xb8afd52a	-8.384355e-05
253	0xbb643dc0	-0.0034826845
254	0x3c0db35f	0.008648722
255	0x3cfedaf5	0.031110266

model.11.bias f4 [128]
0	0x3cd0b5f2	0.025477383
1	0xbbeba758	-0.00719158
2	0x3bfbb10d	0.007681018
3	0x3d196816	0.03745278
4	0x3d0a1058	0.033706993
5	0xbd063ad6	-0.032770954
6	0x3c9e969a	0.019358922
7	0xbce4d2b0	-0.027932495
8	0xbcec2141	-0.02882445
9	0x3cc2a578	0.023760542
10	0x3a28609e	0.00064230885
11	0x3c552283	0.0130087165
12	0x3cfda27c	0.030961268
13	0xbc8af540	-0.016962647
14	0x3baa2c54	0.0051932726
15	0xbc87d9bc	-0.016583316
16	0xbb2105a5	-0.0024570015
17	0x3bb73a7b	0.005591688
18	0x3cfd8330	0.030946344
19	0xbcc33ac9	-0.023831742
20	0x3bd8c5ab	0.0066153607
21	0xbc985363	-0.01859445
22	0xbcc456cc	-0.02396717
23	0x3caeee65	0.02135391
24	0xb9dd8023	-0.00042247874
25	0x3bb9b8d0	0.0056677833
26	0xbd24d034	-0.04023762
27	0xbd19b26c	-0.037523672
28	0x3b9f3b24	0.004859345
29	0xbd362960	-0.044473052
30	0x3d100e37	0.035169806
31	0x3d0ef917	0.03490552
32	0x3d34961a	0.04408846
33	0xbc38f845	-0.011289661
34	0xbce39ef7	-0.027785761
35	0xbbcf71cd	-0.006330705
36	0x3d1dc1ab	0.038514774
37	0x3c21d91f	0.009878426
38	0x3c9651eb	0.018349608
39	0x3d1351eb	0.035966795
40	0x3c9df448	0.019281521
41	0x3cc82bce	0.02443495
42	0x3cf55606	0.029948246
43	0xbd4443b4	-0.04791613
44	0xbc95e0d8	-0.01829569
45	0x3cf65c49	0.030073302
46	0x3bbb71ab	0.0057203374
47	0xbc373d72	-0.011184083
48	0x3bc95289	0.006143872
49	0x3c870a9f	0.016484557
50	0x3cd633d4	0.02614776
51	0xbd0eaf12	-0.03483493
52	0x3c70082c	0.014650386
53	0x3c21d70a	0.009877929
54	0x3cdc324c	0.026879452
55	0x3b8f41e8	0.0043718703
56	0x3c88f5ab	0.016718706
57	0xbd227ec4	-0.039671674
58	0xbd21647b	-0.039402466
59	0x3c91a28b	0.017777702
60	0x3c6b0674	0.0143448
61	0xbd154f14	-0.036452368
62	0x3babf6e1	0.005247936
63	0x3be5aada	0.0070088925
64	0xbc671339	-0.014103704
65	0xbcb24f05	-0.021766195
66	0x39f2baaa	0.00046296912
67	0xbb9d2c6a	-0.0047965543
68	0x3c148578	0.009065025
69	0xbd2963d7	-0.04135498
70	0x3d186160	0.03720224
71	0x3d0524c2	0.032505758
72	0xbc22641e	-0.009911565
73	0x3d27252c	0.040806934
74	0xbaec408d	-0.0018024609
75	0xbcb9bef2	-0.022674058
76	0x3c48ce87	0.012256271
77	0x3bb330aa	0.0054684477
78	0xbc73e33a	-0.014885718
79	0xbb741958	-0.0037246551
80	0x3c98396c	0.018582068
81	0xbbb4693b	-0.0055057085
82	0x3ce85990	0.02836302
83	0xbc47c5e3	-0.012193176
84	0x3cdd5ca5	0.027021715
85	0x3c2c99e4	0.010534737
86	0xbcb13090	-0.021629602
87	0xbc9ce8e1	-0.019154014
88	0x3ce47745	0.027888903
89	0xbc8a9f4d	-0.016921664
90	0xbd160f1f	-0.036635514
91	0xbc7da271	-0.015480624
92	0x3c17d95b	0.00926813
93	0xbc99d8a5	-0.018780062
94	0xbc6cc276	-0.01445066
95	0xbbbffb8a	-0.005858843
96	0xbc7dc674	-0.015489209
97	0xba2242ec	-0.00061897817
98	0xbd203ac9	-0.039118562
99	0x3ca76f43	0.020438796
100	0xbc94c11b	-0.018158486
101	0x3a849e88	0.0010118047
102	0xbd18c076	-0.03729292
103	0xbc7f7bd4	-0.015593488
104	0xbc0cf7cb	-0.008604
105	0xbc178461	-0.00924787
106	0x3b886a59	0.0041630683
107	0xbcd736b4	-0.026271202
108	0xbbb9df92	-0.0056724036
109	0xbc2e1ea0	-0.010627419
110	0x3cc94245	0.024567733
111	0x3d091756	0.03346952
112	0x3c3ca12b	0.011513035
113	0x3d128204	0.035768524
114	0x3ccdd6a6	0.025126766
115	0x3c226b1e	0.009913234
116	0x3bfd40ed	0.007728687
117	0x3c83507d	0.01602959
118	0xbd167a0f	-0.036737498
119	0x3c4324e6	0.011910653
120	0x3ccc141d	0.024911935
121	0x3c8e0f04	0.017341144
122	0x3c85027c	0.016236536
123	0xbcde66bb	-0.027148595
124	0x3caec427	0.021333767
125	0x3ca3deb4	0.020003654
126	0x3c95c647	0.018283023
127	0xbd1d285d	-0.03836857

model.14.weight f4 [128]
0	0x3f7b515b	0.98171014
1	0x3f7f95d3	0.9983799
2	0x3f809dc7	1.004815
3	0x3f824241	1.0176469
4	0x3f7dd1e8	0.99148417
5	0x3f7f4d34	0.9972718
6	0x3f84b947	1.0369042
7	0x3f79dc03	0.97601336
8	0x3f8045fe	1.002136
9	0x3f79da55	0.97598773
10	0x3f8068d1	1.0031987
11	0x3f834711	1.0256063
12	0x3f840795	1.0314814
13	0x3f8057a6	1.0026748
14	0x3f792452	0.97321045
15	0x3f7f4a74	0.9972298
16	0x3f825d2e	1.0184686
17	0x3f7c43aa	0.9854075
18	0x3f7bb8b8	0.98328733
19	0x3f8192a1	1.0122873
20	0x3f7b05de	0.9805583
21	0x3f827439	1.0191718
22	0x3f7b1a72	0.9808723
23	0x3f79a09f	0.97510713
24	0x3f8611b7	1.0474156
25	0x3f80de35	1.0067812
26	0x3f8192f8	1.0122976
27	0x3f7ca6ed	0.9869221
28	0x3f811138	1.008338
29	0x3f827466	1.0191772
30	0x3f807675	1.003615
31	0x3f7fc6c1	0.9991265
32	0x3f844660	1.0333977
33	0x3f7c92e4	0.9866164
34	0x3f7d1b8d	0.98870164
35	0x3f8103fc	1.0079341
36	0x3f7fca9f	0.9991855
37	0x3f7e0454	0.99225354
38	0x3f808c3c	1.0042796
39	0x3f81c884	1.0139318
40	0x3f7f2d9f	0.9967899
41	0x3f7d3480	0.98908234
42	0x3f8011ae	1.0005395
43	0x3f802fc1	1.0014573
44	0x3f838acc	1.0276732
45	0x3f804a3c	1.0022655
46	0x3f836529	1.0265247
47	0x3f8776bd	1.0583111
48	0x3f7ccd86	0.98751104
49	0x3f830671	1.0236341
50	0x3f7ac8ef	0.9796285
51	0x3f78dce0	0.9721203
52	0x3f7bcf35	0.9836305
53	0x3f803ef9	1.0019218
54	0x3f7d777a	0.9901043
55	0x3f80cfb9	1.0063392
56	0x3f83bb0b	1.0291456
57	0x3f81c800	1.013916
58	0x3f82ca95	1.0218073
59	0x3f80a394	1.004992
60	0x3f84ac6f	1.0365123
61	0x3f7ebc32	0.99505913
62	0x3f819249	1.0122768
63	0x3f811887	1.008561
64	0x3f7a7f92	0.97850907
65	0x3f843188	1.0327616
66	0x3f803501	1.0016176
67	0x3f7efe70	0.9960699
68	0x3f80ae96	1.0053279
69	0x3f818013	1.011721
70	0x3f82b982	1.0212862
71	0x3f817078	1.0112448
72	0x3f7c4396	0.9854063
73	0x3f84f542	1.0387347
74	0x3f8354d2	1.026026
75	0x3f80a2f2	1.0049727
76	0x3f7e437c	0.99321723
77	0x3f786a21	0.9703694
78	0x3f7bb6ba	0.98325694
79	0x3f8517b3	1.0397857
80	0x3f804887	1.0022134
81	0x3f7b0438	0.9805331
82	0x3f7d737c	0.9900434
83	0x3f865f42	1.049782
84	0x3f819a77	1.0125264
85	0x3f800004	1.0000005
86	0x3f807480	1.0035553
87	0x3f7b2e34	0.98117375
88	0x3f7adc01	0.9799195
89	0x3f855d2f	1.0419062
90	0x3f7dfa65	0.99210197
91	0x3f844996	1.0334957
92	0x3f813d7a	1.0096886
93	0x3f7d471d	0.98936635
94	0x3f7bc153	0.98341864
95	0x3f7d380b	0.9891364
96	0x3f80b6ca	1.0055783
97	0x3f81c4de	1.0138204
98	0x3f7d3253	0.98904914
99	0x3f825a29	1.0183765
100	0x3f801ff2	1.0009749
101	0x3f81e4eb	1.0147985
102	0x3f807cfd	1.0038143
103	0x3f7fb1dc	0.99880767
104	0x3f830c97	1.0238217
105	0x3f80b618	1.0055571
106	0x3f747f56	0.955068
107	0x3f83c70d	1.029512
108	0x3f82dffe	1.0224607
109	0x3f7fd723	0.9993765
110	0x3f7fa010	0.9985361
111	0x3f8125ba	1.0089638
112	0x3f8560eb	1.0420202
113	0x3f828519	1.0196868
114	0x3f8334f8	1.025054
115	0x3f801411	1.0006124
116	0x3f7e9966	0.9945282
117	0x3f83e54e	1.0304353
118	0x3f838ac8	1.0276728
119	0x3f811462	1.0084345
120	0x3f7f70be	0.99781406
121	0x3f8110d4	1.008326
122	0x3f804174	1.0019975
123	0x3f867c5e	1.0506704
124	0x3f7fbffc	0.9990232
125	0x3f841f56	1.0322063
126	0x3f7c9aa6	0.98673475
127	0x3f846c27	1.0345505
