results/netD2.pth (torch_old, 405197 bytes, 21 tensors)

model.0.weight f4 [16, 3, 3, 3]
-0.02038972 -0.02843571 -0.03142258 0.008598057 -0.04548188 0.016501771 -0.029587885 -0.01650806
0.04692 -0.006440905 -0.029359924 -0.034989018 -0.033582784 -0.03545685 -0.015075082 0.03758064
0.010175105 0.013885933 -0.040622897 -0.021677038 0.01829352 -0.020700198 -0.012828912 -0.019912798
-0.024934016 -0.03021966 0.002680934 0.002759764 -0.03495854 -0.009800063 -0.008392254 -0.005637878
-0.0046683215 0.0089489585 0.003935032 0.021044653 0.029073827 0.009557083 0.034116905 0.036778543
-0.0031671103 -0.008119183 0.03776556 0.0028089702 0.0014975595 0.015420178 -0.033383936 0.014187719
0.00047824482 -0.015122092 0.006121964 0.029599773 -0.03608412 -0.009020108 -0.01780997 -0.008487203
-0.032504063 -0.055521253 -0.0029846714 -0.015356661 -0.010002327 0.01775669 -0.0074506607 -0.04961937
-0.0061037294 0.013941034 -0.03397988 0.021871783 -0.03415713 -0.05160759 0.013030121 0.025415234
-0.02837471 -0.03494032 -0.015109373 -0.047719475 -0.035578445 -0.009822553 -0.028586302 -0.028346272
-0.02340318 -0.015578231 -0.026590023 -0.047756184 0.01588307 -0.045165095 -0.023685528 -0.0040265215
-0.0042418875 0.023384701 -0.037291016 -0.023124253 -0.007163167 -0.021715214 -0.052966073 -0.041415125
-0.047735564 -0.025708864 -0.020404944 -0.028344646 -0.047634527 0.00851134 -0.0011609049 -0.0045825806
0.006985954 -0.018394597 -0.03489991 -0.010987078 -0.047493696 0.014983886 0.035090797 -0.06585741
-0.02013955 -0.011293275 -0.056445803 0.061152674 0.024477929 -0.03218674 0.0034015197 0.0015478659
-0.032107916 -0.018437844 -0.014935752 -0.010411912 0.03626278 0.022303987 -0.039120864 -0.008397762
0.0038749075 -0.04794735 -0.015161273 -0.018571528 -0.045902282 0.006764749 0.043461163 -0.0026494295
-0.057310626 0.046217773 -0.027064545 -0.026970245 0.04894963 -0.050777603 -0.011992916 0.025693228
-0.06806087 -0.0433127 0.024703944 -0.05103117 -0.0073157893 0.02910185 -0.03589189 -0.029578201
0.022146566 -0.040847283 -0.037141643 0.04403024 -0.04626037 -0.049999002 0.0140703805 -0.04471223
-0.023021027 0.050824497 0.036970247 0.008205286 0.019468624 0.06227754 0.043992788 0.062218837
0.061897885 0.0568806 0.06250161 0.010913543 0.038891457 -0.00066188513 -0.004420934 -0.0009217806
-0.013771422 0.017442299 -0.0143992305 0.030329997 -0.022915497 -0.020756757 -0.011145755 -0.012616888
0.0071290205 -0.025062425 -0.020164015 -0.009165617 -0.031468995 0.07151456 0.045916397 0.042011388
0.043031354 0.058827437 0.054064628 0.017053053 0.040700972 0.019840792 -0.03657217 -0.030327398
-0.0003769189 0.004754914 -0.010187816 -0.025359744 0.0005634143 0.0014272708 0.021552123 -0.026629359
-0.01645295 0.016428549 -0.046799712 -0.023912037 -0.025414614 -0.013511033 -0.018566605 -0.0025368691
0.015080019 0.022231583 -0.019274049 0.038010854 0.018925808 0.02807645 0.01135529 0.0022183165
0.04085374 -0.0043565417 0.02154642 0.03060422 0.0021792075 0.0117908 0.009059377 0.021775672
-0.004113092 -0.008896299 0.004932639 0.016288409 0.02901537 -0.010373934 0.033484116 0.019874625
-0.012548792 0.013117665 0.019626345 -0.015976928 -0.030797511 -0.0038891318 -0.016706584 -0.025419088
-0.0025693842 -0.008073305 -0.017383361 -0.0034309914 -0.0053173765 0.0077908332 0.06708847 0.023495728
00000000: 5808 a7bc 02f2 e8bc f7b4 00bd ddde 0c3c
00000010: 354b 3abd b92e 873c 4b62 f2bc e93b 87bc
00000020: 302f 403d 3a0e d3bb 3984 f0bc a550 0fbd
00000030: 1a8e 09bd 343b 11bd 7afd 76bc 28ee 193d
00000040: 7cb5 263c d381 633c 3264 26bd 0b94 b1bc
00000050: 4bdc 953c 7693 a9bc 5b30 52bc 2a20 a3bc
00000060: 6c42 ccbc 388f f7bc 9cb2 2f3b 28dd 343b
00000070: b030 0fbd 7290 20bc aa7f 09bc f3bd b8bb
00000080: b8f8 98bb a79e 123c 71f1 803b d665 ac3c
00000090: 3c2c ee3c 5095 1c3c 2bbe 0b3d 19a5 163d
000000a0: 4b8f 4fbb 5206 05bc 0fb0 1a3d b316 383b
000000b0: c249 c43a eaa4 7c3c 98bd 08bd 9b73 683c
000000c0: efbc fa39 a7c2 77bc c29a c83b 397b f23c
000000d0: f1cc 13bd 13c9 13bc 37e6 91bc e90d 0bbc
000000e0: fb22 05bd 416a 63bd 7a9a 43bb 819a 7bbc
000000f0: cde0 23bc 7a76 913c ac24 f4bb ae3d 4bbd
00000100: cb01 c8bb ef68 643c 7d2e 0bbd 742c b33c
00000110: 59e8 0bbd 7b62 53bd 4a7c 553c 9c33 d03c
00000120: 1472 e8bc 951d 0fbd 4e8d 77bc 7f75 43bd
00000130: b4ba 11bd c6ee 20bc d22d eabc 7136 e8bc
00000140: 07b8 bfbc d63b 7fbc 52d3 d9bc fd9b 43bd
00000150: 361d 823c 09ff 38bd 2708 c2bc e9f0 83bb
00000160: 88ff 8abb 4691 bf3c 77be 18bd 136f bdbc
00000170: 00b9 eabb 1be4 b1bc f4f2 58bd e8a2 29bd
00000180: 5e86 43bd 659b d2bc 4528 a7bc 0833 e8bc
00000190: 6c1c 43bd 2673 0b3c 8129 98ba 7929 96bb
000001a0: 6eea e43b 44b0 96bc 35f3 0ebd 2503 34bc
000001b0: c088 42bd f97e 753c 5ebb 0f3d 40e0 86bd
000001c0: b3fb a4bc 6e07 39bc b733 67bd 3a7b 7a3d
000001d0: f085 c83c 3ed6 03bd 08ec 5e3b c3e1 ca3a
000001e0: 9783 03bd f60a 97bc 16b5 74bc b996 2abc
000001f0: 4888 143d dab6 b63c 333d 20bd c496 09bc
00000200: 29f2 7d3b 7164 44bd fd66 78bc 5123 98bc
00000210: 0804 3cbd d4aa dd3b 5504 323d 0da2 2dbb
00000220: 8cbe 6abd d94e 3d3d 77b6 ddbc b4f0 dcbc
00000230: 687f 483d 2dfc 4fbd f07d 44bc 9b7a d23c
00000240: 7f63 8bbd a868 31bd ed5f ca3c 0f06 51bd
00000250: 4ab9 efbb 0167 ee3c 6003 13bd fc4d f2bc
00000260: b76c b53c 7b4f 27bd d621 18bd 0e59 343d
00000270: 847b 3dbd c1cb 4cbd 7487 663c 2c24 37bd
00000280: 9896 bcbc 592d 503d 1d6e 173d 776f 063c
00000290: aa7c 9f3c bc16 7f3d c831 343d 2ed9 7e3d
000002a0: a388 7d3d a2fb 683d d800 803d b8ce 323c
000002b0: a64c 1f3d 5c82 2dba 7bdd 90bb a6a3 71ba
000002c0: 88a1 61bc 27e3 8e3c c0ea 6bbc 9d76 f83c
000002d0: 48b9 bbbc 130a aabc af9c 36bc 10b7 4ebc
000002e0: 8f9a e93b b74f cdbc 012f a5bc 622b 16bc
000002f0: a2e5 00bd 3a76 923d d512 3c3d 2214 2c3d
00000300: a541 303d 0af5 703d df72 5d3d d8b2 8b3c
00000310: 10b6 263d 2889 a23c b3cc 15bd 2a71 f8bc
00000320: 339d c5b9 1ccf 9b3b ccea 26bc 3dbf cfbc
00000330: 18b2 133a 4313 bb3a 148e b03c d025 dabc
00000340: 56c8 86bc 2a95 863c 0eb1 3fbd 2de3 c3bc
00000350: 4f32 d0bc 615d 5dbc fe18 98bc 9a41 26bb
00000360: 2f12 773c 021f b63c 9ce4 9dbc 45b1 1b3d
00000370: 4c0a 9b3c 9500 e63c 8a0b 3a3c 2d61 113b
00000380: 4056 273d 52c1 8ebb 1e82 b03c b4b5 fa3c
00000390: 09d1 0e3b 332e 413c c86d 143c e562 b23c
000003a0: 1ec7 86bb c8c1 11bc faa1 a13b 456f 853c
000003b0: a4b1 ed3c 6ff7 29bc a426 093d 1cd0 a23c
000003c0: 7399 4dbc 7aeb 563c 6ec7 a03c 0ce2 82bc
000003d0: 104b fcbc cee0 7ebb 3fdc 88bc b13b d0bc
000003e0: 1d63 28bb e545 04bc 8d67 8ebc 7cda 60bb
000003f0: 633d aebb 3f4a ff3b ae65 893d 1d7a c03c

model.0.bias f4 [16]
-0.02462231 0.053081702 -0.15153773 -0.04308816 0.047887262 -0.005985101 0.023523651 -0.102929905
-0.21816143 -0.13230592 -0.020239718 -0.12759654 0.046049334 -0.05756642 -0.10508677 -0.00163353
00000000: bab4 c9bc 336c 593d b52c 1bbe 367d 30bd
00000010: 6f25 443d ab1e c4bb acb4 c03c eacc d2bd
00000020: b665 5fbe 347b 07be c4cd a5bc aba8 02be
00000030: 3a9e 3c3d c4ca 6bbd bc37 d7bd 2c1c d6ba

model.3.weight f4 [32, 16, 3, 3]
0.010689016 0.0028086272 -0.024326993 -0.024081161 0.04215843 -0.021595662 0.041002337 -0.0005182951
0.004078284 0.0035857465 -0.016614879 -0.0067217317 0.041487485 -0.036935512 -0.008787367 0.02974985
-0.0048793866 0.021540109 -0.015630446 -0.033781826 -0.05747793 -0.008973097 -0.03189913 -0.06486941
-0.0467622 -0.052016485 -0.002983582 0.020783205 -0.031976152 -0.021748876 -0.0043870835 -0.029678693
-0.00022138354 -0.033660557 -0.031618696 -0.0037812341 0.0011704516 0.051677156 0.061926857 0.01984199
0.02178605 0.0152187105 0.02530607 0.027981058 0.0049027363 0.015451272 0.058834266 0.027797535
0.06126983 0.06368779 0.017476782 0.030510074 0.052698366 0.0026585285 0.008409292 -2.7646092e-05
0.039604623 0.040218007 0.015696729 -0.012641884 0.05615526 -0.008775989 0.006810538 -0.05789755
-0.048656385 -0.065581836 -0.035359673 -0.03443036 -0.076401025 -0.0016489354 -0.019496964 -0.03306599
-0.029790672 0.0056133764 0.024310397 -0.03044236 0.03132492 -0.006496515 0.018178869 0.026022725
-0.052798543 -0.010842785 0.008390553 0.007438137 0.0008170309 0.008169158 -0.006932786 -0.03069364
0.019844897 0.054307763 -0.03668336 0.016596636 0.0027127734 -0.048012972 -0.005901991 -0.087218784
-0.06269345 -0.044238355 -0.029353593 -0.05385005 -0.06133203 -0.013619166 -0.053307015 -0.07243423
-0.031861715 -0.07802569 -0.040326424 -0.02465454 -0.031449854 -0.04344361 -0.062015112 -0.011610014
-0.024180127 -0.05993021 -0.001594883 -0.011759807 -0.030479312 -0.011989284 -0.059618518 -0.022067975
-0.04926854 -0.029610882 -0.034824487 -0.04211575 -0.050680514 -0.013203003 0.007905885 -0.0038183162
-0.016918002 0.0031588217 -0.0037149177 -0.013002949 0.021138517 -0.033495743 -0.022883425 0.007996035
-0.0077637173 -0.012259351 0.010830137 -0.0024309948 -0.0693249 0.038804676 -0.02537423 -0.028242143
-0.009990874 -0.04322227 -0.029161446 -0.010653063 -0.026373457 -0.004434742 -0.01716581 -0.01172302
0.0056214044 0.03657999 0.042965133 0.0031937426 0.033055943 0.04706749 0.0047020125 -0.00145575
-0.03344496 -0.027468482 0.015967604 0.0015157781 -0.03745816 -0.0202403 -0.027192643 -0.034250665
-0.021592373 -0.0011559704 -0.012882097 -0.010550703 0.0062123947 -0.024118913 -0.03294158 -0.048661023
-0.051534805 0.0055822004 -0.027422141 0.010850171 -0.069712214 -0.020155303 -0.017528329 -0.039708156
0.03373908 0.036380492 -0.019231662 -0.000998077 0.022171477 -0.022442667 -0.016394444 -0.009201585
-0.06073196 -0.0147595005 -0.08380856 -0.015921798 0.020474292 -0.030103322 0.027287364 -0.0047306763
0.0028460838 0.0143167265 0.06500251 0.021083673 -0.014706667 -0.0009015073 0.031061497 0.003790706
0.005537558 2.6207694e-05 0.04799808 0.05867 0.009858461 -0.0075248536 0.024170944 0.03628033
0.020794077 0.060445286 0.0548659 0.073616415 0.06172772 0.022578573 0.010070103 0.038732566
0.039114486 0.056274273 0.098881684 0.044601377 0.039678182 0.07351954 0.04229386 -0.0047105863
0.015884174 0.0024695676 -0.0073316195 0.022134362 0.0150687555 0.00050481793 -0.01847952 0.00013508245
0.006577496 0.0012735536 0.008737711 0.007768277 0.0018768855 0.036262684 0.043130208 0.016899265
0.052114904 -0.03225658 0.001820275 0.030688118 -0.013310041 -0.0035418423 -0.016954128 -0.05629262
00000000: fc20 2f3c f210 383b 6749 c7bc db45 c5bc
00000010: 51ae 2c3d 63e9 b0bc 11f2 273d 32de 07ba
00000020: 20a3 853b d8fe 6a3b ed1b 88bc f941 dcbb
00000030: c8ee 293d b149 17bd e3f8 0fbc f5b5 f33c
00000040: 43e3 9fbb e274 b03c 6c0b 80bc d05e 0abd
00000050: fa6d 6bbd e603 13bc aaa8 02bd 41da 84bd
00000060: b889 3fbd 3d0f 55bd 3388 43bb 8a41 aa3c
00000070: 6df9 02bd b32a b2bc 86c1 8fbb bb20 f3bc
00000080: 3123 68b9 a7df 09bd 9b82 01bd 95ce 77bb
00000090: d769 993a 6dab 533d 04a7 7d3d ab8b a23c
000000a0: a978 b23c e657 793c ad4e cf3c 8838 e53c
000000b0: 22a7 a03b 5527 7d3c 33fc 703d a8b7 e33c
000000c0: 13f6 7a3d be6e 823d 782b 8f3c 43f0 f93c
000000d0: 3eda 573d b53a 2e3b 21c7 093c 88e9 e7b7
000000e0: 7538 223d a3bb 243d 6d96 803c e81f 4fbc
000000f0: 0f03 663d 2ac9 0fbc ef2a df3b fb25 6dbd
00000100: eb4b 47bd c54f 86bd 4ed5 10bd d906 0dbd
00000110: 2478 9cbd 1721 d8ba 19b8 9fbc 3470 07bd
00000120: 910b f4bc 6af0 b73b 9926 c73c 4262 f9bc
00000130: 8f4e 003d b8e0 d4bb daeb 943c 9c2d d53c
00000140: 4943 58bd f0a5 31bc 8878 093c 9ebb f33b
00000150: 042e 563a efd7 053c 6d2c e3bb 3a71 fbbc
00000160: c491 a23c d171 5e3d 4a41 16bd abf5 873c
00000170: c9c8 313b 40a9 44bd 7d65 c1bb c39f b2bd
00000180: 6c65 80bd 4733 35bd f276 f0bc df91 5cbd
00000190: 4b37 7bbd ec22 5fbc 7558 5abd 6658 94bd
000001a0: 6e81 02bd efcb 9fbd 522d 25bd 51f8 c9bc
000001b0: 90d1 00bd edf1 31bd 8f03 7ebd ee37 3ebc
000001c0: 6715 c6bc 6179 75bd 650b d1ba 35ac 40bc
000001d0: c0af f9bc b46e 44bc 8c32 74bd e6c7 b4bc
000001e0: cfcd 49bd 8592 f2bc 1fa4 0ebd 9181 2cbd
000001f0: 5f96 4fbd 6951 58bc af87 013c b73c 7abb
00000200: 9f97 8abc 3c04 4f3b fa75 73bb 520a 55bc
00000210: af2a ad3c d532 09bd 0576 bbbc cd01 033c
00000220: c866 febb 72db 48bc e370 313c 5351 1fbb
00000230: 37fa 8dbd a7f1 1e3d 9edd cfbc 115c e7bc
00000240: c3b0 23bc d609 31bd fce3 eebc 2f8a 2ebc
00000250: 260d d8bc 5051 91bb 509f 8cbc e911 40bc
00000260: c233 b83b e6d4 153d 35fc 2f3d 1c4e 513b
00000270: ab65 073d d7c9 403d 5713 9a3b ddce beba
00000280: 95fd 08bd 9505 e1bc 7ece 823c 13ad c63a
00000290: ba6d 19bd fcce a5bc 1bc3 debc 6d4a 0cbd
000002a0: 7de2 b0bc ee83 97ba 6e0f 53bc dbdc 2cbc
000002b0: 5891 cb3b 0795 c5bc c0ed 06bd c850 47bd
000002c0: 2916 53bd e4ea b63b 66a4 e0bc eac4 313c
000002d0: 47c5 8ebd bc1c a5bc 9297 8fbc 05a5 22bd
000002e0: fd31 0a3d b603 153d b88b 9dbc e8d1 82ba
000002f0: f5a0 b53c afd9 b7bc a44d 86bc 3fc2 16bc
00000300: 13c2 78bd d5d1 71bc d3a3 abbd 6e6e 82bc
00000310: b4b9 a73c 3e9b f6bc c089 df3c ca03 9bbb
00000320: 5d85 3a3b b490 6a3c 0920 853d abb7 ac3c
00000330: 3bf4 70bc 2153 6cba ae74 fe3c 7e6d 783b
00000340: 6774 b53b 98d8 db37 a299 443d f44f 703d
00000350: 6285 213c 0c93 f6bb 2502 c63c af9a 143d
00000360: 5758 aa3c 7a95 773d 11bb 603d 34c4 963d
00000370: 35d6 7c3d b3f6 b83c 13fd 243c 0aa6 1e3d
00000380: 8336 203d da7f 663d 7b82 ca3d efaf 363d
00000390: 9785 223d 6a91 963d 543c 2d3d 435b 9abb
000003a0: 871f 823c 78d8 213b 153e f0bb 1f53 b53c
000003b0: f1e2 763c c255 043a 5d62 97bc eba4 0d39
000003c0: 0988 d73b 5eed a63a 9e28 0f3c 088d fe3b
000003d0: d401 f63a 2e88 143d 4da9 303d 5470 8a3c
000003e0: 7076 553d 7a1f 04bd 4b96 ee3a a665 fb3c
000003f0: 5c12 5abc 411e 68bb 62e3 8abc 1793 66bd

model.3.bias f4 [32]
-0.02284241 -0.048660114 -0.04609648 -0.01559518 -0.022766948 -0.08253847 -0.033271298 0.0423072
-0.0127291465 0.0008040684 -0.009744251 -0.056841724 0.019685954 0.0053390926 -0.08395572 -0.047757383
0.061388668 -0.06270662 0.011355708 -0.013976715 -0.038274426 0.008109158 -0.030862095 -0.024265602
-0.016582288 0.02338957 0.04635437 0.009134147 -0.08130984 -0.0062074834 -0.06726226 -0.09578779
00000000: 0120 bbbc d44f 47bd aacf 3cbd ed82 7fbc
00000010: c081 babc ee09 a9bd 7c47 08bd 514a 2d3d
00000020: e98d 50bc 1ec8 523a 5aa6 1fbc ded2 68bd
00000030: 7044 a13c 8ef3 ae3b faf0 abbd 3f9d 43bd
00000040: af72 7b3d 546c 80bd 4b0d 3a3c 97fe 64bc
00000050: a5c5 1cbd 46dc 043c 81d2 fcbc a8c8 c6bc
00000060: 94d7 87bc 7c9b bf3c 14de 3d3d 64a7 153c
00000070: c685 a6bd 2568 cbbb ccc0 89bd 642c c4bd

model.6.weight f4 [32]
0.9927544 1.0256445 0.98694086 0.99353325 1.0401154 1.0328772 1.0346174 1.0265161
1.07479 1.0156151 1.0034219 0.9948067 1.0394524 1.0327173 1.0372244 1.0286349
1.0415637 1.0280633 1.0061699 1.0042505 1.0111523 1.0287389 1.0309563 1.0172954
1.0029911 0.959342 1.0060763 1.0199252 1.0862521 1.0261904 1.0687844 1.025518
00000000: 2725 7e3f 5248 833f 28a8 7c3f 3258 7e3f
00000010: 8022 853f 5235 843f 586e 843f e164 833f
00000020: b892 893f adff 813f 2170 803f a7ab 7e3f
00000030: c70c 853f 1530 843f c5c3 843f 4faa 833f
00000040: f651 853f 9497 833f 2dca 803f 488b 803f
00000050: 706d 813f b7ad 833f 60f6 833f bc36 823f
00000060: 0362 803f 7097 753f 1cc7 803f e98c 823f
00000070: 4f0a 8b3f 355a 833f edcd 883f 2c44 833f

model.6.bias f4 [32]
-0.004182807 -0.021818487 -0.0023188642 0.011761617 0.017947549 0.025145426 -0.0006371294 -0.014799118
-0.022909472 -0.0039454177 -0.0005743279 -0.032609783 -0.002427982 0.014835424 -0.018868264 0.024541324
0.0012958652 -0.0038090493 0.036095116 0.006092281 0.011990464 0.01172509 0.023999358 -0.0040926835
-0.0061873323 0.04556944 -0.064511076 -0.007121043 0.012930213 0.0005901539 -0.005004145 0.011112464
00000000: ee0f 89bb afbc b2bc 16f8 17bb ccb3 403c
00000010: bd06 933c c8fd cd3c 0805 27ba 0078 72bc
00000020: a5ac bbbc 9048 81bb 7e8e 16ba d691 05bd
00000030: c71e 1fbb 4710 733c 9e91 9abc e30a c93c
00000040: 05da a93a 3ea1 79bb 79d8 133d c2a1 c73b
00000050: a773 443c 981a 403c 4d9a c43c eb1b 86bb
00000060: 1bbf cabb 05a7 3a3d 621e 84bd a357 e9bb
00000070: 3ed9 533c 8fb4 1a3a d0f9 a3bb 0d11 363c

model.6.running_mean f4 [32]
0.013287342 0.022251252 -0.0067264712 0.040707685 0.010170126 -0.01968433 0.017070604 0.007215898
0.035133462 0.028830316 0.02704733 0.016500432 0.0204158 0.013136185 -0.012453126 -0.022964027
0.008055905 0.01769827 0.012729642 0.01917689 -0.01990714 0.006382826 -0.006378481 0.030647542
0.0063973097 0.0064108944 0.0034225504 0.0060369475 -0.008369772 0.020178327 -0.0063587106 -0.013009359
00000000: 27b3 593c 4248 b63c bb69 dcbb 1abd 263d
00000010: 9aa0 263c 0841 a1bc a7d7 8b3c 5773 ec3b
00000020: 1be8 0f3d 8e2d ec3c 5d92 dd3c ea2b 873c
00000030: 093f a73c 2739 573c 3208 4cbc 0e1f bcbc
00000040: eafc 033c f6fb 903c fd8f 503c da18 9d3c
00000050: 4c14 a3bc 0627 d13b 9402 d1bb 8e10 fb3c
00000060: 86a0 d13b 7b12 d23b de4c 603b 96d1 c53b
00000070: 5e21 09bc 054d a53c bb5c d0bb 3525 55bc

model.6.running_var f4 [32]
0.0013724876 0.004110585 0.0008765094 0.0027007302 0.0042654015 0.0012413906 0.0026275988 0.00089198863
0.0031173225 0.0014391211 0.002822884 0.0026477543 0.0027988509 0.0062887 0.00044022457 0.0015086522
0.0016324037 0.002698013 0.001291288 0.0024174245 0.0018410293 0.0007499458 0.0012047627 0.0031991093
0.001469273 0.00051091827 0.0013080082 0.0013093138 0.00046721744 0.0027269742 0.0009251932 0.0006762227
00000000: 0be5 b33a 16b2 863b 8dc5 653a bcfe 303b
00000010: c8c4 8b3b 28b6 a23a cb33 2c3b 58d4 693a
00000020: fe4b 4c3b e4a0 bc3a 2200 393b f285 2d3b
00000030: ed6c 373b 7011 ce3b f1cd e639 f8bd c53a
00000040: 61f6 d53a 26d1 303b 6f40 a93a a76d 1e3b
00000050: b14e f13a 0398 443a 21e9 9d3a 26a8 513b
00000060: 9f94 c03a 25ef 053a 7971 ab3a 489d ab3a
00000070: ddf4 f439 09b7 323b aa88 723a 8a44 313a

model.7.weight f4 [64, 32, 3, 3]
-0.0033333136 -0.025210107 0.025162594 -0.015990593 -0.025877865 0.01873127 -0.015709879 -0.07408909
0.004606687 0.007356652 -0.0532083 0.017320123 0.01299714 -0.021920413 -0.0043802448 0.017935647
0.0020371357 -0.00067572226 -0.07061217 -0.0027237327 -0.00018655603 0.026035307 0.017359706 0.016459435
0.05722937 0.019105727 -0.011068876 -0.024395682 -0.029255666 -0.047951497 -0.027626812 0.00015788522
-0.012634934 -0.031636372 -0.018949391 -0.014794531 -0.03977035 -0.03514919 -0.0026039104 -0.008349526
0.003530855 0.01645032 0.004130762 -0.044947736 -0.05056501 -0.018328734 0.10906482 0.07536191
0.020895826 0.06907138 0.052467354 0.014179327 0.06592516 0.09272341 -0.021183869 -0.008884916
-0.07259329 0.041407708 0.011188394 -0.0029222975 -0.0066699074 -0.014969324 -0.030603383 0.015975265
-0.0501277 -0.011257248 0.011453858 0.005174388 0.012085149 -0.0010056384 -0.015033372 -0.009693311
0.08058323 0.0070524532 -0.07707192 0.10792679 -0.020797456 -0.0081574 0.0014271061 -0.010556407
-0.0264329 0.023600137 -0.0013990119 -0.027608344 0.010449647 -0.021354346 0.01027276 0.028710471
-0.0533924 0.011435934 -0.03904093 0.044145916 0.01277772 -0.052390195 0.07446328 -0.009730364
-0.0066958265 0.05362665 -0.047605257 -0.018492842 -0.021054847 -0.023857025 0.006500788 0.02660289
0.008881018 0.031621188 0.0136369 0.012558428 0.010462334 0.007005827 -0.013371542 -0.10239266
0.03207306 -0.06223009 -0.013210549 0.027213005 -0.033068616 -0.044885553 0.013467754 -0.07603071
0.018760052 -0.009219589 -0.008348158 0.010213846 0.013482416 0.00019407975 -0.033595562 -0.027487105
-0.0148499375 -0.010356151 0.015769098 -0.043632414 -0.049734898 0.03703503 -0.010276459 0.052505903
0.04488514 0.005073087 0.032210547 0.007773821 0.024072377 0.060831554 0.018698566 0.04430529
0.036063116 0.027112644 0.015257115 0.025163274 0.0012143899 -0.033652015 -0.024501309 0.027450684
-0.053991977 -0.013035235 0.042834137 -0.009985067 0.0009670311 0.07080852 -0.030017044 0.076026104
0.035256382 -0.0026844416 0.008240188 -0.03466761 0.07101729 0.033845875 0.009868311 0.036668636
0.007479644 0.007814286 0.05741967 -0.004190786 0.030369947 -0.06406084 -0.020147862 0.002364763
-0.015168301 -0.016096672 0.06628094 -0.037545845 0.032470547 0.013257271 -0.0041572256 -0.017293425
0.04298466 0.004687637 -0.013544679 0.00445892 0.026784617 -0.034535278 -0.005321901 -0.036339447
-0.035011183 -0.015031096 -0.0034149964 -0.0007916436 0.010602824 -0.015084944 -0.013632948 0.05057544
0.03629558 0.03364881 0.08955467 0.0061919945 0.010234018 0.033912487 0.048851974 0.028613452
0.016844366 0.057216126 0.037646197 0.009786012 0.029155917 -0.002487523 -0.017202761 -0.0178911
-0.016281895 0.004685647 0.02568956 -0.032266248 -0.020451456 0.026821509 -0.03174289 -0.021026991
-0.008442996 0.03255396 0.002607031 0.041373078 -0.019184629 0.028185138 0.023602167 -0.0033201599
-0.02871548 0.049236614 0.057941746 0.021284156 -0.0063849413 0.025609473 -0.019448997 0.010212249
0.012417535 0.017681224 -0.0044853417 -0.050319113 -0.0040440434 0.02030759 -0.03641283 0.010892773
0.013413264 0.005700342 0.00504657 0.011075897 0.04741735 0.068005525 0.039996758 0.0069738925
00000000: b973 5abb 6d85 cebc c921 ce3c b4fe 82bc
00000010: d1fd d3bc 5272 993c 01b2 80bc 05bc 97bd
00000020: b1f3 963b 1210 f13b f2f0 59bd eee2 8d3c
00000030: f5f1 543c 7092 b3bc 2888 8fbb c7ed 923c
00000040: 7781 053b f422 31ba 1d9d 90bd a780 32bb
00000050: 419e 43b9 ff47 d53c f135 8e3c f0d5 863c
00000060: 5869 6a3d 9d83 9c3c 3b5a 35bc 74d9 c7bc
00000070: 94a9 efbc ca68 44bd a051 e2bc fe8d 2539
00000080: c102 4fbc 2495 01bd c13b 9bbc c364 72bc
00000090: 3ce6 22bd 99f8 0fbd 5ea6 2abb 73cc 08bc
000000a0: eb65 673b d2c2 863c 585b 873b 1e1b 38bd
000000b0: 421d 4fbd 2426 96bc 605d df3d 5857 9a3d
000000c0: b92d ab3c 4c75 8d3d 02e8 563d 6850 683c
000000d0: c503 873d c5e5 bd3d cb89 adbc 0a92 11bc
000000e0: caab 94bd 219b 293d 874f 373c 0484 3fbb
000000f0: 3d8f dabb e541 75bc f2b3 fabc 8fde 823c
00000100: b452 4dbd 5270 38bc f6a8 3b3c ea8d a93b
00000110: ca00 463c a0cf 83ba 884e 76bc b1d0 1ebc
00000120: d208 a53d 4418 e73b e2d7 9dbd b908 dd3d
00000130: 6d5f aabc 9ea6 05bc bc0d bb3a c8f4 2cbc
00000140: cf89 d8bc 1355 c13c 0d5f b7ba e52a e2bc
00000150: ff34 2b3c 4fef aebc 144f 283c 3932 eb3c
00000160: fdb1 5abd c95d 3b3c 62e9 1fbd 59d2 343d
00000170: a459 513c 1a97 56bd 3480 983d 1b6c 1fbc
00000180: aa68 dbbb 9ea7 5b3d bbfd 42bd 4d7e 97bc
00000190: 377b acbc cf6f c3bc 9004 d53b 4eee d93c
000001a0: b081 113c 3885 013d 4e6d 5f3c ddc1 4d3c
000001b0: 366a 2b3c 2391 e53b 5014 5bbc 3eb3 d1bd
000001c0: 0a5f 033d fbe4 7ebd 0f71 58bc cfed de3c
000001d0: f572 07bd ead9 37bd dba7 5c3c fdb5 9bbd
000001e0: aeae 993c c20d 17bc b6c6 08bc fa57 273c
000001f0: 5ae5 5c3c e381 4b39 809b 09bd a32c e1bc
00000200: 274d 73bc d8ac 29bc 322e 813c e7b7 32bd
00000210: d2b6 4bbd 0bb2 173d 985e 28bc 6e10 573d
00000220: 7bd9 373d 233c a63b 35ef 033d 89bb fe3b
00000230: 6f33 c53c 822a 793d bc2d 993c 7779 353d
00000240: ebb6 133d 561b de3c faf8 793c 3623 ce3c
00000250: 2a2c 9f3a b2d6 09bd f8b6 c8bc 42e0 e03c
00000260: b126 5dbd bd91 55bc d972 2f3d 6898 23bc
00000270: 5c80 7d3a 0f04 913d 4ee6 f5bc 93b3 9b3d
00000280: ff68 103d 75ed 2fbb da01 073c a0ff 0dbd
00000290: 8371 913d f9a1 0a3d b2ae 213c da31 163d
000002a0: cd17 f53b 7e07 003c e330 6b3d dc52 89bb
000002b0: 65ca f83c 5432 83bd 210d a5bc 24fa 1a3b
000002c0: 7784 78bc 2bdd 83bc 4dbe 873d acc9 19bd
000002d0: d6ff 043d 0635 593c 5639 88bb f1aa 8dbc
000002e0: af10 303d c09a 993b 80ea 5dbc 221c 923b
000002f0: 6a6b db3c dd74 0dbd 5763 aebb acd8 14bd
00000300: e367 0fbd fc44 76bc 22ce 5fbb 4d86 4fba
00000310: 78b7 2d3c d726 77bc ba5c 5fbc 3128 4f3d
00000320: adaa 143d 56d3 093d 7068 b73d 37e6 ca3b
00000330: 95ac 273c d2e7 0a3d 0219 483d c266 ea3c
00000340: 32fd 893c 755b 6a3d e632 1a3d 8255 203c
00000350: 64d8 ee3c b605 23bb ceec 8cbc 5b90 92bc
00000360: 9c61 85bc 0e8a 993b ea72 d23c 9d29 04bd
00000370: d089 a7bc c8b8 db3c d504 02bd cc40 acbc
00000380: 7e54 0abc 4d57 053d b9da 2a3b d176 293d
00000390: 1529 9dbc 85e4 e63c 5559 c13c 0a97 59bb
000003a0: ba3c ebbc 55ac 493d 5354 6d3d 1c5c ae3c
000003b0: c538 d1bb f5ca d13c 8153 9fbc 4751 273c
000003c0: eb72 4b3c 37d8 903c c6f9 92bb 6a1b 4ebd
000003d0: e583 84bb 1a5c a63c 9f25 15bd 9a77 323c
000003e0: 4fc3 5b3c efc9 ba3b b35d a53b ae77 353c
000003f0: b238 423d 7b46 8b3d a4d3 233d 4085 e43b

model.7.bias f4 [64]
-0.034368347 0.0040464075 -0.043969292 -0.027689422 0.043692764 0.00036341554 -0.0001315989 -0.050493937
-0.030228665 -0.012236205 -0.039804455 -0.045213584 -0.013833509 -0.0414527 -0.018831536 -0.004987601
-0.015813632 -0.056264192 -0.030969651 -0.011896075 0.011131713 -0.053627964 -0.015684914 0.007967444
-0.004924592 -0.035683 -0.0536934 -0.017835205 0.00238382 0.017471673 0.024110219 -0.017341131
0.0069184336 0.0015636093 0.0052880743 -0.022817953 0.04092428 -0.034232188 0.0069305683 -0.025045713
-0.0021758107 0.009036813 -0.0076310686 -0.020359837 -0.03248361 0.009945781 0.0017840561 -0.018875692
-0.023133868 -0.010498355 -0.07178849 -0.045321062 -0.013311681 -0.005266943 -0.008574228 -0.017164705
-0.0058317445 0.03601267 0.018409813 -0.026890872 -0.021246372 -0.027744358 0.009822603 -0.015996072
00000000: d3c5 0cbd ba97 843b 2519 34bd edd4 e2bc
00000010: 2ff7 323d cf88 be39 d0fd 09b9 bbd2 4ebd
00000020: 1ba2 f7bc 5d7a 48bc ff09 23bd e131 39bd
00000030: f1a5 62bc 4eca 29bd 9844 9abc 086f a3bb
00000040: 978b 81bc 4875 66bd 11b4 fdbc c1e7 42bc
00000050: ca61 363c ffa8 5bbd a67d 80bc e289 023c
00000060: 795e a1bb 5628 12bd 9ced 5bbd 231b 92bc
00000070: dd39 1c3b c120 8f3c cb82 c53c fd0e 8ebc
00000080: 07b4 e23b 06f2 cc3a 9547 ad3b b7ec babc
00000090: 38a0 273d 0d37 0cbd d219 e33b ab2c cdbc
000000a0: 0c98 0ebb 240f 143c 0b0e fabb acc9 a6bc
000000b0: 890d 05bd a1f3 223c fdd6 e93a 32a1 9abc
000000c0: 3d83 bdbc 4b01 2cbc d805 93bd 94a2 39bd
000000d0: 3d19 5abc 5296 acbb eb7a 0cbc ff9c 8cbc
000000e0: 3818 bfbb 0582 133d 2dd0 963c 3f4a dcbc
000000f0: df0c aebc 2348 e3bc fcee 203c 320a 83bc

model.10.weight f4 [64]
0.9870875 1.0228246 0.99431556 1.0027857 0.99158114 0.97167814 0.9895879 1.0312458
1.0171103 1.0180097 1.0060166 0.9907615 1.0259162 1.0096539 1.0461929 0.99437463
0.9983611 1.0464995 0.98246455 1.0116123 0.9970214 0.9981365 1.018193 1.0572773
1.0338143 1.0153551 0.9949238 0.9774401 0.99635315 0.99609023 0.98937124 1.0035539
0.96912456 1.018234 1.0051777 1.0071143 0.93969464 1.0561755 1.0039834 1.0209365
1.0482427 1.0036216 0.9991889 1.0338489 1.0306965 0.96547145 1.018932 1.0501249
1.0534791 1.0313752 1.1136221 1.0096718 0.9758907 1.0202132 1.0253434 1.0032359
0.98497266 1.021786 1.006052 1.0153866 1.0201123 1.0458007 0.977717 1.0500352
00000000: c4b1 7c3f ebeb 823f 778b 7e3f 485b 803f
00000010: 43d8 7d3f e6bf 783f a255 7d3f ddff 833f
00000020: ac30 823f 244e 823f 27c5 803f 8ca2 7d3f
00000030: 3951 833f 573c 813f a6e9 853f 568f 7e3f
00000040: 9894 7f3f b2f3 853f cc82 7b3f 837c 813f
00000050: cb3c 7f3f e085 7f3f 2654 823f dd54 873f
00000060: 0754 843f 28f7 813f 53b3 7e3f 8439 7a3f
00000070: 0011 7f3f c5ff 7e3f 6f47 7d3f 7474 803f
00000080: 8c18 783f 7e55 823f aaa9 803f 1fe9 803f
00000090: d48f 703f c230 873f 8782 803f 0cae 823f
000000a0: d12c 863f ac76 803f d8ca 7f3f 2955 843f
000000b0: dded 833f 2329 773f 5d6c 823f 7e6a 863f
000000c0: 67d8 863f 1a04 843f 2b8b 8e3f ed3c 813f
000000d0: f9d3 793f 5996 823f 743e 833f 096a 803f
000000e0: 2b27 7c3f e2c9 823f 50c6 803f 30f8 813f
000000f0: 0a93 823f ccdc 853f a94b 7a3f 8e67 863f

model.10.bias f4 [64]
0.0008808088 0.0032035674 -0.0038495546 -0.009322408 0.007765715 0.016988754 0.028721703 0.005955155
-0.031349357 -0.019361082 0.019547291 0.008318352 0.009741805 -0.009304622 0.015704375 -0.010266128
-0.020582134 -0.011339262 0.010327054 0.0027765664 0.008118843 -0.00803003 0.0029741768 -0.039206438
-0.0038883933 -0.0038338092 0.043052297 -0.00017600768 0.012919513 0.012593143 -0.0031787674 0.012590187
0.01926071 -0.00067432784 0.01057823 -0.031152535 0.022029273 0.0003905977 0.022944765 0.048589677
0.023490096 -0.008615499 0.02767508 0.012206868 -0.0096772425 -0.0007436059 -0.039897975 -0.007985747
-0.048799694 -0.013493318 -0.008591845 0.0029947127 -0.0063948315 0.0058098854 0.018347938 -0.0044281473
0.017188905 -0.013290975 -0.01079285 0.023984866 -0.0069912756 -0.004622981 0.014171196 -0.0066616544
00000000: 14e6 663a f1f2 513b cf48 7cbb 03bd 18bc
00000010: 8a77 fe3b 002c 8b3c c749 eb3c 7623 c33b
00000020: 2f68 00bd 229b 9ebc a421 a03c b249 083c
00000030: 179c 1f3c 6a72 18bc 76a6 803c 4333 28bc
00000040: dd9b a8bc 50c8 39bc ce32 293c 0ef7 353b
00000050: e504 053c 6390 03bc 68ea 423b ee96 20bd
00000060: 6ad4 7ebb a540 7bbb 9b57 303d b48e 38b9
00000070: 5dac 533c 7853 4e3c de52 50bb 1247 4e3c
00000080: a3c8 9d3c 60c5 30ba 5050 2d3c 9a33 ffbc
00000090: bc76 b43c 23c9 cc39 a9f6 bb3c f805 473d
000000a0: 4d6e c03c 0628 0dbc d9b6 e23c 51ff 473c
000000b0: 4c8d 1ebc 8cee 42ba 0f6c 23bd a7d6 02bc
000000c0: 30e2 47bd 1413 5dbc cfc4 0cbc f142 443b
000000d0: bc8b d1bb da60 be3b 6a4e 963c fe19 91bb
000000e0: bfcf 8c3c 64c2 59bc 7ed4 30bc e97b c43c
000000f0: 1217 e5bb 607c 97bb 4e2e 683c 024a dabb

model.10.running_mean f4 [64]
0.008150576 0.011647359 -0.0037300806 -0.003978442 0.021311188 0.0035115231 0.009031631 -0.0063350894
-0.01284022 -0.0055041933 -0.010832122 -0.010564206 -0.004437847 -0.01977872 0.00042322275 0.00596199
0.008863035 -0.009028599 -0.010420811 -0.001962146 -0.0006477142 -0.017636098 0.0003089608 0.023086786
0.008771279 -0.01921957 -0.016678302 -0.006159325 0.003112701 0.010654271 0.0058559305 -0.0054588555
0.019592514 0.0015628886 0.012824442 -0.0051467665 0.01657739 -0.011903691 -0.0026360801 -0.0097205825
-0.0023376227 0.0035478557 3.957859e-05 0.006990571 -0.011031 0.016502347 0.015556381 -0.004668333
0.007225579 -0.0072086155 -0.023283655 -0.013155774 -0.0029942147 -0.001751574 -0.001960394 -0.010777757
-0.004090628 0.022294741 0.010401231 0.0031508247 0.0017992125 -0.0049083405 0.014222419 -0.002873397
00000000: fe89 053c 90d4 3e3c 5e74 74bb 975d 82bb
00000010: cd94 ae3c 9521 663b 68f9 133c 9596 cfbb
00000020: c95f 52bc 855c b4bb 3679 31bc 7e15 2dbc
00000030: 5c6b 91bb fb06 a2bc ffe3 dd39 cc5c c33b
00000040: 4336 113c b0ec 13bc 0dbc 2abc 5997 00bb
00000050: 5dcb 29ba 9479 90bc 04fc a139 8020 bd3c
00000060: 69b5 0f3c 5c72 9dbc efa0 88bc 2ad4 c9bb
00000070: 75fe 4b3b 408f 2e3c 1be3 bf3b 33e0 b2bb
00000080: 7b80 a03c d7d9 cc3a 9c1d 523c 35a6 a8bb
00000090: 4ecd 873c b307 43bc 16c2 2cbb 1443 1fbc
000000a0: cd32 19bb 2483 683b 3001 2638 2911 e53b
000000b0: 5ebb 34bc ee2f 873c 31e0 7e3c d1f8 98bb
000000c0: 8dc4 ec3b 4036 ecbb 5dbd bebc 518b 57bc
000000d0: 963a 44bb 1295 e5ba f479 00bb 3095 30bc
000000e0: ad0a 86bb 76a3 b63c ed69 2a3c 117e 4e3b
000000f0: 8ed3 eb3a 25d6 a0bb 2605 693c 9a4f 3cbb

model.10.running_var f4 [64]
0.0009749881 0.0015649949 0.0006060824 0.0004911882 0.0012032127 0.0005513512 0.0015795263 0.00052480435
0.00012175641 0.0008567658 0.00013714084 0.0009860174 0.0002652183 0.00020204324 0.0010342043 0.0010645943
0.00083342986 0.00025616278 0.00018372337 0.00055552315 0.00040441504 0.00036945005 0.00031763877 0.0011110767
0.0008260498 0.00032128292 0.00030725138 0.0004268516 0.00039349118 0.0008148098 0.0008687299 0.0003322948
0.0027312422 0.00036068316 0.0019126658 0.0002700751 0.0011843636 0.00033248114 0.0003628923 0.00033607293
0.00036118843 0.0012148021 0.0010131102 0.0008483539 0.00095659227 0.001626341 0.0015994725 0.00081032433
0.0014681125 0.0007172035 0.0010499709 0.00015582624 0.0003390408 0.00077942765 0.00023036863 0.00013348274
0.0002577768 0.0010583688 0.00071267626 0.00057770277 0.0006031583 0.00025133442 0.0007031603 0.00025706095
00000000: 5896 7f3a 8420 cd3a 80e1 1e3a 15c3 003a
00000010: 1eb5 9d3a 8d88 103a 1c08 cf3a 0693 093a
00000020: 7a57 ff38 9498 603a 77cd 0f39 413d 813a
00000030: ff0c 8b39 92db 5339 238e 873a db89 8b3a
00000040: 887a 5a3a 964d 8639 dea5 4039 87a0 113a
00000050: ab07 d439 bfb2 c139 c188 a639 8ca1 913a
00000060: 448b 583a dd71 a839 9516 a139 0dcb df39
00000070: 7e4d ce39 f698 553a 7abb 633a da37 ae39
00000080: a4fe 323b 131a bd39 6ab2 fa3a de98 8d39
00000090: a63c 9b3a dd50 ae39 9442 be39 f232 b039
000000a0: e45d bd39 ff39 9f3a 56ca 843a 1164 5e3a
000000b0: d2c3 7a3a f32a d53a 64a5 d13a f26b 543a
000000c0: ae6d c03a b602 3c3a 2d9f 893a 4a65 2339
000000d0: 49c1 b139 8152 4c3a 1c8f 7139 80f7 0b39
000000e0: 3726 8739 f7b8 8a3a e5d2 3a3a fa70 173a
000000f0: 451d 1e3a 89c5 8339 4a54 383a 23c6 8639

model.11.weight f4 [128, 64, 3, 3]
0.020651722 -0.0002090525 -0.039218485 0.017591972 0.02166297 -0.025662228 -0.01648257 0.031399406
-0.0074744383 -0.040411722 -0.050373908 -0.03130183 0.029507363 -0.020557968 0.0053009638 -0.005289133
-0.03736714 -0.007857347 -0.0177982 -0.04182418 0.02000277 -0.011656875 -0.0046954593 0.024126913
-0.00298812 -0.004353716 -0.0045097694 -0.02854245 -0.06921135 -0.04897694 -0.017991735 -0.019767879
-0.0076590995 0.011803797 0.03701145 -0.0060915183 0.012277067 -0.0025721197 -0.008552061 0.015274845
0.022118224 0.017952368 -0.0044308174 0.004682497 0.059250273 -0.007841513 -0.014299505 -0.03699372
0.02767333 0.015578592 0.015910426 0.047132235 2.5942005e-05 0.0088362405 0.034107815 -0.029895103
-0.04593269 0.022864 0.029787939 -0.03553424 0.0121792285 -0.0033228218 0.0013093296 0.012811878
0.042259283 0.039599437 -0.0066133454 0.036809757 0.065396 -0.03593865 -0.03040683 0.03507108
0.039520398 -0.00609922 0.00019594839 0.0053262436 -0.010486182 0.009892105 0.026649754 0.054654878
-0.008465895 0.017848419 0.007695546 -0.0039651725 0.01388458 -0.024383629 0.0028743157 0.057948615
0.009273185 -0.017371934 0.047672193 0.008953226 0.011030968 0.016739806 0.023100937 0.006042923
0.009589042 -0.016665678 -0.0038209509 0.012824161 -0.056539863 0.04181065 0.062041536 0.012952478
-0.0092396345 0.020292241 -0.004421372 -0.024584351 -0.029464183 0.021847155 0.00013515423 0.057029594
-0.011081781 0.062371638 0.010103419 0.031090003 0.016166653 -0.003979522 -0.003212923 -0.0063737826
0.056595337 0.040084545 -0.045334823 0.0037236968 -0.005887223 0.010625393 0.051750407 0.030081047
0.03177952 0.024020733 0.0057713618 -0.04365032 -0.031352315 0.013593328 0.010048069 -0.011120326
-0.04493457 -0.014604113 0.02898617 0.04464478 -0.01064843 0.03329605 -0.019832717 -0.010720615
-0.037005726 -0.019675646 -0.020421589 0.026757903 0.022231376 -0.006780296 0.048745584 0.019766485
-0.010330885 0.051487606 0.02474844 0.05836945 0.066153534 0.010351944 -0.019307788 0.022921622
0.04700748 0.0010150913 0.031455595 0.051789038 -0.0042095366 -0.022197139 -0.03179987 0.015617481
0.022269998 -0.0311229 0.0145983 0.009205818 0.0014577231 -0.039907333 0.02558691 -0.009204999
0.008223963 0.010026113 0.017976824 0.021328744 0.012825826 0.0053303186 -0.022482308 0.008904204
-0.010688075 -0.004918378 0.019548694 0.01131391 -0.0056246715 0.039776362 -0.010132441 0.021815827
0.07562349 0.027550066 0.025654245 0.00020401146 0.030558042 0.037973307 -0.029733483 -0.029216077
-0.025281416 -0.013942229 0.014527261 0.01246697 0.041603096 0.011047066 -0.0015913047 -0.03975738
-0.029045384 -0.0050098826 0.032556377 -0.034310266 0.051551722 0.043169882 0.01658842 -0.015026639
-0.022843817 0.014145663 0.025949411 -0.0072030285 -0.01870892 0.038461726 0.015580393 -0.012045456
0.00929757 0.040785156 0.042149954 -0.016277635 0.028436095 0.010023946 0.054638192 -0.016028263
0.039757676 -0.004396374 -0.00895461 -0.006486337 0.013867771 -0.029234124 0.0091293305 0.010217061
-0.01675662 -0.0046059075 -0.044745125 -0.044693433 -0.0368422 -0.070094824 -0.037409905 0.05926702
0.045770723 -0.0015844085 0.024978824 0.01688058 0.028697701 0.036739275 0.03293948 0.053131722
00000000: cd2d a93c 1a35 5bb9 90a3 20bd 0a1d 903c
00000010: 8a76 b13c 9839 d2bc 7406 87bc aa9c 003d
00000020: 22ec f4bb c386 25bd df54 4ebd 5936 00bd
00000030: 6db9 f13c 2f69 a8bc b5b3 ad3b 7750 adbb
00000040: 490e 19bd 1abc 00bc 88cd 91bc d54f 2bbd
00000050: d9dc a33c 7afc 3ebc 5edc 99bb cea5 c53c
00000060: 56d4 43bb 9ea9 8ebb b0c6 93bb dbd1 e9bc
00000070: aebe 8dbd 0b9c 48bd 6763 93bc 3ff0 a1bc
00000080: 2ff9 fabb b764 413c 5199 173d 5c9b c7bb
00000090: c025 493c 0291 28bb f21d 0cbc 5843 7a3c
000000a0: 4731 b53c d810 933c 6430 91bb a26f 993b
000000b0: 6ab0 723d b079 00bc 7948 6abc ba86 17bd
000000c0: 2eb3 e23c 5a3d 7f3c 9556 823c bb0d 413d
000000d0: 089e d937 e1c5 103c a3b4 0b3d 93e6 f4bc
000000e0: eb23 3cbd 494d bb3c d605 f43c 5a8c 11bd
000000f0: 638b 473c b3c3 59bb d09d ab3a e9e8 513c
00000100: 1218 2d3d 0533 223d c3b4 d8bb d4c5 163d
00000110: 57ee 853d 6834 13bd bf17 f9bc b1a6 0f3d
00000120: 24e0 213d f7db c7bb 7f77 4d39 c587 ae3b
00000130: 3cce 2bbc 7f12 223c 9650 da3c cbdd 5f3d
00000140: 8ab4 0abc d936 923c eb2a fc3b 47ee 81bb
00000150: 267c 633c 2dc0 c7bc 045f 3c3b 875b 6d3d
00000160: 8fee 173c 964f 8ebc eb43 433d 8db0 123c
00000170: 3cbb 343c eb21 893c 2d3e bd3c b603 c63b
00000180: 5b1b 1d3c 7686 88bc eb68 7abb 6e1c 523c
00000190: 5896 67bd a541 2b3d 441f 7e3d a136 543c
000001a0: d661 17bc ea3b a63c 28e1 90bb 1f65 c9bc
000001b0: df5e f1bc cef8 b23c 30b8 0d39 dd97 693d
000001c0: 5c90 35bc 6779 7f3d d088 253c 76b0 fe3c
000001d0: ee6f 843c a666 82bb e78f 52bb 2adb d0bb
000001e0: 83d0 673d b12f 243d 02b1 39bd 4409 743b
000001f0: 9be9 c0bb 2116 2e3c 3cf8 533d 876c f63c
00000200: 3e2b 023d 21c7 c43c b11d bd3b aeca 32bd
00000210: 496b 00bd 8db6 5e3c a8a0 243c 0732 36bc
00000220: 500d 38bd 1746 6fbc 6874 ed3c 72dd 363d
00000230: c176 2ebc 7061 083d 3978 a2bc 85a5 2fbc
00000240: 5193 17bd d22e a1bc 2d4b a7bc 6433 db3c
00000250: 931e b63c 3f2d debb 73a9 473d 53ed a13c
00000260: df42 29bc abe4 523d 3ebd ca3c ce14 6f3d
00000270: 817b 873d 339b 293c 5e2b 9ebc 20c6 bb3c
00000280: ea8a 403d d00c 853a 95d7 003d be20 543d
00000290: 27f0 89bb c6d6 b5bc 9540 02bd 77e0 7f3c
000002a0: 926f b63c 74f5 febc b52d 6f3c 00d4 163c
000002b0: 1211 bf3a df75 23bd a49b d13c 90d0 16bc
000002c0: cdbd 063c 9144 243c 2244 933c 9eb9 ae3c
000002d0: 6a23 523c f4a9 ae3b d12c b8bc f0e2 113c
000002e0: 091d 2fbc 582a a1bb 9524 a03c fa5d 393c
000002f0: 2a4f b8bb 8aec 223d 8a02 26bc 1bb7 b23c
00000300: 7de0 9a3d adb0 e13c da28 d23c e9eb 5539
00000310: dc54 fa3c e689 1b3d a293 f3bc 8e56 efbc
00000320: f91a cfbc f26d 64bc c003 6e3c 4342 4c3c
00000330: 0268 2a3d c1fe 343c 5393 d0ba a2d8 22bd
00000340: 96f0 edbc f129 a4bb d659 053d ec88 0cbd
00000350: e627 533d e7d2 303d 70e4 873c 4b32 76bc
00000360: f522 bbbc 36c3 673c dc93 d43c 6207 ecbb
00000370: 7343 99bc 0b8a 1d3d e844 7f3c 4e5a 45bc
00000380: d654 183c 560e 273d 6ea5 2c3d ad58 85bc
00000390: d0f2 e83c 7a3b 243c 4ccc 5f3d b44d 83bc
000003a0: f2d8 223d 750f 90bb 5bb6 12bc 578b d4bb
000003b0: a635 633c 677c efbc 3093 153c 7665 273c
000003c0: 2e45 89bc 27ed 96bb aa46 37bd 7610 37bd
000003d0: d9e7 16bd e08d 8fbd 213b 19bd fac1 723d
000003e0: 157a 3b3d edab cfba 64a0 cc3c 2449 8a3c
000003f0: 7117 eb3c ec7b 163d 8ceb 063d a6a0 593d

model.11.bias f4 [128]
-0.0143484585 -0.038229138 -0.009995094 0.024217423 -0.01043043 -0.024618901 -0.017410822 -0.02959313
-0.012481471 0.014399353 -0.0132054845 0.0049366723 -0.002294105 -0.013184237 -0.01730475 -0.014814087
-0.007546314 0.0012504512 0.0033684284 -0.048264265 -0.012088515 -0.03209941 -0.012308319 -0.019211436
0.004496999 -0.025235495 -0.044360306 -0.031929914 -0.0125050135 -0.03142687 0.025326727 0.008495745
0.03824974 -0.04902948 -0.013020387 -0.0069698025 -0.012702583 -0.005717336 0.0073933224 0.026572049
0.0011424689 0.003150989 0.0022551375 -0.014928075 -0.00125869 -0.008238087 -0.006763762 -0.020812718
0.0117996 -0.009094082 -0.008315566 -0.030645546 -0.018966658 -0.022024777 0.008062971 0.0077365837
0.012042434 -0.02985642 -0.045219366 -0.0014673646 -0.012010853 -0.03730859 0.013648637 -0.011071955
-0.0074151326 -0.02927297 -0.008174485 -0.024232695 -0.019867696 -0.045744963 0.029311378 0.024764363
-0.024019834 0.0030428807 -0.019370532 -0.025291905 -0.002710237 -0.001750977 -0.02552521 -0.01826577
-0.012713848 -0.050201077 -0.020318491 -0.05289384 -0.0052790497 0.0044093593 -0.010530712 -0.020001942
0.012243679 -0.035029873 -0.048694447 -0.036289304 -0.00043321634 -0.028826391 0.0004987186 -0.014376498
-0.02066288 -0.03546794 -0.04742507 -0.009431536 -0.0070295255 -0.012808464 -0.02923757 -0.014064366
-0.00033183518 -0.010436044 -0.013949329 -0.030437581 -0.0012293102 -0.009909184 0.01728569 -0.013398878
-0.005559819 -0.010800389 0.017492048 0.017388474 -0.02109501 0.0030266827 -0.023789983 -0.000562673
-0.008944366 -0.0032552923 0.0046271062 -0.042175625 0.00018633278 -0.004459428 -0.024393179 -0.025081877
00000000: cc15 6bbc 2896 1cbd 76c2 23bc 9e63 c63c
00000010: 65e4 2abc 94ad c9bc 24a1 8ebc 4b6d f2bc
00000020: 157f 4cbc 44eb 6b3c d15b 58bc cfc3 a13b
00000030: b258 16bb b302 58bc b1c2 8dbc c9b6 72bc
00000040: 1247 f7bb 2ee6 a33a dac0 5c3b c0b0 45bd
00000050: e80e 46bc ac7a 03bd d5a8 49bc 4d61 9dbc
00000060: 905b 933b abba cebc 27b3 35bd f1c8 02bd
00000070: d4e1 4cbc 76b9 00bd ff79 cf3c bd31 0b3c
00000080: c2ab 1c3d 23d3 48bd 7653 55bc f162 e4bb
00000090: 7f1e 50bc 7e58 bbbb af43 f23b a0ad d93c
000000a0: e5be 953a d380 4e3b eeca 133b e294 74bc
000000b0: a1fa a4ba 0bf9 06bc 8ca2 ddbb 6f7f aabc
000000c0: 1c53 413c 58ff 14bc 033e 08bc 5e0c fbbc
000000d0: f75f 9bbc 4e6d b4bc 8d1a 043c 2b83 fd3b
000000e0: a14d 453c 7395 f4bc f137 39bd 9654 c0ba
000000f0: 2bc9 44bc e4d0 18bd 889e 5f3c 2567 35bc
00000100: a4fa f2bb decd efbc 46ee 05bc a583 c6bc
00000110: 94c1 a2bc 125f 3bbd 6a1e f03c a2de ca3c
00000120: 3ec5 c4bc 116b 473b f3ae 9ebc f830 cfbc
00000130: 3b9e 31bb 0a81 e5ba 3f1a d1bc 19a2 95bc
00000140: be4d 50bc a59f 4dbd f772 a6bc 36a7 58bd
00000150: e1fb acbb 637c 903b 0289 2cbc 1ddb a3bc
00000160: b699 483c 7c7b 0fbd d473 47bd 18a4 14bd
00000170: 5021 e3b9 5325 ecbc 70bc 023a 678b 6bbc
00000180: 3345 a9bc d546 11bd ca40 42bd bb86 1abc
00000190: ef57 e6bb 97da 51bc a183 efbc 3a6e 66bc
000001a0: 2afa adb9 f1fb 2abc ba8b 64bc 3c58 f9bc
000001b0: ce20 a1ba 215a 22bc b89a 8d3c f886 5bbc
000001c0: 242f b6bb 1df4 30bc 7c4b 8f3c 4672 8e3c
000001d0: 71cf acbc 4f5b 463b 36e3 c2bc 5980 13ba
000001e0: 648b 12bc be56 55bb fb9e 973b 59c0 2cbd
000001f0: 5362 4339 6520 92bb 34d4 c7bc 8278 cdbc

model.14.weight f4 [128]
0.95847267 1.0072614 1.0058259 1.0479342 1.0052468 1.0046389 1.0142092 0.98119926
1.0279226 0.97612756 1.0266662 1.0899526 1.0115232 0.99303085 0.9815396 1.0175022
1.0376672 0.99560314 0.97304845 1.0275633 1.0000318 1.0041742 1.0018911 0.9520176
1.0534103 1.002997 1.0109745 0.97691005 1.0326282 0.99883 1.0450257 0.97606444
1.0430247 0.9611783 1.002511 1.0029023 0.9871127 0.9972371 1.0120162 0.9987977
1.0414577 0.97330666 1.0081872 1.0320915 1.001477 0.9800594 1.0040133 1.0506326
0.9866497 1.009328 0.9724726 0.98124456 0.97804666 0.99895746 1.0079288 1.0196118
1.0169457 1.0435963 0.9932275 0.99904716 1.0321805 0.95921385 0.99984926 0.9825218
1.0328335 1.0388385 1.004286 0.98464364 0.98614645 1.0101386 1.0083139 0.98619455
0.99501055 1.0268953 1.0269302 1.0070401 0.9831823 0.97577536 0.99348146 1.0274947
1.0055255 0.99213064 0.99077207 1.0698017 0.9879621 0.9748209 1.0216519 0.98087126
0.9682248 1.0304796 0.9719071 1.0348948 1.0057807 1.0091364 0.9656454 0.9961467
1.0177621 1.0020455 1.0115734 1.0194061 1.0169961 1.0231081 0.993311 0.991013
1.0322071 1.0144145 0.95609504 1.0026138 1.0030158 1.0370024 0.9847255 0.96592206
1.0424622 0.9924129 1.0124816 0.959792 0.99820286 1.0343386 1.0295662 1.0194981
0.9902763 1.0119114 0.9824402 1.0473875 0.9964185 1.0335054 0.97276294 1.0287224
00000000: 775e 753f f1ed 803f e7be 803f b522 863f
00000010: edab 803f 0298 803f 9bd1 813f e02f 7b3f
00000020: f892 833f 7fe3 793f cc69 833f 9183 8b3f
00000030: 9879 813f 4537 7e3f 2e46 7b3f 833d 823f
00000040: 47d2 843f d9df 7e3f b419 793f 3287 833f
00000050: 0b01 803f c888 803f f83d 803f 6db7 733f
00000060: 26d6 863f 3562 803f 9d67 813f c716 7a3f
00000070: 292d 843f 53b3 7f3f 67c3 853f 5cdf 793f
00000080: d581 853f c80f 763f 4852 803f 1a5f 803f
00000090: 6bb3 7c3f ee4a 7f3f bf89 813f 35b1 7f3f
000000a0: 7c4e 853f a02a 793f 470c 813f 931b 843f
000000b0: 6630 803f 2ce5 7a3f 8283 803f 217b 863f
000000c0: 1395 7c3f a931 813f f7f3 783f d832 7b3f
000000d0: 4461 7a3f adbb 7f3f d003 813f a482 823f
000000e0: 472b 823f 9094 853f 2844 7e3f 8ec1 7f3f
000000f0: 7e1e 843f 0a8f 753f 1ff6 7f3f 8c86 7b3f
00000100: e333 843f a9f8 843f 728c 803f 9b11 7c3f
00000110: 1874 7c3f 394c 813f 6e10 813f 3f77 7c3f
00000120: 03b9 7e3f 4e71 833f 7372 833f b1e6 803f
00000130: d6b1 7b3f 6acc 793f cd54 7e3f f284 833f
00000140: 0fb5 803f 46fc 7d3f 3da3 7d3f 43ef 883f
00000150: 16eb 7c3f dd8d 793f 7dc5 823f 611a 7b3f
00000160: 95dd 773f c1e6 833f e7ce 783f 6f77 843f
00000170: 6cbd 803f 622b 813f 8934 773f 7803 7f3f
00000180: 0746 823f 0743 803f 3d7b 813f e67b 823f
00000190: ee2c 823f 35f5 823f a149 7e3f 07b3 7d3f
000001a0: 5d1f 843f 56d8 813f a5c2 743f a655 803f
000001b0: d262 803f 7fbc 843f f816 7c3f ab46 773f
000001c0: 676f 853f c60e 7e3f ff98 813f eeb4 753f
000001d0: 398a 7f3f 3565 843f d3c8 833f ea7e 823f
000001e0: bf82 7d3f 5086 813f 3381 7b3f cb10 863f
000001f0: 4815 7f3f e849 843f fe06 793f 2dad 833f

model.14.bias f4 [128]
0.009647069 -0.009639304 -0.0007858661 0.025502905 0.016394088 0.017581033 0.010594313 0.019233976
0.026606599 0.015818808 0.014805389 -0.0015428204 0.0041703433 -0.012579106 0.011314778 0.020451369
0.032470714 0.01528377 -0.010260231 0.008053969 -0.0021591855 0.008343271 0.016392127 -0.0082908515
0.0037468567 -0.005620533 0.018017003 -0.010860988 0.0014041067 0.0017242155 0.007869368 0.0019005943
-0.015372638 -0.017589467 0.0038365936 0.041510034 -0.0032880662 0.012602802 0.016180495 -0.013012442
-0.003844684 0.0013154154 0.008907483 0.015804024 -0.010090482 -0.009665694 0.0014386246 0.006544215
-0.012648093 -0.0098816315 0.0190744 -0.008707717 0.012454426 -0.010214801 0.024806753 -0.0010156666
-0.005928263 0.008989527 0.003347255 -0.004551818 0.007212389 -0.009955614 0.0057662805 -0.0077441013
-0.0039383993 0.018276738 0.01839934 0.013826356 -0.0106156785 0.025224302 0.0061672647 -0.011918181
0.012094953 0.017137915 0.030921686 0.021661865 0.0210852 -0.001732613 -0.011159225 0.0039746347
0.019237682 -0.005418829 0.0101044625 0.022455832 0.0020515425 -0.009267642 0.017702319 -4.8951013e-05
0.0044240393 -0.0047640475 -0.0036842988 -0.008531173 0.023775829 -0.011376216 0.00014301695 0.01580249
0.011824676 -0.0015391866 -0.003477999 0.011103507 0.017409286 0.0034496917 0.0054727094 -0.0059083304
-0.007916534 0.01915004 0.027395343 -0.0064369887 -0.0068899584 0.016250638 0.01637368 -0.006657335
0.021948034 0.017388657 0.014027744 -0.0025962135 0.015927685 -0.008072047 0.009833235 0.012129237
0.015036649 -0.005925574 0.014526968 0.012260251 -0.0075547886 0.00038057243 0.00045511656 -0.0026680469
00000000: bd0e 1e3c 2cee 1dbc 9502 4eba 78eb d03c
00000010: e54c 863c 1906 903c c593 2d3c 9290 9d3c
00000020: 15f6 d93c 7296 813c 4d92 723c 7638 caba
00000030: 60a7 883b 9818 4ebc 9e61 393c a189 a73c
00000040: 0300 053d c768 7a3c 871a 28bc cbf4 033c
00000050: 1f81 0dbb 37b2 083c c848 863c 5ad6 07bc
00000060: d38d 753b 732c b8bb 6598 933c 49f2 31bc
00000070: 010a b83a 12ff e13a 86ee 003c 5d1d f93a
00000080: 84dd 7bbc c917 90bc 5c6f 7b3b 6d06 2a3d
00000090: 997c 57bb fc7b 4e3c f58c 843c 2332 55bc
000000a0: 18f7 7bbb 046a ac3a b1f0 113c 7177 813c
000000b0: 8d52 25bc dc5c 1ebc 3b90 bc3a db70 d63b
000000c0: f239 4fbc 91e6 21bc eb41 9c3c d0aa 0ebc
000000d0: a60d 4c3c fb5b 27bc 8837 cb3c 1e20 85ba
000000e0: e041 c2bb cf48 133c 9f5d 5b3b 6b27 95bb
000000f0: e755 ec3b df1c 23bc 11f3 bc3b 3bc2 fdbb
00000100: b00d 81bb 19b9 953c 36ba 963c f187 623c
00000110: 62ed 2dbc 32a3 ce3c c416 ca3b 7944 43bc
00000120: e929 463c d064 8c3c 7a4f fd3c 3974 b13c
00000130: dfba ac3c d818 e3ba 2fd5 36bc a73d 823b
00000140: 5898 9d3c 6f90 b1bb 308d 253c 4bf5 b73c
00000150: 2c73 063b 4fd7 17bc 7404 913c c050 4db8
00000160: 88f7 903b ba1b 9cbb 4774 71bb 55c6 0bbc
00000170: 87c5 c23c 4f63 3abc d2f6 1539 3974 813c
00000180: 49bc 413c 88be c9ba 24ef 63bb 7ceb 353c
00000190: eb9d 8e3c 3914 623b 6a54 b33b ab9a c1bb
000001a0: 5ab4 01bc 8be0 9c3c 336c e03c 60ed d2bb
000001b0: 29c5 e1bb 0f20 853c 1922 863c c625 dabb
000001c0: 5dcc b33c a872 8e3c 9fd4 653c 3c25 2abb
000001d0: c77a 823c 9e40 04bc 941b 213c b5b9 463c
000001e0: 475c 763c 512b c2bb 8502 6e3c 38df 483c
000001f0: 298e f7bb 9187 c739 b69c ee39 66da 2ebb
